tme4/lightning_logs/version_9/checkpoints/epoch=0-step=879.ckpt (torch, 22097 bytes, 24 tensors)

exp_avg f4 [30, 1]
0	0x00000000	0.0
1	0x00000000	0.0
2	0x00000000	0.0
3	0x00000000	0.0
4	0x00000000	0.0
5	0x00000000	0.0
6	0x00000000	0.0
7	0x00000000	0.0
8	0x00000000	0.0
9	0x00000000	0.0
10	0x00000000	0.0
11	0x00000000	0.0
12	0x00000000	0.0
13	0x00000000	0.0
14	0x00000000	0.0
15	0x00000000	0.0
16	0x00000000	0.0
17	0x00000000	0.0
18	0x00000000	0.0
19	0x00000000	0.0
20	0x00000000	0.0
21	0x00000000	0.0
22	0x00000000	0.0
23	0x00000000	0.0
24	0xac40bad3	-2.738855e-12
25	0x00000000	0.0
26	0x00000000	0.0
27	0x00000000	0.0
28	0x00000000	0.0
29	0x00000000	0.0

exp_avg_sq f4 [30, 1]
0	0x00000000	0.0
1	0x00000000	0.0
2	0x00000000	0.0
3	0x00000000	0.0
4	0x00000000	0.0
5	0x00000000	0.0
6	0x00000000	0.0
7	0x00000000	0.0
8	0x00000000	0.0
9	0x00000000	0.0
10	0x00000000	0.0
11	0x00000000	0.0
12	0x00000000	0.0
13	0x00000000	0.0
14	0x00000000	0.0
15	0x00000000	0.0
16	0x00000000	0.0
17	0x00000000	0.0
18	0x00000000	0.0
19	0x00000000	0.0
20	0x00000000	0.0
21	0x00000000	0.0
22	0x00000000	0.0
23	0x00000000	0.0
24	0x30fdc717	1.8464758e-09
25	0x00000000	0.0
26	0x00000000	0.0
27	0x00000000	0.0
28	0x00000000	0.0
29	0x00000000	0.0

exp_avg f4 [30]
0	0x00000000	0.0
1	0x00000000	0.0
2	0x00000000	0.0
3	0x00000000	0.0
4	0x00000000	0.0
5	0x00000000	0.0
6	0x00000000	0.0
7	0x00000000	0.0
8	0x00000000	0.0
9	0x00000000	0.0
10	0x00000000	0.0
11	0x00000000	0.0
12	0x00000000	0.0
13	0x00000000	0.0
14	0x00000000	0.0
15	0x00000000	0.0
16	0x00000000	0.0
17	0x00000000	0.0
18	0x00000000	0.0
19	0x00000000	0.0
20	0x00000000	0.0
21	0x00000000	0.0
22	0x00000000	0.0
23	0x00000000	0.0
24	0xa83a416a	-1.03392585e-14
25	0x00000000	0.0
26	0x00000000	0.0
27	0x00000000	0.0
28	0x00000000	0.0
29	0x00000000	0.0

exp_avg_sq f4 [30]
0	0x00000000	0.0
1	0x00000000	0.0
2	0x00000000	0.0
3	0x00000000	0.0
4	0x00000000	0.0
5	0x00000000	0.0
6	0x00000000	0.0
7	0x00000000	0.0
8	0x00000000	0.0
9	0x00000000	0.0
10	0x00000000	0.0
11	0x00000000	0.0
12	0x00000000	0.0
13	0x00000000	0.0
14	0x00000000	0.0
15	0x00000000	0.0
16	0x00000000	0.0
17	0x00000000	0.0
18	0x00000000	0.0
19	0x00000000	0.0
20	0x00000000	0.0
21	0x00000000	0.0
22	0x00000000	0.0
23	0x00000000	0.0
24	0x28cf16ed	2.2991559e-14
25	0x00000000	0.0
26	0x00000000	0.0
27	0x00000000	0.0
28	0x00000000	0.0
29	0x00000000	0.0

exp_avg f4 [30, 30]
0	0x00000000	0.0
1	0x00000000	0.0
2	0x00000000	0.0
3	0x00000000	0.0
4	0x00000000	0.0
5	0x00000000	0.0
6	0x00000000	0.0
7	0x00000000	0.0
8	0x00000000	0.0
9	0x00000000	0.0
10	0x00000000	0.0
11	0x00000000	0.0
12	0x00000000	0.0
13	0x00000000	0.0
14	0x00000000	0.0
15	0x00000000	0.0
16	0x00000000	0.0
17	0x00000000	0.0
18	0x00000000	0.0
19	0x00000000	0.0
20	0x00000000	0.0
21	0x00000000	0.0
22	0x00000000	0.0
23	0x00000000	0.0
24	0x00000000	0.0
25	0x00000000	0.0
26	0x00000000	0.0
27	0x00000000	0.0
28	0x00000000	0.0
29	0x00000000	0.0
30	0x00000000	0.0
31	0x00000000	0.0
32	0x00000000	0.0
33	0x00000000	0.0
34	0x00000000	0.0
35	0x00000000	0.0
36	0x00000000	0.0
37	0x00000000	0.0
38	0x00000000	0.0
39	0x00000000	0.0
40	0x00000000	0.0
41	0x00000000	0.0
42	0x00000000	0.0
43	0x00000000	0.0
44	0x00000000	0.0
45	0x00000000	0.0
46	0x00000000	0.0
47	0x00000000	0.0
48	0x00000000	0.0
49	0x00000000	0.0
50	0x00000000	0.0
51	0x00000000	0.0
52	0x00000000	0.0
53	0x00000000	0.0
54	0x00000000	0.0
55	0x00000000	0.0
56	0x00000000	0.0
57	0x00000000	0.0
58	0x00000000	0.0
59	0x00000000	0.0
60	0x00000000	0.0
61	0x00000000	0.0
62	0x00000000	0.0
63	0x00000000	0.0
64	0x00000000	0.0
65	0x00000000	0.0
66	0x00000000	0.0
67	0x00000000	0.0
68	0x00000000	0.0
69	0x00000000	0.0
70	0x00000000	0.0
71	0x00000000	0.0
72	0x00000000	0.0
73	0x00000000	0.0
74	0x00000000	0.0
75	0x00000000	0.0
76	0x00000000	0.0
77	0x00000000	0.0
78	0x00000000	0.0
79	0x00000000	0.0
80	0x00000000	0.0
81	0x00000000	0.0
82	0x00000000	0.0
83	0x00000000	0.0
84	0x00000000	0.0
85	0x00000000	0.0
86	0x00000000	0.0
87	0x00000000	0.0
88	0x00000000	0.0
89	0x00000000	0.0
90	0x00000000	0.0
91	0x00000000	0.0
92	0x00000000	0.0
93	0x00000000	0.0
94	0x00000000	0.0
95	0x00000000	0.0
96	0x00000000	0.0
97	0x00000000	0.0
98	0x00000000	0.0
99	0x00000000	0.0
100	0x00000000	0.0
101	0x00000000	0.0
102	0x00000000	0.0
103	0x00000000	0.0
104	0x00000000	0.0
105	0x00000000	0.0
106	0x00000000	0.0
107	0x00000000	0.0
108	0x00000000	0.0
109	0x00000000	0.0
110	0x00000000	0.0
111	0x00000000	0.0
112	0x00000000	0.0
113	0x00000000	0.0
114	0x00000000	0.0
115	0x00000000	0.0
116	0x00000000	0.0
117	0x00000000	0.0
118	0x00000000	0.0
119	0x00000000	0.0
120	0x00000000	0.0
121	0x00000000	0.0
122	0x00000000	0.0
123	0x00000000	0.0
124	0x00000000	0.0
125	0x00000000	0.0
126	0x00000000	0.0
127	0x00000000	0.0
128	0x00000000	0.0
129	0x00000000	0.0
130	0x00000000	0.0
131	0x00000000	0.0
132	0x00000000	0.0
133	0x00000000	0.0
134	0x00000000	0.0
135	0x00000000	0.0
136	0x00000000	0.0
137	0x00000000	0.0
138	0x00000000	0.0
139	0x00000000	0.0
140	0x00000000	0.0
141	0x00000000	0.0
142	0x00000000	0.0
143	0x00000000	0.0
144	0x00000000	0.0
145	0x00000000	0.0
146	0x00000000	0.0
147	0x00000000	0.0
148	0x00000000	0.0
149	0x00000000	0.0
150	0x00000000	0.0
151	0x00000000	0.0
152	0x00000000	0.0
153	0x00000000	0.0
154	0x00000000	0.0
155	0x00000000	0.0
156	0x00000000	0.0
157	0x00000000	0.0
158	0x00000000	0.0
159	0x00000000	0.0
160	0x00000000	0.0
161	0x00000000	0.0
162	0x00000000	0.0
163	0x00000000	0.0
164	0x00000000	0.0
165	0x00000000	0.0
166	0x00000000	0.0
167	0x00000000	0.0
168	0x00000000	0.0
169	0x00000000	0.0
170	0x00000000	0.0
171	0x00000000	0.0
172	0x00000000	0.0
173	0x00000000	0.0
174	0x00000000	0.0
175	0x00000000	0.0
176	0x00000000	0.0
177	0x00000000	0.0
178	0x00000000	0.0
179	0x00000000	0.0
180	0x00000000	0.0
181	0x00000000	0.0
182	0x00000000	0.0
183	0x00000000	0.0
184	0x00000000	0.0
185	0x00000000	0.0
186	0x00000000	0.0
187	0x00000000	0.0
188	0x00000000	0.0
189	0x00000000	0.0
190	0x00000000	0.0
191	0x00000000	0.0
192	0x00000000	0.0
193	0x00000000	0.0
194	0x00000000	0.0
195	0x00000000	0.0
196	0x00000000	0.0
197	0x00000000	0.0
198	0x00000000	0.0
199	0x00000000	0.0
200	0x00000000	0.0
201	0x00000000	0.0
202	0x00000000	0.0
203	0x00000000	0.0
204	0x00000000	0.0
205	0x00000000	0.0
206	0x00000000	0.0
207	0x00000000	0.0
208	0x00000000	0.0
209	0x00000000	0.0
210	0x00000000	0.0
211	0x00000000	0.0
212	0x00000000	0.0
213	0x00000000	0.0
214	0x00000000	0.0
215	0x00000000	0.0
216	0x00000000	0.0
217	0x00000000	0.0
218	0x00000000	0.0
219	0x00000000	0.0
220	0x00000000	0.0
221	0x00000000	0.0
222	0x00000000	0.0
223	0x00000000	0.0
224	0x00000000	0.0
225	0x00000000	0.0
226	0x00000000	0.0
227	0x00000000	0.0
228	0x00000000	0.0
229	0x00000000	0.0
230	0x00000000	0.0
231	0x00000000	0.0
232	0x00000000	0.0
233	0x00000000	0.0
234	0x00000000	0.0
235	0x00000000	0.0
236	0x00000000	0.0
237	0x00000000	0.0
238	0x00000000	0.0
239	0x00000000	0.0
240	0x00000000	0.0
241	0x00000000	0.0
242	0x00000000	0.0
243	0x00000000	0.0
244	0x00000000	0.0
245	0x00000000	0.0
246	0x00000000	0.0
247	0x00000000	0.0
248	0x00000000	0.0
249	0x00000000	0.0
250	0x00000000	0.0
251	0x00000000	0.0
252	0x00000000	0.0
253	0x00000000	0.0
254	0x00000000	0.0
255	0x00000000	0.0

exp_avg_sq f4 [30, 30]
0	0x00000000	0.0
1	0x00000000	0.0
2	0x00000000	0.0
3	0x00000000	0.0
4	0x00000000	0.0
5	0x00000000	0.0
6	0x00000000	0.0
7	0x00000000	0.0
8	0x00000000	0.0
9	0x00000000	0.0
10	0x00000000	0.0
11	0x00000000	0.0
12	0x00000000	0.0
13	0x00000000	0.0
14	0x00000000	0.0
15	0x00000000	0.0
16	0x00000000	0.0
17	0x00000000	0.0
18	0x00000000	0.0
19	0x00000000	0.0
20	0x00000000	0.0
21	0x00000000	0.0
22	0x00000000	0.0
23	0x00000000	0.0
24	0x00000000	0.0
25	0x00000000	0.0
26	0x00000000	0.0
27	0x00000000	0.0
28	0x00000000	0.0
29	0x00000000	0.0
30	0x00000000	0.0
31	0x00000000	0.0
32	0x00000000	0.0
33	0x00000000	0.0
34	0x00000000	0.0
35	0x00000000	0.0
36	0x00000000	0.0
37	0x00000000	0.0
38	0x00000000	0.0
39	0x00000000	0.0
40	0x00000000	0.0
41	0x00000000	0.0
42	0x00000000	0.0
43	0x00000000	0.0
44	0x00000000	0.0
45	0x00000000	0.0
46	0x00000000	0.0
47	0x00000000	0.0
48	0x00000000	0.0
49	0x00000000	0.0
50	0x00000000	0.0
51	0x00000000	0.0
52	0x00000000	0.0
53	0x00000000	0.0
54	0x00000000	0.0
55	0x00000000	0.0
56	0x00000000	0.0
57	0x00000000	0.0
58	0x00000000	0.0
59	0x00000000	0.0
60	0x00000000	0.0
61	0x00000000	0.0
62	0x00000000	0.0
63	0x00000000	0.0
64	0x00000000	0.0
65	0x00000000	0.0
66	0x00000000	0.0
67	0x00000000	0.0
68	0x00000000	0.0
69	0x00000000	0.0
70	0x00000000	0.0
71	0x00000000	0.0
72	0x00000000	0.0
73	0x00000000	0.0
74	0x00000000	0.0
75	0x00000000	0.0
76	0x00000000	0.0
77	0x00000000	0.0
78	0x00000000	0.0
79	0x00000000	0.0
80	0x00000000	0.0
81	0x00000000	0.0
82	0x00000000	0.0
83	0x00000000	0.0
84	0x00000000	0.0
85	0x00000000	0.0
86	0x00000000	0.0
87	0x00000000	0.0
88	0x00000000	0.0
89	0x00000000	0.0
90	0x00000000	0.0
91	0x00000000	0.0
92	0x00000000	0.0
93	0x00000000	0.0
94	0x00000000	0.0
95	0x00000000	0.0
96	0x00000000	0.0
97	0x00000000	0.0
98	0x00000000	0.0
99	0x00000000	0.0
100	0x00000000	0.0
101	0x00000000	0.0
102	0x00000000	0.0
103	0x00000000	0.0
104	0x00000000	0.0
105	0x00000000	0.0
106	0x00000000	0.0
107	0x00000000	0.0
108	0x00000000	0.0
109	0x00000000	0.0
110	0x00000000	0.0
111	0x00000000	0.0
112	0x00000000	0.0
113	0x00000000	0.0
114	0x00000000	0.0
115	0x00000000	0.0
116	0x00000000	0.0
117	0x00000000	0.0
118	0x00000000	0.0
119	0x00000000	0.0
120	0x00000000	0.0
121	0x00000000	0.0
122	0x00000000	0.0
123	0x00000000	0.0
124	0x00000000	0.0
125	0x00000000	0.0
126	0x00000000	0.0
127	0x00000000	0.0
128	0x00000000	0.0
129	0x00000000	0.0
130	0x00000000	0.0
131	0x00000000	0.0
132	0x00000000	0.0
133	0x00000000	0.0
134	0x00000000	0.0
135	0x00000000	0.0
136	0x00000000	0.0
137	0x00000000	0.0
138	0x00000000	0.0
139	0x00000000	0.0
140	0x00000000	0.0
141	0x00000000	0.0
142	0x00000000	0.0
143	0x00000000	0.0
144	0x00000000	0.0
145	0x00000000	0.0
146	0x00000000	0.0
147	0x00000000	0.0
148	0x00000000	0.0
149	0x00000000	0.0
150	0x00000000	0.0
151	0x00000000	0.0
152	0x00000000	0.0
153	0x00000000	0.0
154	0x00000000	0.0
155	0x00000000	0.0
156	0x00000000	0.0
157	0x00000000	0.0
158	0x00000000	0.0
159	0x00000000	0.0
160	0x00000000	0.0
161	0x00000000	0.0
162	0x00000000	0.0
163	0x00000000	0.0
164	0x00000000	0.0
165	0x00000000	0.0
166	0x00000000	0.0
167	0x00000000	0.0
168	0x00000000	0.0
169	0x00000000	0.0
170	0x00000000	0.0
171	0x00000000	0.0
172	0x00000000	0.0
173	0x00000000	0.0
174	0x00000000	0.0
175	0x00000000	0.0
176	0x00000000	0.0
177	0x00000000	0.0
178	0x00000000	0.0
179	0x00000000	0.0
180	0x00000000	0.0
181	0x00000000	0.0
182	0x00000000	0.0
183	0x00000000	0.0
184	0x00000000	0.0
185	0x00000000	0.0
186	0x00000000	0.0
187	0x00000000	0.0
188	0x00000000	0.0
189	0x00000000	0.0
190	0x00000000	0.0
191	0x00000000	0.0
192	0x00000000	0.0
193	0x00000000	0.0
194	0x00000000	0.0
195	0x00000000	0.0
196	0x00000000	0.0
197	0x00000000	0.0
198	0x00000000	0.0
199	0x00000000	0.0
200	0x00000000	0.0
201	0x00000000	0.0
202	0x00000000	0.0
203	0x00000000	0.0
204	0x00000000	0.0
205	0x00000000	0.0
206	0x00000000	0.0
207	0x00000000	0.0
208	0x00000000	0.0
209	0x00000000	0.0
210	0x00000000	0.0
211	0x00000000	0.0
212	0x00000000	0.0
213	0x00000000	0.0
214	0x00000000	0.0
215	0x00000000	0.0
216	0x00000000	0.0
217	0x00000000	0.0
218	0x00000000	0.0
219	0x00000000	0.0
220	0x00000000	0.0
221	0x00000000	0.0
222	0x00000000	0.0
223	0x00000000	0.0
224	0x00000000	0.0
225	0x00000000	0.0
226	0x00000000	0.0
227	0x00000000	0.0
228	0x00000000	0.0
229	0x00000000	0.0
230	0x00000000	0.0
231	0x00000000	0.0
232	0x00000000	0.0
233	0x00000000	0.0
234	0x00000000	0.0
235	0x00000000	0.0
236	0x00000000	0.0
237	0x00000000	0.0
238	0x00000000	0.0
239	0x00000000	0.0
240	0x00000000	0.0
241	0x00000000	0.0
242	0x00000000	0.0
243	0x00000000	0.0
244	0x00000000	0.0
245	0x00000000	0.0
246	0x00000000	0.0
247	0x00000000	0.0
248	0x00000000	0.0
249	0x00000000	0.0
250	0x00000000	0.0
251	0x00000000	0.0
252	0x00000000	0.0
253	0x00000000	0.0
254	0x00000000	0.0
255	0x00000000	0.0

exp_avg f4 [30]
0	0x00000000	0.0
1	0x00000000	0.0
2	0x00000000	0.0
3	0x00000000	0.0
4	0x00000000	0.0
5	0x00000000	0.0
6	0x00000000	0.0
7	0x00000000	0.0
8	0x00000000	0.0
9	0x00000000	0.0
10	0x00000000	0.0
11	0x00000000	0.0
12	0x00000000	0.0
13	0x00000000	0.0
14	0x00000000	0.0
15	0x00000000	0.0
16	0x00000000	0.0
17	0x00000000	0.0
18	0x00000000	0.0
19	0x00000000	0.0
20	0x00000000	0.0
21	0x00000000	0.0
22	0x00000000	0.0
23	0x00000000	0.0
24	0xa83a416a	-1.03392585e-14
25	0x00000000	0.0
26	0x00000000	0.0
27	0x00000000	0.0
28	0x00000000	0.0
29	0x00000000	0.0

exp_avg_sq f4 [30]
0	0x00000000	0.0
1	0x00000000	0.0
2	0x00000000	0.0
3	0x00000000	0.0
4	0x00000000	0.0
5	0x00000000	0.0
6	0x00000000	0.0
7	0x00000000	0.0
8	0x00000000	0.0
9	0x00000000	0.0
10	0x00000000	0.0
11	0x00000000	0.0
12	0x00000000	0.0
13	0x00000000	0.0
14	0x00000000	0.0
15	0x00000000	0.0
16	0x00000000	0.0
17	0x00000000	0.0
18	0x00000000	0.0
19	0x00000000	0.0
20	0x00000000	0.0
21	0x00000000	0.0
22	0x00000000	0.0
23	0x00000000	0.0
24	0x28cf16ed	2.2991559e-14
25	0x00000000	0.0
26	0x00000000	0.0
27	0x00000000	0.0
28	0x00000000	0.0
29	0x00000000	0.0

exp_avg f4 [5, 30]
0	0x3a1711d2	0.00057628483
1	0x3a1711d2	0.00057628483
2	0xba1711d2	-0.00057628483
3	0xba1711d2	-0.00057628483
4	0xba1711d2	-0.00057628483
5	0xba1711d2	-0.00057628483
6	0xba1711d2	-0.00057628483
7	0xba1711d2	-0.00057628483
8	0x3a1711d2	0.00057628483
9	0xba1711d2	-0.00057628483
10	0xba1711d2	-0.00057628483
11	0xba1711d2	-0.00057628483
12	0x3a1711d2	0.00057628483
13	0xba1711d2	-0.00057628483
14	0xba1711d2	-0.00057628483
15	0xba1711d2	-0.00057628483
16	0x3a1711d2	0.00057628483
17	0x3a1711d2	0.00057628483
18	0x3a1711d2	0.00057628483
19	0x3a1711d2	0.00057628483
20	0xba1711d2	-0.00057628483
21	0xba1711d2	-0.00057628483
22	0x3a1711d2	0.00057628483
23	0x3a1711d2	0.00057628483
24	0x3a1711d2	0.00057628483
25	0x3a1711d2	0.00057628483
26	0xba1711d2	-0.00057628483
27	0xba1711d2	-0.00057628483
28	0x3a1711d2	0.00057628483
29	0x3a1711d2	0.00057628483
30	0xbb696110	-0.0035610832
31	0xbb696110	-0.0035610832
32	0x3b696110	0.0035610832
33	0x3b696110	0.0035610832
34	0x3b696110	0.0035610832
35	0x3b696110	0.0035610832
36	0x3b696110	0.0035610832
37	0x3b696110	0.0035610832
38	0xbb696110	-0.0035610832
39	0x3b696110	0.0035610832
40	0x3b696110	0.0035610832
41	0x3b696110	0.0035610832
42	0xbb696110	-0.0035610832
43	0x3b696110	0.0035610832
44	0x3b696110	0.0035610832
45	0x3b696110	0.0035610832
46	0xbb696110	-0.0035610832
47	0xbb696110	-0.0035610832
48	0xbb696110	-0.0035610832
49	0xbb696110	-0.0035610832
50	0x3b696110	0.0035610832
51	0x3b696110	0.0035610832
52	0xbb696110	-0.0035610832
53	0xbb696110	-0.0035610832
54	0xbb696110	-0.0035610832
55	0xbb696110	-0.0035610832
56	0x3b696110	0.0035610832
57	0x3b696110	0.0035610832
58	0xbb696110	-0.0035610832
59	0xbb696110	-0.0035610832
60	0x3b968a7b	0.004594145
61	0x3b968a7b	0.004594145
62	0xbb968a7b	-0.004594145
63	0xbb968a7b	-0.004594145
64	0xbb968a7b	-0.004594145
65	0xbb968a7b	-0.004594145
66	0xbb968a7b	-0.004594145
67	0xbb968a7b	-0.004594145
68	0x3b968a7b	0.004594145
69	0xbb968a7b	-0.004594145
70	0xbb968a7b	-0.004594145
71	0xbb968a7b	-0.004594145
72	0x3b968a7b	0.004594145
73	0xbb968a7b	-0.004594145
74	0xbb968a7b	-0.004594145
75	0xbb968a7b	-0.004594145
76	0x3b968a7b	0.004594145
77	0x3b968a7b	0.004594145
78	0x3b968a7b	0.004594145
79	0x3b968a7b	0.004594145
80	0xbb968a7b	-0.004594145
81	0xbb968a7b	-0.004594145
82	0x3b968a7b	0.004594145
83	0x3b968a7b	0.004594145
84	0x3b968a7b	0.004594145
85	0x3b968a7b	0.004594145
86	0xbb968a7b	-0.004594145
87	0xbb968a7b	-0.004594145
88	0x3b968a7b	0.004594145
89	0x3b968a7b	0.004594145
90	0x3b885a39	0.004161146
91	0x3b885a39	0.004161146
92	0xbb885a39	-0.004161146
93	0xbb885a39	-0.004161146
94	0xbb885a39	-0.004161146
95	0xbb885a39	-0.004161146
96	0xbb885a39	-0.004161146
97	0xbb885a39	-0.004161146
98	0x3b885a39	0.004161146
99	0xbb885a39	-0.004161146
100	0xbb885a39	-0.004161146
101	0xbb885a39	-0.004161146
102	0x3b885a39	0.004161146
103	0xbb885a39	-0.004161146
104	0xbb885a39	-0.004161146
105	0xbb885a39	-0.004161146
106	0x3b885a39	0.004161146
107	0x3b885a39	0.004161146
108	0x3b885a39	0.004161146
109	0x3b885a39	0.004161146
110	0xbb885a39	-0.004161146
111	0xbb885a39	-0.004161146
112	0x3b885a39	0.004161146
113	0x3b885a39	0.004161146
114	0x3b885a39	0.004161146
115	0x3b885a39	0.004161146
116	0xbb885a39	-0.004161146
117	0xbb885a39	-0.004161146
118	0x3b885a39	0.004161146
119	0x3b885a39	0.004161146
120	0xbbbd1664	-0.0057704914
121	0xbbbd1664	-0.0057704914
122	0x3bbd1664	0.0057704914
123	0x3bbd1664	0.0057704914
124	0x3bbd1664	0.0057704914
125	0x3bbd1664	0.0057704914
126	0x3bbd1664	0.0057704914
127	0x3bbd1664	0.0057704914
128	0xbbbd1664	-0.0057704914
129	0x3bbd1664	0.0057704914
130	0x3bbd1664	0.0057704914
131	0x3bbd1664	0.0057704914
132	0xbbbd1664	-0.0057704914
133	0x3bbd1664	0.0057704914
134	0x3bbd1664	0.0057704914
135	0x3bbd1664	0.0057704914
136	0xbbbd1664	-0.0057704914
137	0xbbbd1664	-0.0057704914
138	0xbbbd1664	-0.0057704914
139	0xbbbd1664	-0.0057704914
140	0x3bbd1664	0.0057704914
141	0x3bbd1664	0.0057704914
142	0xbbbd1664	-0.0057704914
143	0xbbbd1664	-0.0057704914
144	0xbbbd1664	-0.0057704914
145	0xbbbd1664	-0.0057704914
146	0x3bbd1664	0.0057704914
147	0x3bbd1664	0.0057704914
148	0xbbbd1664	-0.0057704914
149	0xbbbd1664	-0.0057704914

exp_avg_sq f4 [5, 30]
0	0x38cafcbc	9.679186e-05
1	0x38cafcbc	9.679186e-05
2	0x38cafcbc	9.679186e-05
3	0x38cafcbc	9.679186e-05
4	0x38cafcbc	9.679186e-05
5	0x38cafcbc	9.679186e-05
6	0x38cafcbc	9.679186e-05
7	0x38cafcbc	9.679186e-05
8	0x38cafcbc	9.679186e-05
9	0x38cafcbc	9.679186e-05
10	0x38cafcbc	9.679186e-05
11	0x38cafcbc	9.679186e-05
12	0x38cafcbc	9.679186e-05
13	0x38cafcbc	9.679186e-05
14	0x38cafcbc	9.679186e-05
15	0x38cafcbc	9.679186e-05
16	0x38cafcbc	9.679186e-05
17	0x38cafcbc	9.679186e-05
18	0x38cafcbc	9.679186e-05
19	0x38cafcbc	9.679186e-05
20	0x38cafcbc	9.679186e-05
21	0x38cafcbc	9.679186e-05
22	0x38cafcbc	9.679186e-05
23	0x38cafcbc	9.679186e-05
24	0x38cafc38	9.67909e-05
25	0x38cafcbc	9.679186e-05
26	0x38cafcbc	9.679186e-05
27	0x38cafcbc	9.679186e-05
28	0x38cafcbc	9.679186e-05
29	0x38cafcbc	9.679186e-05
30	0x38d08f94	9.9449564e-05
31	0x38d08f94	9.9449564e-05
32	0x38d08f94	9.9449564e-05
33	0x38d08f94	9.9449564e-05
34	0x38d08f94	9.9449564e-05
35	0x38d08f94	9.9449564e-05
36	0x38d08f94	9.9449564e-05
37	0x38d08f94	9.9449564e-05
38	0x38d08f94	9.9449564e-05
39	0x38d08f94	9.9449564e-05
40	0x38d08f94	9.9449564e-05
41	0x38d08f94	9.9449564e-05
42	0x38d08f94	9.9449564e-05
43	0x38d08f94	9.9449564e-05
44	0x38d08f94	9.9449564e-05
45	0x38d08f94	9.9449564e-05
46	0x38d08f94	9.9449564e-05
47	0x38d08f94	9.9449564e-05
48	0x38d08f94	9.9449564e-05
49	0x38d08f94	9.9449564e-05
50	0x38d08f94	9.9449564e-05
51	0x38d08f94	9.9449564e-05
52	0x38d08f94	9.9449564e-05
53	0x38d08f94	9.9449564e-05
54	0x38d08f4e	9.9449055e-05
55	0x38d08f94	9.9449564e-05
56	0x38d08f94	9.9449564e-05
57	0x38d08f94	9.9449564e-05
58	0x38d08f94	9.9449564e-05
59	0x38d08f94	9.9449564e-05
60	0x38f3ad73	0.000116194504
61	0x38f3ad73	0.000116194504
62	0x38f3ad73	0.000116194504
63	0x38f3ad73	0.000116194504
64	0x38f3ad73	0.000116194504
65	0x38f3ad73	0.000116194504
66	0x38f3ad73	0.000116194504
67	0x38f3ad73	0.000116194504
68	0x38f3ad73	0.000116194504
69	0x38f3ad73	0.000116194504
70	0x38f3ad73	0.000116194504
71	0x38f3ad73	0.000116194504
72	0x38f3ad73	0.000116194504
73	0x38f3ad73	0.000116194504
74	0x38f3ad73	0.000116194504
75	0x38f3ad73	0.000116194504
76	0x38f3ad73	0.000116194504
77	0x38f3ad73	0.000116194504
78	0x38f3ad73	0.000116194504
79	0x38f3ad73	0.000116194504
80	0x38f3ad73	0.000116194504
81	0x38f3ad73	0.000116194504
82	0x38f3ad73	0.000116194504
83	0x38f3ad73	0.000116194504
84	0x38f3ad19	0.00011619385
85	0x38f3ad73	0.000116194504
86	0x38f3ad73	0.000116194504
87	0x38f3ad73	0.000116194504
88	0x38f3ad73	0.000116194504
89	0x38f3ad73	0.000116194504
90	0x38fb32ea	0.00011978096
91	0x38fb32ea	0.00011978096
92	0x38fb32ea	0.00011978096
93	0x38fb32ea	0.00011978096
94	0x38fb32ea	0.00011978096
95	0x38fb32ea	0.00011978096
96	0x38fb32ea	0.00011978096
97	0x38fb32ea	0.00011978096
98	0x38fb32ea	0.00011978096
99	0x38fb32ea	0.00011978096
100	0x38fb32ea	0.00011978096
101	0x38fb32ea	0.00011978096
102	0x38fb32ea	0.00011978096
103	0x38fb32ea	0.00011978096
104	0x38fb32ea	0.00011978096
105	0x38fb32ea	0.00011978096
106	0x38fb32ea	0.00011978096
107	0x38fb32ea	0.00011978096
108	0x38fb32ea	0.00011978096
109	0x38fb32ea	0.00011978096
110	0x38fb32ea	0.00011978096
111	0x38fb32ea	0.00011978096
112	0x38fb32ea	0.00011978096
113	0x38fb32ea	0.00011978096
114	0x38fb329d	0.0001197804
115	0x38fb32ea	0.00011978096
116	0x38fb32ea	0.00011978096
117	0x38fb32ea	0.00011978096
118	0x38fb32ea	0.00011978096
119	0x38fb32ea	0.00011978096
120	0x39053523	0.00012703663
121	0x39053523	0.00012703663
122	0x39053523	0.00012703663
123	0x39053523	0.00012703663
124	0x39053523	0.00012703663
125	0x39053523	0.00012703663
126	0x39053523	0.00012703663
127	0x39053523	0.00012703663
128	0x39053523	0.00012703663
129	0x39053523	0.00012703663
130	0x39053523	0.00012703663
131	0x39053523	0.00012703663
132	0x39053523	0.00012703663
133	0x39053523	0.00012703663
134	0x39053523	0.00012703663
135	0x39053523	0.00012703663
136	0x39053523	0.00012703663
137	0x39053523	0.00012703663
138	0x39053523	0.00012703663
139	0x39053523	0.00012703663
140	0x39053523	0.00012703663
141	0x39053523	0.00012703663
142	0x39053523	0.00012703663
143	0x39053523	0.00012703663
144	0x390534f4	0.00012703595
145	0x39053523	0.00012703663
146	0x39053523	0.00012703663
147	0x39053523	0.00012703663
148	0x39053523	0.00012703663
149	0x39053523	0.00012703663

exp_avg f4 [5]
0	0xba1711da	-0.0005762853
1	0x3b696111	0.0035610835
2	0xbb968a7c	-0.0045941453
3	0xbb885a37	-0.004161145
4	0x3bbd1663	0.005770491

exp_avg_sq f4 [5]
0	0x38cafcbb	9.679185e-05
1	0x38d08f99	9.94496e-05
2	0x38f3ad71	0.00011619449
3	0x38fb32eb	0.00011978097
4	0x39053524	0.00012703665

backbone.x.weight f4 [30, 1]
0	0xbf0349ee	-0.5128468
1	0xbf349a1e	-0.70547664
2	0x3f5f8dfe	0.8732604
3	0x3ea92b98	0.33041072
4	0x3f5adc1c	0.8549211
5	0x3edcd1f0	0.4312892
6	0x3f5efe76	0.87107027
7	0x3f6189cc	0.88100886
8	0xbee30ea0	-0.44347095
9	0x3e2bcb80	0.16776848
10	0x3d3adf60	0.045623183
11	0x3ee49a54	0.44648993
12	0xbf3fe548	-0.7495923
13	0x3f2d8128	0.677752
14	0x3e798750	0.24368024
15	0x3f0efcde	0.55854595
16	0xbefd4294	-0.49464858
17	0xbf015b9e	-0.5053042
18	0xbf0462c0	-0.5171318
19	0xbf6efd64	-0.93355393
20	0x3ecbc790	0.39800692
21	0x3f262190	0.6489496
22	0xbe890984	-0.26765072
23	0xbf640b50	-0.8907976
24	0xbd0e5645	-0.03475024
25	0xbf4c0550	-0.79695606
26	0x3f477624	0.77914643
27	0x3dabea00	0.08394241
28	0xbe87deb4	-0.26537097
29	0xbf7c5032	-0.9855987

backbone.x.bias f4 [30]
0	0xbf51d130	-0.8195982
1	0xbf6f77d0	-0.93542194
2	0x3f20598c	0.6263664
3	0x3f70a864	0.94006944
4	0xbf2801b8	-0.6562762
5	0xbd35fca0	-0.044430375
6	0x3f61c594	0.88192105
7	0xbf451d08	-0.76997423
8	0xbe9a383c	-0.30121028
9	0xbf29e3c8	-0.6636319
10	0xbef982b0	-0.4873252
11	0xbaa7c400	-0.0012799501
12	0x3eb0612c	0.34449136
13	0x3e02e190	0.12781358
14	0x3f5d0146	0.8633007
15	0xbef0f0a8	-0.47058606
16	0xbec0affc	-0.37634265
17	0x3def27e0	0.116775274
18	0xbf66bc1e	-0.90130794
19	0xbf55c084	-0.8349688
20	0xbeffb6c8	-0.4994414
21	0x3e316d90	0.17326951
22	0x3eec81b0	0.46192694
23	0x3f11ccdc	0.56953216
24	0x3f1b88d7	0.60755676
25	0xbf38243e	-0.719303
26	0x3f7a93c2	0.9788171
27	0x3db19350	0.08670676
28	0xbf4de174	-0.8042214
29	0x3f0c140e	0.547181

backbone.h.weight f4 [30, 30]
0	0xbd3955eb	-0.045247953
1	0xbdf5d8ff	-0.12004279
2	0x3b028d4d	0.0019920648
3	0x3dd50e3c	0.104031056
4	0x3dc92dc8	0.09823185
5	0xbd6a4eac	-0.057203934
6	0xbbdb524f	-0.0066931616
7	0x3e06e7f2	0.13174418
8	0xbd79e70b	-0.061011355
9	0xbd08e20e	-0.033418708
10	0xbd7065b8	-0.058690757
11	0x3d620dec	0.05518906
12	0x3dac6f3b	0.08419653
13	0xbdce9756	-0.10087459
14	0x3c1d3705	0.009595637
15	0x3dfdba3f	0.12389039
16	0x3e379f05	0.17931755
17	0x3dff67c6	0.12470965
18	0x3d9adca9	0.07561619
19	0xbd36f9bc	-0.04467176
20	0xbe17f9fb	-0.14841454
21	0x3d84f770	0.064925075
22	0xbce06d73	-0.02739594
23	0xbc8ee8e6	-0.017445039
24	0x3c9de633	0.019274807
25	0x3d28cf7e	0.041213505
26	0x3df42e95	0.11922947
27	0xbcbe3c7a	-0.023222197
28	0x3e257fd1	0.1616204
29	0x3d88373c	0.0665116
30	0x3cb34240	0.021882176
31	0x3da9d7e2	0.082931295
32	0xbde8bc84	-0.113640815
33	0xbda2001a	-0.079101756
34	0xbe3a69ac	-0.18204373
35	0xbd95f4d0	-0.07322085
36	0x3d292273	0.04129262
37	0xbdde9252	-0.10867752
38	0xbe13c797	-0.14431606
39	0x3e1cbb07	0.1530572
40	0x3b0dc58e	0.0021632644
41	0x3d02a77a	0.031898
42	0x3e1ef84c	0.15524405
43	0xbe0dae1a	-0.13835946
44	0x3da80371	0.082037814
45	0x3d5822f4	0.05276771
46	0xbce935c2	-0.028468017
47	0x3da60d20	0.08107972
48	0x3dc9c626	0.09852247
49	0x3ddac5cb	0.10682257
50	0x3e29706d	0.16546793
51	0xbe198d3b	-0.14995281
52	0xbd9de6a8	-0.0771001
53	0x3d9c1ae6	0.07622318
54	0x3e0a88e4	0.13528782
55	0xbe08bf09	-0.13354124
56	0x3dea3ef8	0.114377916
57	0xbd783c24	-0.06060423
58	0x3dd787dc	0.1052396
59	0xbd984b82	-0.07436277
60	0x3e3a84d6	0.18214735
61	0xbc4e988c	-0.012609612
62	0xbcbae310	-0.02281335
63	0xbd62c759	-0.055365894
64	0x3caf6022	0.021408144
65	0xbdace388	-0.08441836
66	0x3e046d8e	0.12932417
67	0x3dcd417a	0.10022254
68	0x3e286321	0.16444065
69	0x3db0fb04	0.086416274
70	0x3b19d9a2	0.0023475667
71	0xbdeaac32	-0.11458625
72	0xbd374d4f	-0.04475146
73	0x3cfdf922	0.031002585
74	0x3db775ae	0.089579925
75	0xbdb82a16	-0.08992402
76	0xbe1691d3	-0.14704065
77	0xbda26d74	-0.07931033
78	0xbdfbbf22	-0.12292315
79	0x3d06b9d6	0.03289207
80	0xbe13c936	-0.14432225
81	0xbe25ba9e	-0.1618447
82	0xbd9e7495	-0.0773708
83	0xbd9d3063	-0.07675245
84	0x3e115dd5	0.1419595
85	0xbe04d17c	-0.12970537
86	0x3d2c546d	0.042072702
87	0xbde6cf08	-0.11269957
88	0xbd69416b	-0.056947153
89	0xbdebd712	-0.11515631
90	0xbe1ecc98	-0.15507734
91	0xbd884c9c	-0.06655237
92	0xbe0b46f7	-0.1360129
93	0x3dea37c5	0.114364184
94	0xbda7927c	-0.081822366
95	0x3da53f05	0.08068661
96	0x3da14b69	0.078757115
97	0xbd390241	-0.045168165
98	0xbe0af6a1	-0.13570644
99	0xbb8d8bdd	-0.0043196515
100	0x3df01704	0.1172314
101	0xbe0263d2	-0.12733391
102	0x3e2ef15b	0.17084257
103	0x3da0ac38	0.07845348
104	0xbdde82bf	-0.108647816
105	0x3db7bb0f	0.089712255
106	0x3e321a49	0.1739284
107	0xbe1fef7d	-0.15618701
108	0xbdcaa7e7	-0.09895306
109	0xbdf4f738	-0.11961216
110	0x3c93eda1	0.018057646
111	0x3df00936	0.11720507
112	0xbdb58eb2	-0.088651076
113	0xbc4d4bb7	-0.012530259
114	0x3db4200b	0.08795174
115	0x3e2a80ee	0.16650745
116	0xbd8890c1	-0.066682346
117	0xbde4f794	-0.11180034
118	0xbdacce6c	-0.08437809
119	0xbdabb8f1	-0.08384884
120	0xbd30f8fc	-0.0432062
121	0xbd2018c1	-0.039086107
122	0xbe377bb3	-0.17918281
123	0xbe1e5882	-0.1546345
124	0xbdfca3cc	-0.12335929
125	0xbc9f84b0	-0.01947245
126	0xbe35d0f0	-0.17755485
127	0x3e1f0cc2	0.1553221
128	0x3dd36dc2	0.10323669
129	0x3d7fd722	0.062461026
130	0x3d8cfb70	0.068838954
131	0xbcb40daf	-0.021979181
132	0xbdb2dd4f	-0.087336175
133	0x3e26decb	0.16295926
134	0x3dd7ba25	0.10533551
135	0xbdcda25b	-0.100407325
136	0x3d734d69	0.059399996
137	0xbe087786	-0.13326845
138	0x3c8bbe51	0.017058523
139	0x3e25d703	0.16195302
140	0xbd92bfa4	-0.07165459
141	0xbe36517e	-0.17804524
142	0x3e15c8fd	0.14627452
143	0x3e371139	0.17877664
144	0x3dcbca7b	0.099507295
145	0xbde5e539	-0.112253614
146	0xbced43f7	-0.028963072
147	0x3ddd223e	0.10797547
148	0x3e0edbf0	0.13951087
149	0x3d1a86ab	0.037726086
150	0xbe2e0486	-0.16993913
151	0xbd3c6fe9	-0.046005163
152	0x3c76ad7d	0.015056011
153	0x3b9a94f4	0.0047174636
154	0xbca77864	-0.020443149
155	0xbdd4436b	-0.103644215
156	0xbe22d136	-0.1590012
157	0x3dd23c3f	0.10265397
158	0xbd213916	-0.039361082
159	0xbd95ae2b	-0.073086105
160	0xbdb66aaa	-0.08907063
161	0x3c8a1cb9	0.0168594
162	0xbdd39d6c	-0.1033276
163	0x3dbe85aa	0.09302838
164	0xbd899aa1	-0.06718946
165	0xbe28a247	-0.16468154
166	0x3e391379	0.18073834
167	0xbdaec1d7	-0.08533066
168	0x3e32020f	0.17383598
169	0x3df8eab7	0.12154143
170	0x3d28c617	0.04120454
171	0xbd4791e5	-0.04872312
172	0xbe34e386	-0.17664918
173	0xbe23d2f5	-0.15998442
174	0x3cc47c77	0.02398513
175	0xbe1fd3f5	-0.15608199
176	0x3e2b5c00	0.16734314
177	0xbe114f0d	-0.14190312
178	0x3e2c0b7e	0.16801259
179	0x3db19c4c	0.086723894
180	0x3d02f49d	0.031971563
181	0x3c80b95d	0.015713388
182	0xbe16ca85	-0.14725693
183	0x3dba797a	0.09105201
184	0x3d3da2a3	0.04629768
185	0xbdc55ed6	-0.09637229
186	0xbd798aa9	-0.060923252
187	0x3cf405fe	0.029788014
188	0xbd859257	-0.06522053
189	0x3e0e7324	0.1391111
190	0x3d98a050	0.07452452
191	0xbddb811b	-0.10717984
192	0xbe285fa9	-0.16442741
193	0xbc1334dd	-0.008984772
194	0xbe1a860d	-0.15090199
195	0xbd1c6d0c	-0.038189933
196	0x3c0628f1	0.008188472
197	0x3de0543e	0.10953568
198	0x3cae726c	0.021294795
199	0x3d7b8ed8	0.061415523
200	0x3c359e57	0.011085114
201	0xbd453099	-0.04814205
202	0x3da62ba3	0.08113792
203	0x3d03042e	0.031986408
204	0xbd21701c	-0.039413556
205	0x3e12baf7	0.14329134
206	0x3bbe596a	0.005808999
207	0x3e0f6dfe	0.14006802
208	0x3daf25a4	0.08552101
209	0x3e224923	0.15848212
210	0xbd8a09b6	-0.067401335
211	0x3de6674e	0.112501726
212	0xbdb6f4a8	-0.08933383
213	0xbdba34a0	-0.09092069
214	0xbd2733ec	-0.040821
215	0xbd5cf719	-0.05394659
216	0xbcedd08c	-0.029030107
217	0xbd6a2c07	-0.057170894
218	0xbc6b89dd	-0.014376131
219	0xbe34c9a9	-0.17655052
220	0xbcadadca	-0.021201033
221	0xbe19987c	-0.14999574
222	0x3dc40256	0.09570758
223	0xbe2f482b	-0.17117374
224	0x3e1b7de4	0.15184742
225	0x3dfa5eaa	0.12225087
226	0x3c0ff0f3	0.008785474
227	0xbe09c3ae	-0.13453552
228	0xbdd025ce	-0.10163461
229	0x3d65fb5c	0.056147918
230	0x3e1cdef4	0.15319425
231	0xbd45a74b	-0.048255246
232	0xbdd9fbca	-0.10643728
233	0x3e35729d	0.17719503
234	0x3cc999ef	0.024609534
235	0xbd432a2e	-0.047647648
236	0x3e27a745	0.16372402
237	0xbd080030	-0.033203304
238	0x3d670a75	0.056406457
239	0x3e316dbb	0.17327015
240	0xbe0bd3fb	-0.13655083
241	0x3ce0fca2	0.027464215
242	0xbdde0346	-0.10840468
243	0x3c61bd05	0.013777976
244	0xbe362086	-0.17785844
245	0x3dc1dd41	0.09466029
246	0x3e01ff2f	0.12695001
247	0xbba3b931	-0.004996442
248	0x3c7412e9	0.014897087
249	0xbd219959	-0.039452884
250	0xbe0d2b02	-0.13785937
251	0x3e3289e9	0.17435421
252	0xbdcf582e	-0.10124241
253	0x3dfa2238	0.12213558
254	0xbdbdbe71	-0.092648394
255	0x3e350a3f	0.1767969

backbone.h.bias f4 [30]
0	0x3bff6575	0.007794077
1	0x3deacb15	0.11464516
2	0x3d8d6b69	0.069052525
3	0xbe1fbdc4	-0.15599734
4	0x3dc2779f	0.09495472
5	0xbcd7fd18	-0.026365802
6	0xbc8f17bb	-0.01746737
7	0x3e2cf4e3	0.16890292
8	0xbb1a634b	-0.0023557718
9	0x3d52f110	0.051499426
10	0xbe0677a8	-0.13131583
11	0x3d5b2af1	0.05350775
12	0x3dd166d7	0.10224693
13	0x3e33a1bc	0.17542166
14	0xbcb9898a	-0.022648592
15	0xbdbcaa53	-0.09212174
16	0xbe278f2c	-0.1636321
17	0x3cd5b91a	0.02608924
18	0xbcf9900c	-0.030464195
19	0x3e33aa51	0.1754544
20	0xbe0a7968	-0.13522875
21	0x3e00b72f	0.12569879
22	0x3db6730a	0.08908661
23	0x3e3aaa8d	0.18229122
24	0x3e220168	0.15820849
25	0xbdfa0851	-0.122086175
26	0xbdd1ac98	-0.10237998
27	0x3d9e8645	0.07740454
28	0x3de29c5a	0.11064978
29	0xbca28469	-0.019838529

backbone.out.weight f4 [5, 30]
0	0x3ddfdd78	0.10930914
1	0x3dbe6ed6	0.09298484
2	0xbe000057	-0.1250013
3	0xbe34b8ac	-0.17648572
4	0x3d7cdcbb	0.061733942
5	0xbd3d2dc2	-0.046186216
6	0x3ced84c7	0.028993977
7	0x3d1c43b4	0.038150504
8	0xbd6c6c92	-0.05772073
9	0xbb3c9aa1	-0.002877869
10	0x3dcfac44	0.10140279
11	0x3deaa45e	0.11457132
12	0x3dc2bac0	0.09508276
13	0xbe22308c	-0.15838832
14	0x3e1e351e	0.1544995
15	0xbd1545de	-0.036443584
16	0xbe01e2ac	-0.12684125
17	0xbdb385ac	-0.0876573
18	0x3dba8a1e	0.09108375
19	0xbde70052	-0.11279358
20	0x3ddb5a72	0.107106104
21	0x3e24bd6e	0.16087887
22	0x3dbf9856	0.09355228
23	0xbd2ab04e	-0.041672044
24	0x3e0497d4	0.12948543
25	0xbe095cf2	-0.13414362
26	0xbd3dabc2	-0.04630638
27	0xbc2f513b	-0.010700519
28	0x3dc66e72	0.096890345
29	0x3e11f350	0.14252973
30	0x3d9ba2ec	0.07599434
31	0xbe043f63	-0.12914805
32	0xbddf8602	-0.10914232
33	0x3e06de53	0.13170747
34	0xbd52ddc0	-0.05148101
35	0x3d9d1c18	0.07671374
36	0x3e07f677	0.13277613
37	0xbe3f4957	-0.1868032
38	0x3e1a40f3	0.15063839
39	0x3c013f62	0.007888647
40	0x3dd68ae8	0.10475713
41	0xbaff96f8	-0.0019499948
42	0x3d80f8ec	0.06297478
43	0x3df19205	0.11795429
44	0xbdca9bce	-0.09892999
45	0xbe1d73c1	-0.15376188
46	0xbe0e6853	-0.13906984
47	0x3d6714c2	0.05641628
48	0x3dcc4c90	0.09975541
49	0xbe18b037	-0.1491097
50	0x3c39bc48	0.011336394
51	0xbcbf4be8	-0.023351625
52	0xbe13c84d	-0.14431877
53	0x3e424e71	0.18975236
54	0x3aea6458	0.0017882688
55	0x3c541388	0.01294411
56	0x3cd375bd	0.025812978
57	0xbdac9274	-0.08426371
58	0x3e08aaef	0.13346456
59	0xbdb286a2	-0.087170854
60	0xbdbef3aa	-0.09323819
61	0x3e1f7db2	0.15575293
62	0xbe2496c8	-0.16073143
63	0xbd4b5bf7	-0.04964825
64	0x3e4ba12a	0.19885698
65	0x3e27c78a	0.16384712
66	0xbde4ee58	-0.11178273
67	0xbd9cee3e	-0.076626286
68	0x3e051c4a	0.12999073
69	0x3d37eea9	0.04490534
70	0x3e1e1a16	0.15439638
71	0xbddf0a94	-0.108906895
72	0xbd2a86f9	-0.041632626
73	0xbbcba3ac	-0.0062145796
74	0xbcdd1e0a	-0.026991863
75	0x3c7f9c17	0.01560118
76	0x3e181084	0.1485005
77	0xbe3d2664	-0.18471676
78	0x3d029f97	0.031890478
79	0xbda9aeae	-0.08285271
80	0xbe0f1fe2	-0.13977006
81	0xbd8963d8	-0.06708497
82	0xbda3e3de	-0.080024466
83	0x3d88e274	0.066838175
84	0x3c224266	0.009903526
85	0x3ddb943a	0.10721631
86	0xbbb4dca2	-0.0055194655
87	0x3e129720	0.14315462
88	0xbceed575	-0.029154519
89	0x3ddabcf2	0.1068057
90	0xbe08abb1	-0.13346745
91	0xbcdd9bd7	-0.02705185
92	0x3d5abc7b	0.053402405
93	0xbc752fd3	-0.014965015
94	0xbd43330b	-0.0476561
95	0xbe10203f	-0.14074801
96	0x3dc31616	0.09525697
97	0x3cf3111a	0.02967124
98	0x3dbe9cda	0.09307261
99	0x3d43de53	0.047819447
100	0x3dcb1062	0.09915234
101	0x3d3f767b	0.04674385
102	0x3dcfb8f2	0.101426974
103	0xbe40382f	-0.18771432
104	0xbe05c103	-0.1306191
105	0xbdb655f8	-0.08903116
106	0x3e2cc457	0.16871773
107	0x3a7c1fee	0.0009617795
108	0x3de99f2a	0.11407311
109	0xbe11ccc7	-0.14238273
110	0xbcccc722	-0.024997298
111	0x3cf1836b	0.02948161
112	0x3e06b587	0.13155185
113	0x3d8a8a05	0.067646064
114	0xbd07daca	-0.033167638
115	0x3e09d371	0.13459565
116	0x3dd48544	0.10376981
117	0x3e1d90e7	0.15387307
118	0xbd8a741e	-0.06760429
119	0xbc01c19d	-0.007919696
120	0xbe4ef683	-0.20211224
121	0x3d5b36b3	0.053518962
122	0xbdb8d65d	-0.090252616
123	0xbc98edcd	-0.01866808
124	0xbda1f24f	-0.07907545
125	0xbbbadbe5	-0.005702483
126	0xbb8005f5	-0.00390696
127	0x3d7d0c5c	0.061779365
128	0x3e1d3648	0.15352738
129	0x3cb92365	0.022599885
130	0x3d232d6e	0.039838247
131	0x3e309597	0.17244564
132	0xbca6bb88	-0.020353094
133	0xbc7a5147	-0.015278167
134	0xbe0386f5	-0.12844451
135	0xbdf672df	-0.12033629
136	0xbe36f711	-0.17867686
137	0x3daea015	0.08526627
138	0x3e11689f	0.14200066
139	0x3bef7b27	0.007308382
140	0xbe193750	-0.14962506
141	0x3daed467	0.08536606
142	0xbd5aee06	-0.053449653
143	0x3dba54c7	0.09098201
144	0xbd8f6288	-0.07001215
145	0x3e0c2c7e	0.13688847
146	0x3d1f89c6	0.03894975
147	0x3e3cf166	0.18451461
148	0xbd95dcf9	-0.07317538
149	0xbe0ebafc	-0.13938516

backbone.out.bias f4 [5]
0	0xbe03072d	-0.12795706
1	0xbcdfb320	-0.027307093
2	0x3dcd50d9	0.10025186
3	0x3d34c518	0.044133276
4	0x3c778ce5	0.0151092755

weight f4 [30, 1]
0	0xbf0349ee	-0.5128468
1	0xbf349a1e	-0.70547664
2	0x3f5f8dfe	0.8732604
3	0x3ea92b98	0.33041072
4	0x3f5adc1c	0.8549211
5	0x3edcd1f0	0.4312892
6	0x3f5efe76	0.87107027
7	0x3f6189cc	0.88100886
8	0xbee30ea0	-0.44347095
9	0x3e2bcb80	0.16776848
10	0x3d3adf60	0.045623183
11	0x3ee49a54	0.44648993
12	0xbf3fe548	-0.7495923
13	0x3f2d8128	0.677752
14	0x3e798750	0.24368024
15	0x3f0efcde	0.55854595
16	0xbefd4294	-0.49464858
17	0xbf015b9e	-0.5053042
18	0xbf0462c0	-0.5171318
19	0xbf6efd64	-0.93355393
20	0x3ecbc790	0.39800692
21	0x3f262190	0.6489496
22	0xbe890984	-0.26765072
23	0xbf640b50	-0.8907976
24	0xbd0e5645	-0.03475024
25	0xbf4c0550	-0.79695606
26	0x3f477624	0.77914643
27	0x3dabea00	0.08394241
28	0xbe87deb4	-0.26537097
29	0xbf7c5032	-0.9855987

bias f4 [30]
0	0xbf51d130	-0.8195982
1	0xbf6f77d0	-0.93542194
2	0x3f20598c	0.6263664
3	0x3f70a864	0.94006944
4	0xbf2801b8	-0.6562762
5	0xbd35fca0	-0.044430375
6	0x3f61c594	0.88192105
7	0xbf451d08	-0.76997423
8	0xbe9a383c	-0.30121028
9	0xbf29e3c8	-0.6636319
10	0xbef982b0	-0.4873252
11	0xbaa7c400	-0.0012799501
12	0x3eb0612c	0.34449136
13	0x3e02e190	0.12781358
14	0x3f5d0146	0.8633007
15	0xbef0f0a8	-0.47058606
16	0xbec0affc	-0.37634265
17	0x3def27e0	0.116775274
18	0xbf66bc1e	-0.90130794
19	0xbf55c084	-0.8349688
20	0xbeffb6c8	-0.4994414
21	0x3e316d90	0.17326951
22	0x3eec81b0	0.46192694
23	0x3f11ccdc	0.56953216
24	0x3f1b88d7	0.60755676
25	0xbf38243e	-0.719303
26	0x3f7a93c2	0.9788171
27	0x3db19350	0.08670676
28	0xbf4de174	-0.8042214
29	0x3f0c140e	0.547181

weight f4 [30, 30]
0	0xbd3955eb	-0.045247953
1	0xbdf5d8ff	-0.12004279
2	0x3b028d4d	0.0019920648
3	0x3dd50e3c	0.104031056
4	0x3dc92dc8	0.09823185
5	0xbd6a4eac	-0.057203934
6	0xbbdb524f	-0.0066931616
7	0x3e06e7f2	0.13174418
8	0xbd79e70b	-0.061011355
9	0xbd08e20e	-0.033418708
10	0xbd7065b8	-0.058690757
11	0x3d620dec	0.05518906
12	0x3dac6f3b	0.08419653
13	0xbdce9756	-0.10087459
14	0x3c1d3705	0.009595637
15	0x3dfdba3f	0.12389039
16	0x3e379f05	0.17931755
17	0x3dff67c6	0.12470965
18	0x3d9adca9	0.07561619
19	0xbd36f9bc	-0.04467176
20	0xbe17f9fb	-0.14841454
21	0x3d84f770	0.064925075
22	0xbce06d73	-0.02739594
23	0xbc8ee8e6	-0.017445039
24	0x3c9de633	0.019274807
25	0x3d28cf7e	0.041213505
26	0x3df42e95	0.11922947
27	0xbcbe3c7a	-0.023222197
28	0x3e257fd1	0.1616204
29	0x3d88373c	0.0665116
30	0x3cb34240	0.021882176
31	0x3da9d7e2	0.082931295
32	0xbde8bc84	-0.113640815
33	0xbda2001a	-0.079101756
34	0xbe3a69ac	-0.18204373
35	0xbd95f4d0	-0.07322085
36	0x3d292273	0.04129262
37	0xbdde9252	-0.10867752
38	0xbe13c797	-0.14431606
39	0x3e1cbb07	0.1530572
40	0x3b0dc58e	0.0021632644
41	0x3d02a77a	0.031898
42	0x3e1ef84c	0.15524405
43	0xbe0dae1a	-0.13835946
44	0x3da80371	0.082037814
45	0x3d5822f4	0.05276771
46	0xbce935c2	-0.028468017
47	0x3da60d20	0.08107972
48	0x3dc9c626	0.09852247
49	0x3ddac5cb	0.10682257
50	0x3e29706d	0.16546793
51	0xbe198d3b	-0.14995281
52	0xbd9de6a8	-0.0771001
53	0x3d9c1ae6	0.07622318
54	0x3e0a88e4	0.13528782
55	0xbe08bf09	-0.13354124
56	0x3dea3ef8	0.114377916
57	0xbd783c24	-0.06060423
58	0x3dd787dc	0.1052396
59	0xbd984b82	-0.07436277
60	0x3e3a84d6	0.18214735
61	0xbc4e988c	-0.012609612
62	0xbcbae310	-0.02281335
63	0xbd62c759	-0.055365894
64	0x3caf6022	0.021408144
65	0xbdace388	-0.08441836
66	0x3e046d8e	0.12932417
67	0x3dcd417a	0.10022254
68	0x3e286321	0.16444065
69	0x3db0fb04	0.086416274
70	0x3b19d9a2	0.0023475667
71	0xbdeaac32	-0.11458625
72	0xbd374d4f	-0.04475146
73	0x3cfdf922	0.031002585
74	0x3db775ae	0.089579925
75	0xbdb82a16	-0.08992402
76	0xbe1691d3	-0.14704065
77	0xbda26d74	-0.07931033
78	0xbdfbbf22	-0.12292315
79	0x3d06b9d6	0.03289207
80	0xbe13c936	-0.14432225
81	0xbe25ba9e	-0.1618447
82	0xbd9e7495	-0.0773708
83	0xbd9d3063	-0.07675245
84	0x3e115dd5	0.1419595
85	0xbe04d17c	-0.12970537
86	0x3d2c546d	0.042072702
87	0xbde6cf08	-0.11269957
88	0xbd69416b	-0.056947153
89	0xbdebd712	-0.11515631
90	0xbe1ecc98	-0.15507734
91	0xbd884c9c	-0.06655237
92	0xbe0b46f7	-0.1360129
93	0x3dea37c5	0.114364184
94	0xbda7927c	-0.081822366
95	0x3da53f05	0.08068661
96	0x3da14b69	0.078757115
97	0xbd390241	-0.045168165
98	0xbe0af6a1	-0.13570644
99	0xbb8d8bdd	-0.0043196515
100	0x3df01704	0.1172314
101	0xbe0263d2	-0.12733391
102	0x3e2ef15b	0.17084257
103	0x3da0ac38	0.07845348
104	0xbdde82bf	-0.108647816
105	0x3db7bb0f	0.089712255
106	0x3e321a49	0.1739284
107	0xbe1fef7d	-0.15618701
108	0xbdcaa7e7	-0.09895306
109	0xbdf4f738	-0.11961216
110	0x3c93eda1	0.018057646
111	0x3df00936	0.11720507
112	0xbdb58eb2	-0.088651076
113	0xbc4d4bb7	-0.012530259
114	0x3db4200b	0.08795174
115	0x3e2a80ee	0.16650745
116	0xbd8890c1	-0.066682346
117	0xbde4f794	-0.11180034
118	0xbdacce6c	-0.08437809
119	0xbdabb8f1	-0.08384884
120	0xbd30f8fc	-0.0432062
121	0xbd2018c1	-0.039086107
122	0xbe377bb3	-0.17918281
123	0xbe1e5882	-0.1546345
124	0xbdfca3cc	-0.12335929
125	0xbc9f84b0	-0.01947245
126	0xbe35d0f0	-0.17755485
127	0x3e1f0cc2	0.1553221
128	0x3dd36dc2	0.10323669
129	0x3d7fd722	0.062461026
130	0x3d8cfb70	0.068838954
131	0xbcb40daf	-0.021979181
132	0xbdb2dd4f	-0.087336175
133	0x3e26decb	0.16295926
134	0x3dd7ba25	0.10533551
135	0xbdcda25b	-0.100407325
136	0x3d734d69	0.059399996
137	0xbe087786	-0.13326845
138	0x3c8bbe51	0.017058523
139	0x3e25d703	0.16195302
140	0xbd92bfa4	-0.07165459
141	0xbe36517e	-0.17804524
142	0x3e15c8fd	0.14627452
143	0x3e371139	0.17877664
144	0x3dcbca7b	0.099507295
145	0xbde5e539	-0.112253614
146	0xbced43f7	-0.028963072
147	0x3ddd223e	0.10797547
148	0x3e0edbf0	0.13951087
149	0x3d1a86ab	0.037726086
150	0xbe2e0486	-0.16993913
151	0xbd3c6fe9	-0.046005163
152	0x3c76ad7d	0.015056011
153	0x3b9a94f4	0.0047174636
154	0xbca77864	-0.020443149
155	0xbdd4436b	-0.103644215
156	0xbe22d136	-0.1590012
157	0x3dd23c3f	0.10265397
158	0xbd213916	-0.039361082
159	0xbd95ae2b	-0.073086105
160	0xbdb66aaa	-0.08907063
161	0x3c8a1cb9	0.0168594
162	0xbdd39d6c	-0.1033276
163	0x3dbe85aa	0.09302838
164	0xbd899aa1	-0.06718946
165	0xbe28a247	-0.16468154
166	0x3e391379	0.18073834
167	0xbdaec1d7	-0.08533066
168	0x3e32020f	0.17383598
169	0x3df8eab7	0.12154143
170	0x3d28c617	0.04120454
171	0xbd4791e5	-0.04872312
172	0xbe34e386	-0.17664918
173	0xbe23d2f5	-0.15998442
174	0x3cc47c77	0.02398513
175	0xbe1fd3f5	-0.15608199
176	0x3e2b5c00	0.16734314
177	0xbe114f0d	-0.14190312
178	0x3e2c0b7e	0.16801259
179	0x3db19c4c	0.086723894
180	0x3d02f49d	0.031971563
181	0x3c80b95d	0.015713388
182	0xbe16ca85	-0.14725693
183	0x3dba797a	0.09105201
184	0x3d3da2a3	0.04629768
185	0xbdc55ed6	-0.09637229
186	0xbd798aa9	-0.060923252
187	0x3cf405fe	0.029788014
188	0xbd859257	-0.06522053
189	0x3e0e7324	0.1391111
190	0x3d98a050	0.07452452
191	0xbddb811b	-0.10717984
192	0xbe285fa9	-0.16442741
193	0xbc1334dd	-0.008984772
194	0xbe1a860d	-0.15090199
195	0xbd1c6d0c	-0.038189933
196	0x3c0628f1	0.008188472
197	0x3de0543e	0.10953568
198	0x3cae726c	0.021294795
199	0x3d7b8ed8	0.061415523
200	0x3c359e57	0.011085114
201	0xbd453099	-0.04814205
202	0x3da62ba3	0.08113792
203	0x3d03042e	0.031986408
204	0xbd21701c	-0.039413556
205	0x3e12baf7	0.14329134
206	0x3bbe596a	0.005808999
207	0x3e0f6dfe	0.14006802
208	0x3daf25a4	0.08552101
209	0x3e224923	0.15848212
210	0xbd8a09b6	-0.067401335
211	0x3de6674e	0.112501726
212	0xbdb6f4a8	-0.08933383
213	0xbdba34a0	-0.09092069
214	0xbd2733ec	-0.040821
215	0xbd5cf719	-0.05394659
216	0xbcedd08c	-0.029030107
217	0xbd6a2c07	-0.057170894
218	0xbc6b89dd	-0.014376131
219	0xbe34c9a9	-0.17655052
220	0xbcadadca	-0.021201033
221	0xbe19987c	-0.14999574
222	0x3dc40256	0.09570758
223	0xbe2f482b	-0.17117374
224	0x3e1b7de4	0.15184742
225	0x3dfa5eaa	0.12225087
226	0x3c0ff0f3	0.008785474
227	0xbe09c3ae	-0.13453552
228	0xbdd025ce	-0.10163461
229	0x3d65fb5c	0.056147918
230	0x3e1cdef4	0.15319425
231	0xbd45a74b	-0.048255246
232	0xbdd9fbca	-0.10643728
233	0x3e35729d	0.17719503
234	0x3cc999ef	0.024609534
235	0xbd432a2e	-0.047647648
236	0x3e27a745	0.16372402
237	0xbd080030	-0.033203304
238	0x3d670a75	0.056406457
239	0x3e316dbb	0.17327015
240	0xbe0bd3fb	-0.13655083
241	0x3ce0fca2	0.027464215
242	0xbdde0346	-0.10840468
243	0x3c61bd05	0.013777976
244	0xbe362086	-0.17785844
245	0x3dc1dd41	0.09466029
246	0x3e01ff2f	0.12695001
247	0xbba3b931	-0.004996442
248	0x3c7412e9	0.014897087
249	0xbd219959	-0.039452884
250	0xbe0d2b02	-0.13785937
251	0x3e3289e9	0.17435421
252	0xbdcf582e	-0.10124241
253	0x3dfa2238	0.12213558
254	0xbdbdbe71	-0.092648394
255	0x3e350a3f	0.1767969

bias f4 [30]
0	0x3bff6575	0.007794077
1	0x3deacb15	0.11464516
2	0x3d8d6b69	0.069052525
3	0xbe1fbdc4	-0.15599734
4	0x3dc2779f	0.09495472
5	0xbcd7fd18	-0.026365802
6	0xbc8f17bb	-0.01746737
7	0x3e2cf4e3	0.16890292
8	0xbb1a634b	-0.0023557718
9	0x3d52f110	0.051499426
10	0xbe0677a8	-0.13131583
11	0x3d5b2af1	0.05350775
12	0x3dd166d7	0.10224693
13	0x3e33a1bc	0.17542166
14	0xbcb9898a	-0.022648592
15	0xbdbcaa53	-0.09212174
16	0xbe278f2c	-0.1636321
17	0x3cd5b91a	0.02608924
18	0xbcf9900c	-0.030464195
19	0x3e33aa51	0.1754544
20	0xbe0a7968	-0.13522875
21	0x3e00b72f	0.12569879
22	0x3db6730a	0.08908661
23	0x3e3aaa8d	0.18229122
24	0x3e220168	0.15820849
25	0xbdfa0851	-0.122086175
26	0xbdd1ac98	-0.10237998
27	0x3d9e8645	0.07740454
28	0x3de29c5a	0.11064978
29	0xbca28469	-0.019838529

weight f4 [5, 30]
0	0x3ddfdd78	0.10930914
1	0x3dbe6ed6	0.09298484
2	0xbe000057	-0.1250013
3	0xbe34b8ac	-0.17648572
4	0x3d7cdcbb	0.061733942
5	0xbd3d2dc2	-0.046186216
6	0x3ced84c7	0.028993977
7	0x3d1c43b4	0.038150504
8	0xbd6c6c92	-0.05772073
9	0xbb3c9aa1	-0.002877869
10	0x3dcfac44	0.10140279
11	0x3deaa45e	0.11457132
12	0x3dc2bac0	0.09508276
13	0xbe22308c	-0.15838832
14	0x3e1e351e	0.1544995
15	0xbd1545de	-0.036443584
16	0xbe01e2ac	-0.12684125
17	0xbdb385ac	-0.0876573
18	0x3dba8a1e	0.09108375
19	0xbde70052	-0.11279358
20	0x3ddb5a72	0.107106104
21	0x3e24bd6e	0.16087887
22	0x3dbf9856	0.09355228
23	0xbd2ab04e	-0.041672044
24	0x3e0497d4	0.12948543
25	0xbe095cf2	-0.13414362
26	0xbd3dabc2	-0.04630638
27	0xbc2f513b	-0.010700519
28	0x3dc66e72	0.096890345
29	0x3e11f350	0.14252973
30	0x3d9ba2ec	0.07599434
31	0xbe043f63	-0.12914805
32	0xbddf8602	-0.10914232
33	0x3e06de53	0.13170747
34	0xbd52ddc0	-0.05148101
35	0x3d9d1c18	0.07671374
36	0x3e07f677	0.13277613
37	0xbe3f4957	-0.1868032
38	0x3e1a40f3	0.15063839
39	0x3c013f62	0.007888647
40	0x3dd68ae8	0.10475713
41	0xbaff96f8	-0.0019499948
42	0x3d80f8ec	0.06297478
43	0x3df19205	0.11795429
44	0xbdca9bce	-0.09892999
45	0xbe1d73c1	-0.15376188
46	0xbe0e6853	-0.13906984
47	0x3d6714c2	0.05641628
48	0x3dcc4c90	0.09975541
49	0xbe18b037	-0.1491097
50	0x3c39bc48	0.011336394
51	0xbcbf4be8	-0.023351625
52	0xbe13c84d	-0.14431877
53	0x3e424e71	0.18975236
54	0x3aea6458	0.0017882688
55	0x3c541388	0.01294411
56	0x3cd375bd	0.025812978
57	0xbdac9274	-0.08426371
58	0x3e08aaef	0.13346456
59	0xbdb286a2	-0.087170854
60	0xbdbef3aa	-0.09323819
61	0x3e1f7db2	0.15575293
62	0xbe2496c8	-0.16073143
63	0xbd4b5bf7	-0.04964825
64	0x3e4ba12a	0.19885698
65	0x3e27c78a	0.16384712
66	0xbde4ee58	-0.11178273
67	0xbd9cee3e	-0.076626286
68	0x3e051c4a	0.12999073
69	0x3d37eea9	0.04490534
70	0x3e1e1a16	0.15439638
71	0xbddf0a94	-0.108906895
72	0xbd2a86f9	-0.041632626
73	0xbbcba3ac	-0.0062145796
74	0xbcdd1e0a	-0.026991863
75	0x3c7f9c17	0.01560118
76	0x3e181084	0.1485005
77	0xbe3d2664	-0.18471676
78	0x3d029f97	0.031890478
79	0xbda9aeae	-0.08285271
80	0xbe0f1fe2	-0.13977006
81	0xbd8963d8	-0.06708497
82	0xbda3e3de	-0.080024466
83	0x3d88e274	0.066838175
84	0x3c224266	0.009903526
85	0x3ddb943a	0.10721631
86	0xbbb4dca2	-0.0055194655
87	0x3e129720	0.14315462
88	0xbceed575	-0.029154519
89	0x3ddabcf2	0.1068057
90	0xbe08abb1	-0.13346745
91	0xbcdd9bd7	-0.02705185
92	0x3d5abc7b	0.053402405
93	0xbc752fd3	-0.014965015
94	0xbd43330b	-0.0476561
95	0xbe10203f	-0.14074801
96	0x3dc31616	0.09525697
97	0x3cf3111a	0.02967124
98	0x3dbe9cda	0.09307261
99	0x3d43de53	0.047819447
100	0x3dcb1062	0.09915234
101	0x3d3f767b	0.04674385
102	0x3dcfb8f2	0.101426974
103	0xbe40382f	-0.18771432
104	0xbe05c103	-0.1306191
105	0xbdb655f8	-0.08903116
106	0x3e2cc457	0.16871773
107	0x3a7c1fee	0.0009617795
108	0x3de99f2a	0.11407311
109	0xbe11ccc7	-0.14238273
110	0xbcccc722	-0.024997298
111	0x3cf1836b	0.02948161
112	0x3e06b587	0.13155185
113	0x3d8a8a05	0.067646064
114	0xbd07daca	-0.033167638
115	0x3e09d371	0.13459565
116	0x3dd48544	0.10376981
117	0x3e1d90e7	0.15387307
118	0xbd8a741e	-0.06760429
119	0xbc01c19d	-0.007919696
120	0xbe4ef683	-0.20211224
121	0x3d5b36b3	0.053518962
122	0xbdb8d65d	-0.090252616
123	0xbc98edcd	-0.01866808
124	0xbda1f24f	-0.07907545
125	0xbbbadbe5	-0.005702483
126	0xbb8005f5	-0.00390696
127	0x3d7d0c5c	0.061779365
128	0x3e1d3648	0.15352738
129	0x3cb92365	0.022599885
130	0x3d232d6e	0.039838247
131	0x3e309597	0.17244564
132	0xbca6bb88	-0.020353094
133	0xbc7a5147	-0.015278167
134	0xbe0386f5	-0.12844451
135	0xbdf672df	-0.12033629
136	0xbe36f711	-0.17867686
137	0x3daea015	0.08526627
138	0x3e11689f	0.14200066
139	0x3bef7b27	0.007308382
140	0xbe193750	-0.14962506
141	0x3daed467	0.08536606
142	0xbd5aee06	-0.053449653
143	0x3dba54c7	0.09098201
144	0xbd8f6288	-0.07001215
145	0x3e0c2c7e	0.13688847
146	0x3d1f89c6	0.03894975
147	0x3e3cf166	0.18451461
148	0xbd95dcf9	-0.07317538
149	0xbe0ebafc	-0.13938516

bias f4 [5]
0	0xbe03072d	-0.12795706
1	0xbcdfb320	-0.027307093
2	0x3dcd50d9	0.10025186
3	0x3d34c518	0.044133276
4	0x3c778ce5	0.0151092755
