tme4/lightning_logs/version_27/checkpoints/epoch=7-step=41631.ckpt (torch, 21274 bytes, 20 tensors)

exp_avg f4 [30, 1]
0	0xb8bfbdcb	-9.1429414e-05
1	0x3a5a014e	0.00083162345
2	0x3a34b22e	0.0006893006
3	0xb99b2e4c	-0.00029598398
4	0x3a3cbcbc	0.00071997545
5	0xb9233472	-0.00015564429
6	0x38d97154	0.00010368475
7	0x39bf2f26	0.00036465487
8	0xb9cf6fa1	-0.00039565287
9	0x3a820d7f	0.0009922235
10	0xb99c28ca	-0.0002978503
11	0xba0c6f61	-0.0005357173
12	0x3a8a7397	0.0010563013
13	0xba133f21	-0.0005617012
14	0xba1d02c6	-0.0005989488
15	0xb985f5e2	-0.00025550934
16	0x390d084c	0.00013449899
17	0x3927b09d	0.00015992155
18	0xba8727ea	-0.0010311578
19	0x3a7079da	0.0009173431
20	0xba49c0e0	-0.0007696282
21	0xb5efe507	-1.7873543e-06
22	0xb9dd6cdd	-0.00042233514
23	0x384a8234	4.8281814e-05
24	0x390bf40b	0.00013346986
25	0xb89b5c1b	-7.408132e-05
26	0xb9aa70d7	-0.00032509
27	0xb9c4a33a	-0.00037505646
28	0xb9378e04	-0.00017505145
29	0x38300c13	4.1972915e-05

exp_avg_sq f4 [30, 1]
0	0x3646e325	2.9636515e-06
1	0x36347d69	2.6895088e-06
2	0x37441b65	1.1688889e-05
3	0x3505c9ad	4.983984e-07
4	0x36e252f0	6.74498e-06
5	0x35bad6bf	1.3920579e-06
6	0x36dac2c6	6.519581e-06
7	0x37045e52	7.889774e-06
8	0x34ed3346	4.4181996e-07
9	0x35ffe906	1.9066799e-06
10	0x3639eaf4	2.770391e-06
11	0x362ee01f	2.6058476e-06
12	0x360004e5	1.9076335e-06
13	0x367358b1	3.6261447e-06
14	0x369dee61	4.7067156e-06
15	0x36bc4dca	5.6118924e-06
16	0x36481cfc	2.9819194e-06
17	0x35b2c42c	1.3319127e-06
18	0x36673400	3.445195e-06
19	0x3687a3b2	4.04237e-06
20	0x35d7ac48	1.6068889e-06
21	0x358e4f91	1.0602981e-06
22	0x365cd521	3.2906612e-06
23	0x3671d35f	3.6034833e-06
24	0x35a0557b	1.1945807e-06
25	0x34a49b1f	3.0660246e-07
26	0x35b38952	1.3376505e-06
27	0x3689522f	4.0924856e-06
28	0x35ad2ffe	1.2903472e-06
29	0x369af4cd	4.618056e-06

exp_avg f4 [30]
0	0x3a27ca45	0.0006400685
1	0x3a26ebea	0.00063675514
2	0xbb61d4e4	-0.0034459168
3	0xb93eca44	-0.00018195162
4	0xbadd5953	-0.0016887583
5	0xba8271c5	-0.0009952119
6	0xbac0e7ab	-0.001471748
7	0xb9bba575	-0.00035790695
8	0xb9448842	-0.00018742777
9	0x39379f72	0.00017511638
10	0x3a8ac43a	0.0010587045
11	0x3aef33b9	0.0018249667
12	0xbb6cc47e	-0.003612786
13	0x3ac34312	0.0014897308
14	0x39c549d6	0.0003762978
15	0x39db2314	0.0004179707
16	0xba0e6a93	-0.0005432751
17	0xba5c3824	-0.00084006996
18	0x3b718dc1	0.0036858174
19	0xbb29119a	-0.0025797845
20	0x3b2a09ae	0.002594571
21	0x391aedc7	0.00014775163
22	0xb9bad6c2	-0.00035636692
23	0xba08b876	-0.0005215475
24	0x3a7e3abe	0.00096980843
25	0xbaefa183	-0.0018282387
26	0xb9ab1321	-0.00032629914
27	0x3abd0e56	0.0014423828
28	0xb8b1be40	-8.4754545e-05
29	0xba3d7f01	-0.0007228703

exp_avg_sq f4 [30]
0	0x36b45a0e	5.374902e-06
1	0x35eb165b	1.7515371e-06
2	0x37c76526	2.376975e-05
3	0x34ac1d5e	3.2058864e-07
4	0x36f7429f	7.3689293e-06
5	0x35e2095a	1.6841034e-06
6	0x36f9c353	7.443517e-06
7	0x3712a4db	8.7406615e-06
8	0x3604e444	1.98024e-06
9	0x36676853	3.4482407e-06
10	0x36dc6ee9	6.5694226e-06
11	0x36796754	3.7164036e-06
12	0x3692eb92	4.378563e-06
13	0x37194cd7	9.137401e-06
14	0x36b8c892	5.506977e-06
15	0x37320992	1.0611855e-05
16	0x3713147d	8.766653e-06
17	0x3642a8db	2.900654e-06
18	0x3711339d	8.654691e-06
19	0x36d92115	6.470955e-06
20	0x36e46b92	6.8074523e-06
21	0x3588551e	1.0157562e-06
22	0x3606632c	2.0025282e-06
23	0x369e430d	4.7165727e-06
24	0x3650f58d	3.1137345e-06
25	0x361798f1	2.2589777e-06
26	0x36223b48	2.4174387e-06
27	0x3706f696	8.044435e-06
28	0x35dc798c	1.6426652e-06
29	0x36d19766	6.2463105e-06

exp_avg f4 [30, 30]
0	0x3a7299f9	0.0009254511
1	0x3a0cf50b	0.00053770904
2	0x3b0abb67	0.002116883
3	0xb9f38b51	-0.0004645237
4	0xbae8809a	-0.0017738522
5	0x3ad75c1d	0.001643065
6	0xb8ae7306	-8.318391e-05
7	0x3a09a832	0.00052511983
8	0x39d3572f	0.00040310013
9	0xbaffb093	-0.0019507579
10	0x3a0acbfb	0.00052946777
11	0x3af1588c	0.001841323
12	0xb9db54e4	-0.00041834184
13	0xba8afe7f	-0.001060441
14	0x3986e509	0.00025729116
15	0x3a6ea4a1	0.0009103511
16	0x3b009ffc	0.0019626608
17	0xbb3d8182	-0.0028916304
18	0xba8c831a	-0.0010720224
19	0xb95b43f3	-0.0002091078
20	0x3ae3308f	0.0017333197
21	0x39fa7c45	0.00047776304
22	0xb9bd2808	-0.00036078715
23	0xb98b3419	-0.00026550962
24	0x3ac51c11	0.0015038272
25	0xba8ad5ea	-0.0010592316
26	0x3a3a897c	0.00071158237
27	0x39df3069	0.00042569943
28	0x3a49c612	0.0007697056
29	0x3a0da57f	0.0005403384
30	0xb9943aa6	-0.00028272456
31	0xb9d854a9	-0.00041261807
32	0xb94145cb	-0.00018431914
33	0xb9859998	-0.00025482173
34	0xb85eab2a	-5.3088334e-05
35	0xb9fa7388	-0.00047769793
36	0xb94a9b5a	-0.00019322094
37	0xb9702646	-0.00022902442
38	0x39bd9ebe	0.0003616716
39	0x3926c578	0.00015904556
40	0xb907d132	-0.00012952535
41	0xb98e84f2	-0.00027183403
42	0xb93b4fe0	-0.00017863465
43	0xb93f2a68	-0.00018230977
44	0xb9b0aa0a	-0.00033696025
45	0x380079ac	3.0630894e-05
46	0x3a06defe	0.0005144923
47	0x38d04da2	9.932673e-05
48	0xb989b4c8	-0.0002626537
49	0xb9d411fb	-0.00040449188
50	0xba48d006	-0.00076603924
51	0x39cd0685	0.00039105504
52	0xb9545da2	-0.00020252776
53	0xb94510dc	-0.00018793665
54	0xba35e30f	-0.00069384364
55	0x39e88e10	0.00044356333
56	0xb9ddae7c	-0.00042282406
57	0xb9cfdd26	-0.00039646885
58	0xb973e56c	-0.00023259752
59	0xba0787dd	-0.00051700865
60	0x38e26b41	0.000107964974
61	0xbb8aef9c	-0.0042399894
62	0x398a51b8	0.00026382296
63	0x3b51254e	0.0031913104
64	0xbb249a34	-0.0025116326
65	0x3ac2f725	0.001487468
66	0x3b92ccc3	0.004479976
67	0x3b2e58b2	0.002660316
68	0x3b87b93c	0.0041419547
69	0x38e386bb	0.00010849299
70	0xba024bee	-0.0004970421
71	0xbb2cb02c	-0.0026350124
72	0xba0492e8	-0.0005057291
73	0xbaf8971d	-0.0018965934
74	0xbb8e9f78	-0.0043525063
75	0x39f09868	0.0004588992
76	0x3b0f0981	0.0021825733
77	0x3a8149ab	0.0009863874
78	0xba23d18d	-0.0006249182
79	0x3b038933	0.002007079
80	0xbb64c687	-0.003490837
81	0xbb63d7c4	-0.0034766058
82	0x3b586a6b	0.0033022414
83	0x3b2ad0f4	0.0026064487
84	0xba827464	-0.00099529
85	0x3b87b91f	0.004141941
86	0xbb6e9551	-0.0036404917
87	0x39db47e5	0.000418245
88	0xbb37c1f9	-0.00280392
89	0xbb5454a1	-0.0032399076
90	0x38f29a0e	0.00011568154
91	0xb89748dc	-7.213812e-05
92	0xb8c40030	-9.346043e-05
93	0x38cca77e	9.758676e-05
94	0x3934a17a	0.00017226292
95	0x393e863e	0.00018169821
96	0xb8104eba	-3.4405595e-05
97	0x38877d52	6.460644e-05
98	0xb931a45c	-0.00016941264
99	0x3926e384	0.0001591575
100	0x39067d74	0.00012825971
101	0xb82db7d1	-4.1417607e-05
102	0x39388aac	0.00017599267
103	0x391f189d	0.00015172591
104	0x38e2b89c	0.00010810906
105	0x3825d599	3.9537994e-05
106	0xb92bf7f3	-0.00016400199
107	0xb93d0774	-0.00018027221
108	0x38b4a449	8.613669e-05
109	0x39386041	0.00017583465
110	0x390c19be	0.0001336103
111	0xb936e746	-0.00017443029
112	0x38cd58be	9.791691e-05
113	0x393d6be5	0.00018064638
114	0x391f705e	0.00015205282
115	0xb932bc76	-0.0001704561
116	0x392785c5	0.00015976194
117	0x3936dccf	0.0001743913
118	0x390ed649	0.00013622003
119	0x39097cf8	0.00013111893
120	0x39c2d950	0.00037164474
121	0xbad58057	-0.0016288859
122	0x3b78f69c	0.0037988788
123	0x3aeca593	0.0018054716
124	0xbaa8cffc	-0.0012879367
125	0x3b015b7a	0.0019738362
126	0x3ab19358	0.001354794
127	0x3af7d0f6	0.001890688
128	0x3af19772	0.0018431975
129	0xbb073ff0	-0.0020637475
130	0x39c9eb89	0.00038513195
131	0x39c93c26	0.00038382522
132	0xb9b9e57a	-0.00035456923
133	0xbb0e9513	-0.0021756336
134	0xbab8f192	-0.001411008
135	0xba7c5585	-0.00096257805
136	0x3ac4e3a1	0.0015021452
137	0xb871eb4e	-5.7678022e-05
138	0xbaed80d1	-0.0018120055
139	0x3ac18191	0.0014763345
140	0xbad27803	-0.0016057495
141	0xbae648e2	-0.0017569328
142	0x3ae963f1	0.0017806274
143	0x3ac9b8e4	0.0015390185
144	0x3aabe666	0.0013114929
145	0x3a8212aa	0.0009923775
146	0xbb000573	-0.0019534498
147	0xbae2e391	-0.0017310252
148	0xbaf7a040	-0.0018892363
149	0x3a6db327	0.00090675283
150	0x3a32258f	0.0006795758
151	0xba5904b6	-0.0008278595
152	0x3ae1178b	0.0017173154
153	0x3a59fff7	0.0008316035
154	0xba8b05b7	-0.0010606562
155	0x3aa6d1e3	0.0012727346
156	0x3a862bcf	0.0010236445
157	0x3aa03838	0.0012223786
158	0x3a5ae319	0.000834988
159	0xb8b4e576	-8.625809e-05
160	0x3a4008c5	0.00073255255
161	0xb9bc03d6	-0.00035861012
162	0x39c90730	0.00038343063
163	0xba9a7fa5	-0.0011787309
164	0xba517952	-0.00079907954
165	0xb9cafb82	-0.0003871583
166	0x3a9de551	0.0012046491
167	0xba81ff1b	-0.0009917946
168	0xba865b02	-0.0010250511
169	0x3a0c175d	0.00053440576
170	0xb9f87270	-0.0004738751
171	0xba6c7ac9	-0.0009020982
172	0x3a49c801	0.00076973444
173	0x3a611da1	0.0008587484
174	0x3988888c	0.00026041677
175	0x390d92a7	0.0001350144
176	0xba2cbdf9	-0.00065895874
177	0x398bcd99	0.00026665328
178	0xba4e08cb	-0.00078595866
179	0xb9fe2e9b	-0.0004848138
180	0xb9f38918	-0.00046450715
181	0xb9f0e64a	-0.00045947946
182	0xba062aa1	-0.00051180465
183	0x3a9b63aa	0.0011855264
184	0x3a1405c1	0.00056466094
185	0x3a55bbb2	0.0008153274
186	0x3a238525	0.00062377966
187	0xba0a4b1d	-0.0005275475
188	0xb9ca77e3	-0.00038617765
189	0xb905966d	-0.00012739906
190	0xba81d9c9	-0.0009906824
191	0xba286c73	-0.00064248516
192	0x3a52ec70	0.0008046096
193	0x39c751f9	0.00038017312
194	0xba31d82a	-0.0006784225
195	0x3908f38d	0.000130607
196	0xb9ac1df2	-0.00032828707
197	0x3a1b23c6	0.00059181114
198	0xb9f3e9a3	-0.00046522645
199	0x3aa4464e	0.001253316
200	0xb7e5421c	-2.7329712e-05
201	0xbaa87316	-0.0012851681
202	0x3a91afe5	0.0011115043
203	0x3a87507b	0.0010323668
204	0x38533780	5.035801e-05
205	0x38e781d5	0.000110391215
206	0xba2f2a11	-0.00066819886
207	0x39b9a43a	0.00035408308
208	0xba56ff4b	-0.0008201494
209	0xb9e96e21	-0.00044523276
210	0x391816e0	0.00014504371
211	0x3981056d	0.0002460884
212	0xbaf2b93b	-0.0018518338
213	0xb9bbf6aa	-0.00035851198
214	0xb81a0c19	-3.6727728e-05
215	0xba5296d8	-0.0008033342
216	0xb986dd0a	-0.0002572316
217	0xb9148e0f	-0.00014167301
218	0xba490f3b	-0.0007669811
219	0x3ae1ed27	0.0017236815
220	0xba4ee559	-0.0007892452
221	0xbade6480	-0.0016967207
222	0x3a327925	0.0006808213
223	0x383e457e	4.536425e-05
224	0xba5f4c51	-0.0008518147
225	0x3a30f2ff	0.00067500764
226	0xba520a51	-0.00080124015
227	0x38ee1e46	0.00011354363
228	0x3a17e4e6	0.00057943014
229	0xb9eb838e	-0.0004492071
230	0xb95db958	-0.00021145248
231	0x391c52fa	0.0001490823
232	0xba066de3	-0.0005128069
233	0xb98b0e20	-0.0002652267
234	0xbac36a04	-0.0014908914
235	0xba27ae02	-0.00063964736
236	0xb9c9358e	-0.0003837761
237	0x3a91a500	0.0011111796
238	0xb8d4a1f3	-0.00010139113
239	0xbaf72dc7	-0.0018858247
240	0xba38d75d	-0.00070511346
241	0xb92ed1d8	-0.00016672106
242	0xbb125788	-0.0022330005
243	0x3918ffe9	0.00014591184
244	0x3ad34be0	0.0016120635
245	0xba22fc4e	-0.0006217406
246	0x38589058	5.1632844e-05
247	0xbb134a2b	-0.0022474627
248	0xb9b76ffa	-0.0003498791
249	0x3a1db991	0.0006016726
250	0xbab6799d	-0.0013921742
251	0xb9ae8f71	-0.00033294738
252	0x3a04b0dd	0.0005061755
253	0x3a91aeeb	0.0011114752
254	0x372106db	9.597944e-06
255	0x3a69a166	0.0008912295

exp_avg_sq f4 [30, 30]
0	0x36948aa1	4.4268822e-06
1	0x36b22167	5.308702e-06
2	0x3711595b	8.663478e-06
3	0x36df4f76	6.6551684e-06
4	0x36eb7d61	7.018142e-06
5	0x368f840e	4.2771053e-06
6	0x368b744d	4.156062e-06
7	0x36eb10ca	7.0055003e-06
8	0x37154505	8.897162e-06
9	0x36928759	4.3668956e-06
10	0x361ef363	2.3685504e-06
11	0x36654ea3	3.4169432e-06
12	0x36cb690d	6.062101e-06
13	0x373a46af	1.1102921e-05
14	0x3688571a	4.063256e-06
15	0x361db267	2.3498667e-06
16	0x368e5c2b	4.2426595e-06
17	0x368c4f36	4.1815465e-06
18	0x360af5b5	2.0706623e-06
19	0x36cee856	6.166326e-06
20	0x366579d9	3.4194584e-06
21	0x36e5abd3	6.844735e-06
22	0x36bce5bf	5.6295826e-06
23	0x36abc4b3	5.119096e-06
24	0x3660e03b	3.350912e-06
25	0x36d01747	6.201593e-06
26	0x36a5064b	4.918116e-06
27	0x36815214	3.8540547e-06
28	0x36b68852	5.4398924e-06
29	0x36a0ac73	4.7884473e-06
30	0x34f32fd3	4.5297074e-07
31	0x358b1964	1.0363697e-06
32	0x35779327	9.2228805e-07
33	0x35aa73ce	1.2699691e-06
34	0x35a958a4	1.2617279e-06
35	0x35854b84	9.93125e-07
36	0x35bf3768	1.4246734e-06
37	0x353f01e5	7.11558e-07
38	0x35c0175a	1.4311911e-06
39	0x351b504d	5.785885e-07
40	0x35367d17	6.7982313e-07
41	0x35084f30	5.077918e-07
42	0x35b7d519	1.3696582e-06
43	0x35944b86	1.104884e-06
44	0x356e1b98	8.8702063e-07
45	0x3521066d	5.9986525e-07
46	0x35922589	1.0888772e-06
47	0x357082d7	8.9597364e-07
48	0x3527f465	6.256799e-07
49	0x35b822c0	1.3719182e-06
50	0x3592c886	1.0936208e-06
51	0x35cf240b	1.5433192e-06
52	0x359c9145	1.1665185e-06
53	0x35b7a533	1.3682642e-06
54	0x35877f9f	1.0095426e-06
55	0x35c96d5c	1.5007495e-06
56	0x35c5c1db	1.4734063e-06
57	0x3530af7b	6.5820467e-07
58	0x359bf000	1.1618249e-06
59	0x35826b29	9.716942e-07
60	0x36d382df	6.3035254e-06
61	0x379fd958	1.9055486e-05
62	0x3843be9d	4.6669145e-05
63	0x3774aa3b	1.4583168e-05
64	0x376d5ec1	1.4148362e-05
65	0x37788ee9	1.4815226e-05
66	0x376ea74f	1.422486e-05
67	0x38025fc2	3.1083597e-05
68	0x378552b3	1.5893345e-05
69	0x377d31f6	1.5091608e-05
70	0x37384836	1.0984068e-05
71	0x368c2aa9	4.1772914e-06
72	0x373281be	1.0639835e-05
73	0x37f7faaf	2.9561428e-05
74	0x36cc4680	6.087881e-06
75	0x36caa189	6.0388743e-06
76	0x36fbc7c4	7.5036387e-06
77	0x36d19638	6.246173e-06
78	0x362ef0fe	2.6068296e-06
79	0x378f7ca1	1.7104963e-05
80	0x3715baf6	8.924622e-06
81	0x377264ff	1.4447839e-05
82	0x377f8cdb	1.523198e-05
83	0x3709cd66	8.213659e-06
84	0x3755a6c5	1.2734618e-05
85	0x377da3e6	1.5118136e-05
86	0x377d3000	1.5091151e-05
87	0x37125488	8.72196e-06
88	0x37805fea	1.5303453e-05
89	0x373eb7ab	1.1367646e-05
90	0x338073ea	5.981549e-08
91	0x33b670ca	8.4955516e-08
92	0x3387508b	6.301078e-08
93	0x34072260	1.258536e-07
94	0x342f6386	1.6334351e-07
95	0x33e20e22	1.0526516e-07
96	0x33c3baf6	9.114403e-08
97	0x33a5ba56	7.7173056e-08
98	0x3441b9dc	1.8042141e-07
99	0x340981f6	1.2806399e-07
100	0x33a79600	7.803828e-08
101	0x33521c4f	4.892018e-08
102	0x3441b76e	1.8041257e-07
103	0x34196262	1.4285027e-07
104	0x338e1d94	6.6177705e-08
105	0x334f3a89	4.824918e-08
106	0x341f857e	1.4856593e-07
107	0x33b55bf2	8.445194e-08
108	0x339ecd4e	7.394793e-08
109	0x343ceca2	1.7594951e-07
110	0x34009fbb	1.1979039e-07
111	0x344007f0	1.7884281e-07
112	0x33fa5595	1.16570995e-07
113	0x3438c524	1.7208055e-07
114	0x33d1913f	9.758741e-08
115	0x3441b554	1.8040492e-07
116	0x34293c49	1.5761283e-07
117	0x339a3a82	7.181826e-08
118	0x33e22afa	1.05317625e-07
119	0x33b9ae91	8.646487e-08
120	0x365c9fec	3.2875641e-06
121	0x367cdffa	3.7681298e-06
122	0x37301ed3	1.0497594e-05
123	0x36c20cd9	5.783146e-06
124	0x36e53369	6.8307168e-06
125	0x36eea733	7.1124173e-06
126	0x36df09ee	6.647074e-06
127	0x3779a5b3	1.4880136e-05
128	0x36aba2ad	5.115135e-06
129	0x3636d1b2	2.7242172e-06
130	0x36855319	3.9733827e-06
131	0x364dffed	3.0696349e-06
132	0x36a304d6	4.8583415e-06
133	0x367cbea5	3.7661896e-06
134	0x365a5272	3.253252e-06
135	0x3690dd83	4.317322e-06
136	0x36b09f13	5.2637274e-06
137	0x369dfd84	4.7084777e-06
138	0x36e6b7d9	6.875937e-06
139	0x3710344f	8.595248e-06
140	0x3674aad0	3.645826e-06
141	0x36d66e73	6.390555e-06
142	0x36abb358	5.1170755e-06
143	0x36fb83d8	7.4957316e-06
144	0x372003a7	9.5375935e-06
145	0x36f91a79	7.42386e-06
146	0x369833f9	4.5360034e-06
147	0x36d64cbc	6.38663e-06
148	0x3692df4b	4.377134e-06
149	0x36b024cf	5.249494e-06
150	0x350b17f1	5.1816374e-07
151	0x35969a98	1.1220864e-06
152	0x35e1d4c2	1.6825727e-06
153	0x35b34ed7	1.3359485e-06
154	0x35950467	1.1102646e-06
155	0x35ae3f12	1.2982366e-06
156	0x35800e4b	9.540903e-07
157	0x35b2c3ba	1.3318997e-06
158	0x35e649ae	1.7157779e-06
159	0x3563d815	8.487853e-07
160	0x3563edc0	8.491006e-07
161	0x3524709f	6.1258646e-07
162	0x3593f524	1.1023699e-06
163	0x35a80e8e	1.2521211e-06
164	0x357a154a	9.3163237e-07
165	0x3532e99d	6.665012e-07
166	0x3588b179	1.0184441e-06
167	0x35887550	1.0166932e-06
168	0x352515ac	6.1498827e-07
169	0x35bac28f	1.3914704e-06
170	0x358430a6	9.848925e-07
171	0x35c13eae	1.4397863e-06
172	0x35b57f16	1.3522538e-06
173	0x35a63b72	1.2385265e-06
174	0x35836248	9.788864e-07
175	0x35e5a534	1.710991e-06
176	0x35abe68a	1.2807589e-06
177	0x35885cc8	1.0159793e-06
178	0x359e3b7e	1.1789232e-06
179	0x358dd6de	1.0567853e-06
180	0x3624c97a	2.455518e-06
181	0x36ac4bee	5.134839e-06
182	0x374b6c6e	1.2124989e-05
183	0x36bef8da	5.6914114e-06
184	0x3691dab6	4.346798e-06
185	0x36b2e287	5.3311846e-06
186	0x37394e5a	1.1045102e-05
187	0x374e379d	1.2291505e-05
188	0x36c77a67	5.9449117e-06
189	0x3650d7c7	3.1120014e-06
190	0x36c02b16	5.7270618e-06
191	0x36b5d244	5.4186985e-06
192	0x36aace4b	5.0904105e-06
193	0x36eb0b0f	7.004833e-06
194	0x366b944e	3.5104053e-06
195	0x3656831c	3.19648e-06
196	0x36ac811b	5.1410293e-06
197	0x3652fec8	3.144074e-06
198	0x36b0a957	5.2649225e-06
199	0x36c0b69b	5.743304e-06
200	0x366d557d	3.5365513e-06
201	0x36c6b51e	5.9219446e-06
202	0x36ccc3c4	6.102464e-06
203	0x36a1c946	4.821605e-06
204	0x37160fd9	8.9443865e-06
205	0x36e814c2	6.9165553e-06
206	0x369e1c88	4.7120884e-06
207	0x3662b8af	3.3784124e-06
208	0x36a0ecf0	4.7959547e-06
209	0x36b6e5a5	5.450757e-06
210	0x36aded56	5.1834313e-06
211	0x36a563eb	4.929015e-06
212	0x373a6f30	1.1112352e-05
213	0x36abd898	5.121412e-06
214	0x371375a1	8.78927e-06
215	0x374603ef	1.18026355e-05
216	0x377babd3	1.5000772e-05
217	0x37f3f86b	2.9083536e-05
218	0x36e1dace	6.7309948e-06
219	0x36a4eb3c	4.9149658e-06
220	0x36e24937	6.743848e-06
221	0x37207290	9.563417e-06
222	0x36ee071d	7.093781e-06
223	0x3722ecec	9.711115e-06
224	0x36317b76	2.644692e-06
225	0x36a73804	4.983509e-06
226	0x375c557f	1.3132928e-05
227	0x36843dde	3.941109e-06
228	0x371ebf45	9.462067e-06
229	0x37201fee	9.544177e-06
230	0x36905bae	4.3022073e-06
231	0x369fdc4d	4.7642156e-06
232	0x36db11a0	6.5287604e-06
233	0x377d3b2e	1.5093754e-05
234	0x375abeb2	1.3038212e-05
235	0x36d3bdcf	6.3103867e-06
236	0x369bac3d	4.639411e-06
237	0x36a239d6	4.834709e-06
238	0x36be874b	5.6781914e-06
239	0x3661a1a5	3.3621702e-06
240	0x3566cd58	8.598049e-07
241	0x35f15316	1.798008e-06
242	0x3624848b	2.4515055e-06
243	0x36035d1e	1.9574723e-06
244	0x35d66f64	1.5976661e-06
245	0x35dd6ca2	1.6497399e-06
246	0x35b1b9af	1.3241569e-06
247	0x361eeea0	2.3682733e-06
248	0x35d65891	1.5970019e-06
249	0x358506f0	9.911291e-07
250	0x3588ce0a	1.0192755e-06
251	0x3518cc2b	5.6921516e-07
252	0x359e0f7a	1.1776422e-06
253	0x35e8daba	1.7349005e-06
254	0x3592b50a	1.0930537e-06
255	0x354f8573	7.7307703e-07

exp_avg f4 [30]
0	0x3a27ca45	0.0006400685
1	0x3a26ebea	0.00063675514
2	0xbb61d4e4	-0.0034459168
3	0xb93eca44	-0.00018195162
4	0xbadd5953	-0.0016887583
5	0xba8271c5	-0.0009952119
6	0xbac0e7ab	-0.001471748
7	0xb9bba575	-0.00035790695
8	0xb9448842	-0.00018742777
9	0x39379f72	0.00017511638
10	0x3a8ac43a	0.0010587045
11	0x3aef33b9	0.0018249667
12	0xbb6cc47e	-0.003612786
13	0x3ac34312	0.0014897308
14	0x39c549d6	0.0003762978
15	0x39db2314	0.0004179707
16	0xba0e6a93	-0.0005432751
17	0xba5c3824	-0.00084006996
18	0x3b718dc1	0.0036858174
19	0xbb29119a	-0.0025797845
20	0x3b2a09ae	0.002594571
21	0x391aedc7	0.00014775163
22	0xb9bad6c2	-0.00035636692
23	0xba08b876	-0.0005215475
24	0x3a7e3abe	0.00096980843
25	0xbaefa183	-0.0018282387
26	0xb9ab1321	-0.00032629914
27	0x3abd0e56	0.0014423828
28	0xb8b1be40	-8.4754545e-05
29	0xba3d7f01	-0.0007228703

exp_avg_sq f4 [30]
0	0x36b45a0e	5.374902e-06
1	0x35eb165b	1.7515371e-06
2	0x37c76526	2.376975e-05
3	0x34ac1d5e	3.2058864e-07
4	0x36f7429f	7.3689293e-06
5	0x35e2095a	1.6841034e-06
6	0x36f9c353	7.443517e-06
7	0x3712a4db	8.7406615e-06
8	0x3604e444	1.98024e-06
9	0x36676853	3.4482407e-06
10	0x36dc6ee9	6.5694226e-06
11	0x36796754	3.7164036e-06
12	0x3692eb92	4.378563e-06
13	0x37194cd7	9.137401e-06
14	0x36b8c892	5.506977e-06
15	0x37320992	1.0611855e-05
16	0x3713147d	8.766653e-06
17	0x3642a8db	2.900654e-06
18	0x3711339d	8.654691e-06
19	0x36d92115	6.470955e-06
20	0x36e46b92	6.8074523e-06
21	0x3588551e	1.0157562e-06
22	0x3606632c	2.0025282e-06
23	0x369e430d	4.7165727e-06
24	0x3650f58d	3.1137345e-06
25	0x361798f1	2.2589777e-06
26	0x36223b48	2.4174387e-06
27	0x3706f696	8.044435e-06
28	0x35dc798c	1.6426652e-06
29	0x36d19766	6.2463105e-06

exp_avg f4 [1, 30]
0	0x3a924597	0.0011159655
1	0xbb105127	-0.0022021027
2	0x39f57c60	0.00046822708
3	0x3b0b2f33	0.002123785
4	0x3ae468f2	0.0017426296
5	0x3b1b76c0	0.0023721904
6	0x3ac0fbe9	0.0014723513
7	0xbb143ce7	-0.0022619308
8	0xbab3da35	-0.0013721647
9	0xb987a711	-0.0002587368
10	0xbb144d8b	-0.0022629227
11	0xb90d6468	-0.00013484212
12	0x3b03e252	0.002012391
13	0xbadc515e	-0.0016808917
14	0xbb142ca7	-0.0022609623
15	0x3aa1ef5e	0.0012354662
16	0xbb014176	-0.0019722856
17	0x39c7b6ac	0.0003809234
18	0xbacb7adb	-0.0015524285
19	0x3b09fa83	0.0021053858
20	0x3a069867	0.0005134404
21	0xbb0ba236	-0.0021306402
22	0x3b036a7a	0.0020052479
23	0x3b0df62f	0.002166163
24	0xbacb3482	-0.001550332
25	0xbabebd6b	-0.00145523
26	0xbb0cd2db	-0.0021487984
27	0x3aa357a9	0.0012462038
28	0xbb0b0843	-0.0021214641
29	0xbb0abc8d	-0.0021169514

exp_avg_sq f4 [1, 30]
0	0x373fd77a	1.1434657e-05
1	0x37ed6cd7	2.8303284e-05
2	0x372a1e54	1.0139851e-05
3	0x38020ff2	3.1009266e-05
4	0x37c826d6	2.3859942e-05
5	0x37d747f1	2.5663498e-05
6	0x373aa155	1.1124027e-05
7	0x37793657	1.48542085e-05
8	0x37e6f958	2.7534246e-05
9	0x37136065	8.784326e-06
10	0x376fdb56	1.4296578e-05
11	0x37574694	1.2831431e-05
12	0x37e78dae	2.760332e-05
13	0x37949e45	1.7716675e-05
14	0x372d227e	1.0319634e-05
15	0x36f9c880	7.4441195e-06
16	0x376ed12f	1.423461e-05
17	0x37599773	1.296947e-05
18	0x36b60fc2	5.425857e-06
19	0x37f8afab	2.9645706e-05
20	0x37b0b524	2.1065185e-05
21	0x3803a098	3.13824e-05
22	0x37fe2ad8	3.029911e-05
23	0x37f068be	2.8659004e-05
24	0x3792da97	1.7506345e-05
25	0x37eb31e1	2.803741e-05
26	0x37e9c73b	2.7868538e-05
27	0x3734a4a6	1.0767171e-05
28	0x37e24445	2.697309e-05
29	0x3771685b	1.43890165e-05

backbone.x.weight f4 [30, 1]
0	0xbfa06563	-1.2530941
1	0x3eee3944	0.46528065
2	0x3f4bc42f	0.7959623
3	0xbedde858	-0.43341327
4	0xbf112d7c	-0.5671003
5	0xbf117c69	-0.5683046
6	0xbf3e48c6	-0.74329793
7	0x3f694391	0.91118723
8	0x400fce7e	2.2469783
9	0xbf568995	-0.83803684
10	0xbfa82cc9	-1.3138667
11	0xbf95d876	-1.1706684
12	0xbf97069b	-1.1798891
13	0xbf890fa5	-1.0707899
14	0x3e9677c4	0.2938825
15	0xbfa17f7e	-1.2617033
16	0x400d6ba9	2.209696
17	0x3f2d3010	0.6765146
18	0xbf87f433	-1.0621399
19	0x3eb9833d	0.3623294
20	0xbfd2b6ef	-1.6462077
21	0x3f696e6d	0.9118412
22	0xbf1b57b7	-0.6068072
23	0x3e9f4cea	0.31113368
24	0xbf767f1e	-0.96287715
25	0x4006bfc4	2.1054544
26	0xbf640605	-0.89071685
27	0xbfb336c9	-1.4001094
28	0x3e906496	0.2820174
29	0xbf389992	-0.7210933

backbone.x.bias f4 [30]
0	0x3f4b9f49	0.79539925
1	0xbdfb8259	-0.12280721
2	0x3e0fb4fa	0.14033881
3	0xbf5c1737	-0.85972923
4	0x3f26f1a6	0.65212476
5	0x3f1f41b2	0.6220962
6	0xbf15b778	-0.58483076
7	0xbf58825e	-0.84573925
8	0x3f336500	0.7007599
9	0x3f00cbda	0.5031105
10	0x3e415709	0.18880858
11	0x3f35d3f3	0.71026534
12	0x3f031813	0.5120861
13	0x3ec2ee3f	0.38072392
14	0xbe7fbfdd	-0.24975534
15	0x3f774e02	0.96603405
16	0xbe96a8fc	-0.294258
17	0xbf60aa78	-0.87760115
18	0xbdf886f8	-0.12135118
19	0xbf8fd879	-1.1237937
20	0xbe175fda	-0.14782658
21	0x3f2ec2c7	0.68265957
22	0xbf6f5b9c	-0.9349916
23	0xbed48e31	-0.41514733
24	0xbf19d3b4	-0.6008866
25	0x3eed1960	0.46308422
26	0x3eec3a4b	0.46138224
27	0x3e889cf6	0.26682252
28	0x3f691193	0.9104244
29	0xbe90ce04	-0.28282177

backbone.h.weight f4 [30, 30]
0	0xbe16a204	-0.14710242
1	0xbdfe03e2	-0.12403084
2	0x3ddb1ceb	0.10698875
3	0xbd87e753	-0.066359185
4	0x39f04b83	0.00045832628
5	0xbdc24bd0	-0.09487116
6	0x3bfb3d64	0.0076672304
7	0xbe7c01d1	-0.24610068
8	0x3dc10f05	0.09426693
9	0xbb4a0980	-0.0030828416
10	0xbea59348	-0.3233893
11	0x3d2f6798	0.042823404
12	0xbd586f9b	-0.05284081
13	0xbedd27f4	-0.43194544
14	0xbe528346	-0.2055789
15	0x3e07f248	0.13276017
16	0xbd66a277	-0.056307282
17	0xbe3ee4f5	-0.18642028
18	0xbdfbbba3	-0.12291648
19	0xbc87fa85	-0.01659895
20	0xbe86a5ac	-0.26298273
21	0xbdca1d70	-0.09868896
22	0xbe0f377c	-0.1398601
23	0x3e932b65	0.28744045
24	0xbeaa130d	-0.3321766
25	0x3cf948b4	0.030430175
26	0x3de6a0e5	0.11261157
27	0xbb9a8b01	-0.0047162776
28	0xbcde3f1d	-0.027129704
29	0xbafd4342	-0.0019322413
30	0x3ef5b736	0.4799134
31	0x3e4d5298	0.20051038
32	0xbf04bdd4	-0.51852155
33	0xbe970179	-0.2949331
34	0x3e19ed7e	0.15032002
35	0xbecefd9c	-0.40427864
36	0xbe929f47	-0.28637144
37	0xbf18bdf5	-0.5966485
38	0x3d5d0b0c	0.053965613
39	0x3d81212b	0.063051544
40	0x3f2a9023	0.66626185
41	0x3ea7432e	0.32668442
42	0xbbaaa9df	-0.0052082385
43	0x3f3284db	0.6973397
44	0xbc7e6ba0	-0.0155285895
45	0xbe8a9fe0	-0.270751
46	0xbf063693	-0.52427024
47	0x3e067db9	0.13133897
48	0x3e7f464a	0.24929157
49	0xbe5c0e24	-0.21489769
50	0x3ee48781	0.4463463
51	0x3e4db49e	0.20088431
52	0xbef33402	-0.47500616
53	0xbea4d23c	-0.32191646
54	0x3d6ccc83	0.057812225
55	0xbe9ef399	-0.31045225
56	0xbe1fbd70	-0.15599608
57	0x3eb6e03c	0.35717952
58	0x3da639aa	0.08116467
59	0xbde5e812	-0.112259045
60	0x3e7a2ac1	0.24430372
61	0x3e4c5f34	0.19958192
62	0x3ed24620	0.41069126
63	0x3e8fc68c	0.28081167
64	0x3e4727ea	0.1944882
65	0x3e2d7351	0.16938521
66	0xbf0ec562	-0.5576993
67	0xbf287c88	-0.6581502
68	0x3cf6b742	0.030116681
69	0xbd6d0e1f	-0.057874795
70	0xbd9f6449	-0.077828
71	0x3f0edb0e	0.55803
72	0x3dbe8b76	0.09303944
73	0xbe5aacd4	-0.21354991
74	0x3e75515f	0.23956822
75	0x3d074676	0.03302618
76	0xbe744b81	-0.23856927
77	0x3d3826ae	0.044958763
78	0xbe970c9c	-0.29501808
79	0x3ecb4679	0.39702204
80	0x3e9b47b9	0.30328158
81	0xbd934509	-0.07190902
82	0xbd833f4e	-0.06408559
83	0x3f03f725	0.5154899
84	0x3d0338d6	0.032036625
85	0xbce62d41	-0.02809775
86	0xbe45037e	-0.19239613
87	0xbc5d585b	-0.013509835
88	0xbd4e70dd	-0.050400604
89	0x3e97c848	0.2964499
90	0xbe48be99	-0.19603957
91	0x3ec57eb3	0.38573226
92	0x3f12d777	0.57360023
93	0x3e08ba17	0.13352238
94	0xbda2fc62	-0.079582945
95	0xbe20c817	-0.15701328
96	0x3e172d4a	0.1476337
97	0x3d7f510e	0.06233316
98	0x3d67e780	0.05661726
99	0xbe82a3c5	-0.2551557
100	0xbea3e971	-0.3201404
101	0x3e56a846	0.20962629
102	0xbd2b2c71	-0.04179043
103	0xbe1d4afd	-0.15360637
104	0xbf00944b	-0.5022628
105	0xbeda5279	-0.42641047
106	0xbe03e05c	-0.12878555
107	0x3e83559c	0.25651252
108	0xbda701d9	-0.08154649
109	0x3ce39ab2	0.027783725
110	0x3d63e149	0.05563477
111	0xbf4285dc	-0.75985503
112	0x3f86c6f6	1.0529468
113	0x3d7d22a7	0.061800625
114	0xbe8b031b	-0.27150807
115	0xbc985079	-0.01859306
116	0xbe3bcf76	-0.18340859
117	0xbebca878	-0.3684728
118	0xbecb5359	-0.39712027
119	0x3e48e387	0.19618045
120	0xbe8653bc	-0.2623576
121	0x3e9404bb	0.2890986
122	0xbea616ce	-0.32439274
123	0x3dc2bf99	0.095092006
124	0x3e5547d0	0.20828176
125	0xbc2cc826	-0.010545766
126	0xbe8ba3b1	-0.27273324
127	0x3de42d21	0.1114142
128	0xbe3b853e	-0.18312547
129	0x3e7615ef	0.24031805
130	0xbe06c891	-0.13162448
131	0xbe8a3914	-0.26996672
132	0x3e8c6202	0.27418524
133	0x3e4eb4fa	0.20186225
134	0xbe0fcb86	-0.14042482
135	0x3e3dc49a	0.18532029
136	0x3e9b5ba0	0.30343342
137	0x3d33de8b	0.043913405
138	0x3db00f9e	0.08596729
139	0x3ec2f002	0.38073736
140	0xbed3f714	-0.41399443
141	0xbe86298d	-0.26203576
142	0x3e74ae52	0.23894623
143	0x3d153813	0.03643043
144	0x3d348062	0.044067748
145	0xbe5291d3	-0.2056344
146	0xbe0fb7f5	-0.14035018
147	0x3ea8e65c	0.3298825
148	0xbda7aedd	-0.081876494
149	0x3d8646d3	0.065564774
150	0x3f0b0246	0.54300344
151	0xbf344a5a	-0.7042595
152	0xbdb58a16	-0.088642284
153	0x3dc1ddd3	0.09466138
154	0x3ee1c2d5	0.44093958
155	0xbcd58511	-0.026064428
156	0x3e224ffe	0.15850827
157	0xbf21c537	-0.6319155
158	0xbe238e41	-0.15972234
159	0xbe92d9b9	-0.28681734
160	0x3c30861a	0.01077416
161	0x3eaab449	0.33340672
162	0x3ea31c3b	0.31857476
163	0xbe4d8131	-0.20068814
164	0xbe9d56c2	-0.30730253
165	0x3e41d82c	0.1893012
166	0xbec91c7f	-0.39279553
167	0x3e80cca2	0.25156122
168	0x3d2436e6	0.040091418
169	0xbe54cef0	-0.20782065
170	0xbe97383b	-0.29535088
171	0xbe5ff746	-0.21871671
172	0x3e804833	0.25055084
173	0x3eb5bc3d	0.35495177
174	0x3db12524	0.08649662
175	0xbde39482	-0.1111231
176	0xbedabdea	-0.42723018
177	0x3dd4db65	0.10393409
178	0x3c62c833	0.0138416765
179	0x3e70f40a	0.23530594
180	0x3e11d3e2	0.14240983
181	0xbea5c111	-0.3237386
182	0x3eae18e1	0.34003356
183	0xbd758e61	-0.059950236
184	0xbe962541	-0.29325297
185	0x3ce0af9d	0.027427489
186	0x3e93f040	0.28894234
187	0x3ed8330a	0.4222644
188	0x3ec9e950	0.39435816
189	0xbe288040	-0.16455173
190	0x3e3e7d4d	0.18602486
191	0x3d8d6863	0.06904676
192	0xbdca6c29	-0.09883911
193	0xbecfb385	-0.4056665
194	0xbdf871b8	-0.12131065
195	0xbe712d1c	-0.23552364
196	0xbcc663ce	-0.024217512
197	0x3da9076f	0.08253371
198	0xbdb892b3	-0.09012356
199	0xbe52bfbe	-0.20580956
200	0xbe848828	-0.2588513
201	0x3df8de55	0.121517815
202	0xbc3fb539	-0.011700922
203	0xbe22e7ab	-0.15908687
204	0xbe9850ca	-0.29749137
205	0x3e97d206	0.29652423
206	0xbd0900e7	-0.033448126
207	0xbe965b92	-0.29366738
208	0xbdd55d9d	-0.10418246
209	0xbe8aff9d	-0.27148142
210	0x3eb706af	0.35747287
211	0x3c35dcdc	0.01110002
212	0x3f265a0f	0.6498117
213	0xbddc7d2e	-0.10766064
214	0xbe33847e	-0.1753101
215	0x3ecad87d	0.39618292
216	0x3df596cd	0.119916536
217	0x3e8c3240	0.27382088
218	0xbdd395ff	-0.10331344
219	0x3dc820c8	0.097718775
220	0x3ec56f5c	0.38561523
221	0x3e5f227d	0.217905
222	0xbc96a022	-0.018386904
223	0xbe8ea870	-0.27862883
224	0x3e980ddd	0.29698077
225	0xbe6cb6fb	-0.23116677
226	0xbebf7442	-0.37393385
227	0xbeb69142	-0.35657698
228	0x3df4c471	0.11951531
229	0xbe2b5c9c	-0.16734546
230	0x3d84b6c0	0.06480169
231	0x3de043fc	0.10950467
232	0xbd5bbfd5	-0.053649742
233	0x3c9fbe7f	0.019500015
234	0x3ebee0e4	0.37280953
235	0xbdc2fb76	-0.095206186
236	0xbd95faaa	-0.07323201
237	0xbd058171	-0.032594148
238	0x3d492d74	0.049115613
239	0x3ea55536	0.32291573
240	0xbe8331b3	-0.25623855
241	0xbd8eae75	-0.06966869
242	0x3ecbba42	0.3979054
243	0xbc9e7803	-0.019344335
244	0xbe00a1fc	-0.12561792
245	0xbdbcaebd	-0.09213016
246	0x3d55951a	0.052144147
247	0xbd1e2d82	-0.03861762
248	0x3d414223	0.047182214
249	0xbed634ea	-0.41837245
250	0xbe83420d	-0.2563633
251	0x3d4bb854	0.049736336
252	0xbdf28b27	-0.118429475
253	0xbf06ddd2	-0.5268222
254	0xbe0dd465	-0.13850553
255	0xbe37af4c	-0.17937964

backbone.h.bias f4 [30]
0	0xbda38484	-0.0798426
1	0x3e4f5427	0.20246945
2	0xbec47430	-0.38369894
3	0xbd63729c	-0.055529222
4	0xbd90c98c	-0.07069692
5	0xbd11efc2	-0.03562904
6	0x3dc86f48	0.0978685
7	0x3e15cf22	0.14629796
8	0x3dc5e9af	0.09663712
9	0xbe488232	-0.19580916
10	0x3d481cf7	0.048855748
11	0x3e891fcd	0.26782075
12	0xbd723eae	-0.059141807
13	0xbd94bc5d	-0.0726249
14	0x3d2bb864	0.041923895
15	0x3cd72b97	0.026265902
16	0x3d834582	0.06409742
17	0xbe4630ac	-0.19354504
18	0x3e6f92be	0.23395821
19	0xbd9f36a7	-0.07774096
20	0x3d48d935	0.04903527
21	0x3c9fecd0	0.0195221
22	0x3d2cb67b	0.042166214
23	0x3e13f511	0.14448954
24	0x3b9c9aa8	0.0047791786
25	0x3e808ce3	0.25107488
26	0x3eab51ad	0.3346075
27	0x3e10f92d	0.14157553
28	0x3e73b909	0.23801054
29	0x3e5e5a8e	0.21714231

backbone.out.weight f4 [1, 30]
0	0xbebc1f1a	-0.3674248
1	0xbeff3004	-0.4984132
2	0x3d7234eb	0.059132498
3	0x3e762686	0.24038133
4	0xbf336c0f	-0.7008676
5	0xbf2d329e	-0.6765536
6	0x3efed06f	0.49768397
7	0x3e5836b5	0.21114619
8	0x3f8a8bcd	1.0823914
9	0xbf23efe0	-0.64037895
10	0xbf4a72fc	-0.790817
11	0xbf0f740d	-0.56036454
12	0xbf37ceae	-0.71799743
13	0xbef8a1a2	-0.48560816
14	0xbebc800c	-0.36816442
15	0xbecbc6e1	-0.3980017
16	0x3f4e5090	0.8059168
17	0x3f3066ca	0.68906844
18	0xbee8f1c3	-0.4549695
19	0xbe38159f	-0.17976998
20	0xbf9e18cc	-1.2351317
21	0xbe5c1c80	-0.21495247
22	0x3e414a2b	0.18875949
23	0xbdb11809	-0.086471625
24	0xbf2d5fa1	-0.67724043
25	0x3f8fd30c	1.1236281
26	0xbf859916	-1.0437343
27	0xbe99f27b	-0.3006781
28	0xbf1af9f1	-0.6053763
29	0xbf489123	-0.7834646

weight f4 [30, 1]
0	0xbfa06563	-1.2530941
1	0x3eee3944	0.46528065
2	0x3f4bc42f	0.7959623
3	0xbedde858	-0.43341327
4	0xbf112d7c	-0.5671003
5	0xbf117c69	-0.5683046
6	0xbf3e48c6	-0.74329793
7	0x3f694391	0.91118723
8	0x400fce7e	2.2469783
9	0xbf568995	-0.83803684
10	0xbfa82cc9	-1.3138667
11	0xbf95d876	-1.1706684
12	0xbf97069b	-1.1798891
13	0xbf890fa5	-1.0707899
14	0x3e9677c4	0.2938825
15	0xbfa17f7e	-1.2617033
16	0x400d6ba9	2.209696
17	0x3f2d3010	0.6765146
18	0xbf87f433	-1.0621399
19	0x3eb9833d	0.3623294
20	0xbfd2b6ef	-1.6462077
21	0x3f696e6d	0.9118412
22	0xbf1b57b7	-0.6068072
23	0x3e9f4cea	0.31113368
24	0xbf767f1e	-0.96287715
25	0x4006bfc4	2.1054544
26	0xbf640605	-0.89071685
27	0xbfb336c9	-1.4001094
28	0x3e906496	0.2820174
29	0xbf389992	-0.7210933

bias f4 [30]
0	0x3f4b9f49	0.79539925
1	0xbdfb8259	-0.12280721
2	0x3e0fb4fa	0.14033881
3	0xbf5c1737	-0.85972923
4	0x3f26f1a6	0.65212476
5	0x3f1f41b2	0.6220962
6	0xbf15b778	-0.58483076
7	0xbf58825e	-0.84573925
8	0x3f336500	0.7007599
9	0x3f00cbda	0.5031105
10	0x3e415709	0.18880858
11	0x3f35d3f3	0.71026534
12	0x3f031813	0.5120861
13	0x3ec2ee3f	0.38072392
14	0xbe7fbfdd	-0.24975534
15	0x3f774e02	0.96603405
16	0xbe96a8fc	-0.294258
17	0xbf60aa78	-0.87760115
18	0xbdf886f8	-0.12135118
19	0xbf8fd879	-1.1237937
20	0xbe175fda	-0.14782658
21	0x3f2ec2c7	0.68265957
22	0xbf6f5b9c	-0.9349916
23	0xbed48e31	-0.41514733
24	0xbf19d3b4	-0.6008866
25	0x3eed1960	0.46308422
26	0x3eec3a4b	0.46138224
27	0x3e889cf6	0.26682252
28	0x3f691193	0.9104244
29	0xbe90ce04	-0.28282177

weight f4 [30, 30]
0	0xbe16a204	-0.14710242
1	0xbdfe03e2	-0.12403084
2	0x3ddb1ceb	0.10698875
3	0xbd87e753	-0.066359185
4	0x39f04b83	0.00045832628
5	0xbdc24bd0	-0.09487116
6	0x3bfb3d64	0.0076672304
7	0xbe7c01d1	-0.24610068
8	0x3dc10f05	0.09426693
9	0xbb4a0980	-0.0030828416
10	0xbea59348	-0.3233893
11	0x3d2f6798	0.042823404
12	0xbd586f9b	-0.05284081
13	0xbedd27f4	-0.43194544
14	0xbe528346	-0.2055789
15	0x3e07f248	0.13276017
16	0xbd66a277	-0.056307282
17	0xbe3ee4f5	-0.18642028
18	0xbdfbbba3	-0.12291648
19	0xbc87fa85	-0.01659895
20	0xbe86a5ac	-0.26298273
21	0xbdca1d70	-0.09868896
22	0xbe0f377c	-0.1398601
23	0x3e932b65	0.28744045
24	0xbeaa130d	-0.3321766
25	0x3cf948b4	0.030430175
26	0x3de6a0e5	0.11261157
27	0xbb9a8b01	-0.0047162776
28	0xbcde3f1d	-0.027129704
29	0xbafd4342	-0.0019322413
30	0x3ef5b736	0.4799134
31	0x3e4d5298	0.20051038
32	0xbf04bdd4	-0.51852155
33	0xbe970179	-0.2949331
34	0x3e19ed7e	0.15032002
35	0xbecefd9c	-0.40427864
36	0xbe929f47	-0.28637144
37	0xbf18bdf5	-0.5966485
38	0x3d5d0b0c	0.053965613
39	0x3d81212b	0.063051544
40	0x3f2a9023	0.66626185
41	0x3ea7432e	0.32668442
42	0xbbaaa9df	-0.0052082385
43	0x3f3284db	0.6973397
44	0xbc7e6ba0	-0.0155285895
45	0xbe8a9fe0	-0.270751
46	0xbf063693	-0.52427024
47	0x3e067db9	0.13133897
48	0x3e7f464a	0.24929157
49	0xbe5c0e24	-0.21489769
50	0x3ee48781	0.4463463
51	0x3e4db49e	0.20088431
52	0xbef33402	-0.47500616
53	0xbea4d23c	-0.32191646
54	0x3d6ccc83	0.057812225
55	0xbe9ef399	-0.31045225
56	0xbe1fbd70	-0.15599608
57	0x3eb6e03c	0.35717952
58	0x3da639aa	0.08116467
59	0xbde5e812	-0.112259045
60	0x3e7a2ac1	0.24430372
61	0x3e4c5f34	0.19958192
62	0x3ed24620	0.41069126
63	0x3e8fc68c	0.28081167
64	0x3e4727ea	0.1944882
65	0x3e2d7351	0.16938521
66	0xbf0ec562	-0.5576993
67	0xbf287c88	-0.6581502
68	0x3cf6b742	0.030116681
69	0xbd6d0e1f	-0.057874795
70	0xbd9f6449	-0.077828
71	0x3f0edb0e	0.55803
72	0x3dbe8b76	0.09303944
73	0xbe5aacd4	-0.21354991
74	0x3e75515f	0.23956822
75	0x3d074676	0.03302618
76	0xbe744b81	-0.23856927
77	0x3d3826ae	0.044958763
78	0xbe970c9c	-0.29501808
79	0x3ecb4679	0.39702204
80	0x3e9b47b9	0.30328158
81	0xbd934509	-0.07190902
82	0xbd833f4e	-0.06408559
83	0x3f03f725	0.5154899
84	0x3d0338d6	0.032036625
85	0xbce62d41	-0.02809775
86	0xbe45037e	-0.19239613
87	0xbc5d585b	-0.013509835
88	0xbd4e70dd	-0.050400604
89	0x3e97c848	0.2964499
90	0xbe48be99	-0.19603957
91	0x3ec57eb3	0.38573226
92	0x3f12d777	0.57360023
93	0x3e08ba17	0.13352238
94	0xbda2fc62	-0.079582945
95	0xbe20c817	-0.15701328
96	0x3e172d4a	0.1476337
97	0x3d7f510e	0.06233316
98	0x3d67e780	0.05661726
99	0xbe82a3c5	-0.2551557
100	0xbea3e971	-0.3201404
101	0x3e56a846	0.20962629
102	0xbd2b2c71	-0.04179043
103	0xbe1d4afd	-0.15360637
104	0xbf00944b	-0.5022628
105	0xbeda5279	-0.42641047
106	0xbe03e05c	-0.12878555
107	0x3e83559c	0.25651252
108	0xbda701d9	-0.08154649
109	0x3ce39ab2	0.027783725
110	0x3d63e149	0.05563477
111	0xbf4285dc	-0.75985503
112	0x3f86c6f6	1.0529468
113	0x3d7d22a7	0.061800625
114	0xbe8b031b	-0.27150807
115	0xbc985079	-0.01859306
116	0xbe3bcf76	-0.18340859
117	0xbebca878	-0.3684728
118	0xbecb5359	-0.39712027
119	0x3e48e387	0.19618045
120	0xbe8653bc	-0.2623576
121	0x3e9404bb	0.2890986
122	0xbea616ce	-0.32439274
123	0x3dc2bf99	0.095092006
124	0x3e5547d0	0.20828176
125	0xbc2cc826	-0.010545766
126	0xbe8ba3b1	-0.27273324
127	0x3de42d21	0.1114142
128	0xbe3b853e	-0.18312547
129	0x3e7615ef	0.24031805
130	0xbe06c891	-0.13162448
131	0xbe8a3914	-0.26996672
132	0x3e8c6202	0.27418524
133	0x3e4eb4fa	0.20186225
134	0xbe0fcb86	-0.14042482
135	0x3e3dc49a	0.18532029
136	0x3e9b5ba0	0.30343342
137	0x3d33de8b	0.043913405
138	0x3db00f9e	0.08596729
139	0x3ec2f002	0.38073736
140	0xbed3f714	-0.41399443
141	0xbe86298d	-0.26203576
142	0x3e74ae52	0.23894623
143	0x3d153813	0.03643043
144	0x3d348062	0.044067748
145	0xbe5291d3	-0.2056344
146	0xbe0fb7f5	-0.14035018
147	0x3ea8e65c	0.3298825
148	0xbda7aedd	-0.081876494
149	0x3d8646d3	0.065564774
150	0x3f0b0246	0.54300344
151	0xbf344a5a	-0.7042595
152	0xbdb58a16	-0.088642284
153	0x3dc1ddd3	0.09466138
154	0x3ee1c2d5	0.44093958
155	0xbcd58511	-0.026064428
156	0x3e224ffe	0.15850827
157	0xbf21c537	-0.6319155
158	0xbe238e41	-0.15972234
159	0xbe92d9b9	-0.28681734
160	0x3c30861a	0.01077416
161	0x3eaab449	0.33340672
162	0x3ea31c3b	0.31857476
163	0xbe4d8131	-0.20068814
164	0xbe9d56c2	-0.30730253
165	0x3e41d82c	0.1893012
166	0xbec91c7f	-0.39279553
167	0x3e80cca2	0.25156122
168	0x3d2436e6	0.040091418
169	0xbe54cef0	-0.20782065
170	0xbe97383b	-0.29535088
171	0xbe5ff746	-0.21871671
172	0x3e804833	0.25055084
173	0x3eb5bc3d	0.35495177
174	0x3db12524	0.08649662
175	0xbde39482	-0.1111231
176	0xbedabdea	-0.42723018
177	0x3dd4db65	0.10393409
178	0x3c62c833	0.0138416765
179	0x3e70f40a	0.23530594
180	0x3e11d3e2	0.14240983
181	0xbea5c111	-0.3237386
182	0x3eae18e1	0.34003356
183	0xbd758e61	-0.059950236
184	0xbe962541	-0.29325297
185	0x3ce0af9d	0.027427489
186	0x3e93f040	0.28894234
187	0x3ed8330a	0.4222644
188	0x3ec9e950	0.39435816
189	0xbe288040	-0.16455173
190	0x3e3e7d4d	0.18602486
191	0x3d8d6863	0.06904676
192	0xbdca6c29	-0.09883911
193	0xbecfb385	-0.4056665
194	0xbdf871b8	-0.12131065
195	0xbe712d1c	-0.23552364
196	0xbcc663ce	-0.024217512
197	0x3da9076f	0.08253371
198	0xbdb892b3	-0.09012356
199	0xbe52bfbe	-0.20580956
200	0xbe848828	-0.2588513
201	0x3df8de55	0.121517815
202	0xbc3fb539	-0.011700922
203	0xbe22e7ab	-0.15908687
204	0xbe9850ca	-0.29749137
205	0x3e97d206	0.29652423
206	0xbd0900e7	-0.033448126
207	0xbe965b92	-0.29366738
208	0xbdd55d9d	-0.10418246
209	0xbe8aff9d	-0.27148142
210	0x3eb706af	0.35747287
211	0x3c35dcdc	0.01110002
212	0x3f265a0f	0.6498117
213	0xbddc7d2e	-0.10766064
214	0xbe33847e	-0.1753101
215	0x3ecad87d	0.39618292
216	0x3df596cd	0.119916536
217	0x3e8c3240	0.27382088
218	0xbdd395ff	-0.10331344
219	0x3dc820c8	0.097718775
220	0x3ec56f5c	0.38561523
221	0x3e5f227d	0.217905
222	0xbc96a022	-0.018386904
223	0xbe8ea870	-0.27862883
224	0x3e980ddd	0.29698077
225	0xbe6cb6fb	-0.23116677
226	0xbebf7442	-0.37393385
227	0xbeb69142	-0.35657698
228	0x3df4c471	0.11951531
229	0xbe2b5c9c	-0.16734546
230	0x3d84b6c0	0.06480169
231	0x3de043fc	0.10950467
232	0xbd5bbfd5	-0.053649742
233	0x3c9fbe7f	0.019500015
234	0x3ebee0e4	0.37280953
235	0xbdc2fb76	-0.095206186
236	0xbd95faaa	-0.07323201
237	0xbd058171	-0.032594148
238	0x3d492d74	0.049115613
239	0x3ea55536	0.32291573
240	0xbe8331b3	-0.25623855
241	0xbd8eae75	-0.06966869
242	0x3ecbba42	0.3979054
243	0xbc9e7803	-0.019344335
244	0xbe00a1fc	-0.12561792
245	0xbdbcaebd	-0.09213016
246	0x3d55951a	0.052144147
247	0xbd1e2d82	-0.03861762
248	0x3d414223	0.047182214
249	0xbed634ea	-0.41837245
250	0xbe83420d	-0.2563633
251	0x3d4bb854	0.049736336
252	0xbdf28b27	-0.118429475
253	0xbf06ddd2	-0.5268222
254	0xbe0dd465	-0.13850553
255	0xbe37af4c	-0.17937964

bias f4 [30]
0	0xbda38484	-0.0798426
1	0x3e4f5427	0.20246945
2	0xbec47430	-0.38369894
3	0xbd63729c	-0.055529222
4	0xbd90c98c	-0.07069692
5	0xbd11efc2	-0.03562904
6	0x3dc86f48	0.0978685
7	0x3e15cf22	0.14629796
8	0x3dc5e9af	0.09663712
9	0xbe488232	-0.19580916
10	0x3d481cf7	0.048855748
11	0x3e891fcd	0.26782075
12	0xbd723eae	-0.059141807
13	0xbd94bc5d	-0.0726249
14	0x3d2bb864	0.041923895
15	0x3cd72b97	0.026265902
16	0x3d834582	0.06409742
17	0xbe4630ac	-0.19354504
18	0x3e6f92be	0.23395821
19	0xbd9f36a7	-0.07774096
20	0x3d48d935	0.04903527
21	0x3c9fecd0	0.0195221
22	0x3d2cb67b	0.042166214
23	0x3e13f511	0.14448954
24	0x3b9c9aa8	0.0047791786
25	0x3e808ce3	0.25107488
26	0x3eab51ad	0.3346075
27	0x3e10f92d	0.14157553
28	0x3e73b909	0.23801054
29	0x3e5e5a8e	0.21714231

weight f4 [1, 30]
0	0xbebc1f1a	-0.3674248
1	0xbeff3004	-0.4984132
2	0x3d7234eb	0.059132498
3	0x3e762686	0.24038133
4	0xbf336c0f	-0.7008676
5	0xbf2d329e	-0.6765536
6	0x3efed06f	0.49768397
7	0x3e5836b5	0.21114619
8	0x3f8a8bcd	1.0823914
9	0xbf23efe0	-0.64037895
10	0xbf4a72fc	-0.790817
11	0xbf0f740d	-0.56036454
12	0xbf37ceae	-0.71799743
13	0xbef8a1a2	-0.48560816
14	0xbebc800c	-0.36816442
15	0xbecbc6e1	-0.3980017
16	0x3f4e5090	0.8059168
17	0x3f3066ca	0.68906844
18	0xbee8f1c3	-0.4549695
19	0xbe38159f	-0.17976998
20	0xbf9e18cc	-1.2351317
21	0xbe5c1c80	-0.21495247
22	0x3e414a2b	0.18875949
23	0xbdb11809	-0.086471625
24	0xbf2d5fa1	-0.67724043
25	0x3f8fd30c	1.1236281
26	0xbf859916	-1.0437343
27	0xbe99f27b	-0.3006781
28	0xbf1af9f1	-0.6053763
29	0xbf489123	-0.7834646
