tme4/lightning_logs/version_11/checkpoints/epoch=1-step=10407.ckpt (torch, 20634 bytes, 18 tensors)

exp_avg f4 [30, 1]
00000000: 05f6 f2b6 ce8c 5b39 44e3 313a 2515 43ba
00000010: 5988 5cb9 d8cb 0cba b195 65b9 cc6c d43a
00000020: 5db5 4fba 8adf 4936 b593 a53a ee7d 773a
00000030: ba61 b73a dbe3 ca39 e2e1 e03a e45a 08ba
00000040: b129 9238 179b 13ba 0360 f639 fbe0 973a
00000050: e4a2 dbba 4adf 7cba f4a2 1139 d734 58ba
00000060: 9df3 38ba f496 3bba bb0d 82ba 1afe 63ba
00000070: 91ad 84ba 8952 9c3a
-7.2408025e-06 0.00020937921 0.00067858794 -0.00074418104 -0.00021031628 -0.0005370951 -0.00021894906 0.001620674
-0.00079234486 3.008145e-06 0.0012632521 0.0009441067 0.0013990917 0.00038698208 0.0017157162 -0.0005201532
6.969588e-05 -0.0005630715 0.0004699231 0.0011587435 -0.0016756919 -0.000964631 0.00013888982 -0.000824762
-0.0007055344 -0.00071559777 -0.0009922305 -0.0008697227 -0.0010122528 0.0011926453

exp_avg_sq f4 [30, 1]
00000000: 673f 1f35 1fe7 3436 226e f035 1b32 5636
00000010: e92c b436 4c6f 9236 0e6e 9f35 8dcd 3e37
00000020: dbbe 5b36 8f52 6235 71c7 df36 47c9 3736
00000030: d711 3f37 1f47 4b36 4096 2637 dbba 2936
00000040: dd78 8636 f569 0936 1e8c 6237 c5c4 ad36
00000050: 1100 9536 066e da35 2b92 9f36 b537 6e36
00000060: c8a5 9636 0c91 fa36 314e f836 76c7 d936
00000070: 0384 8336 0faf 6736
5.932438e-07 2.695662e-06 1.7913446e-06 3.191765e-06 5.3696463e-06 4.3640957e-06 1.1878453e-06 1.1372741e-05
3.2744636e-06 8.43117e-07 6.669136e-06 2.7386284e-06 1.1388641e-05 3.0290755e-06 9.929354e-06 2.5291727e-06
4.0075815e-06 2.0476266e-06 1.3503273e-05 5.1787088e-06 4.4405538e-06 1.6274287e-06 4.7555855e-06 3.549719e-06
4.489648e-06 7.4674663e-06 7.4000786e-06 6.4903243e-06 3.9194724e-06 3.452358e-06

exp_avg f4 [30]
00000000: 3123 8e37 fbfc 2338 c92e 82ba b2ed 68b9
00000010: 44ff 3939 1c61 f5b7 2067 1339 4c5c 633a
00000020: 38d9 233a ab3a 84b9 682d 96ba d225 1639
00000030: 9e40 2c3a f09c d938 6ae6 283a c49a 28ba
00000040: abbd 96b8 2d3c 39b9 79b9 1939 ee6c 82b9
00000050: 4e20 1b39 8a7e 2839 825e b6b8 ea16 9f37
00000060: 7e72 4d39 4112 493a 3019 853a 9064 22ba
00000070: 0e5b 1c38 3de8 9739
1.6944106e-05 3.9097835e-05 -0.0009932156 -0.00022213793 0.00017738069 -2.9251496e-05 0.0001405743 0.0008673116
0.00062503247 -0.00025220713 -0.0011457624 0.00014319204 0.0006570908 0.00010376598 0.0006443026 -0.0006431753
-7.187886e-05 -0.00017665392 0.00014660311 -0.0002487669 0.00014793986 0.00016068868 -8.69604e-05 1.8964947e-05
0.00019592975 0.00076702615 0.0010154601 -0.00061947946 3.72781e-05 0.00028973995

exp_avg_sq f4 [30]
00000000: a956 c735 6f3a ef36 f0f4 cf36 9e01 ff35
00000010: 9dfd 6237 edd8 9235 8341 cd35 ac65 9536
00000020: 692b 2336 bac6 1336 63bf 9036 04b4 f935
00000030: ac3f d436 cd22 c835 ab15 4b36 5576 2937
00000040: 6aad 4b36 512d fc36 b972 d636 cb01 8336
00000050: 6f22 0a35 78a8 3035 6e9d 0235 4651 5635
00000060: 5dc1 6f35 f630 3037 0ca0 8036 b9e8 ac37
00000070: 9ecd a935 9429 0c35
1.4851877e-06 7.1295576e-06 6.197595e-06 1.8999451e-06 1.3529699e-05 1.0940981e-06 1.5292757e-06 4.452382e-06
2.431416e-06 2.202038e-06 4.3138148e-06 1.8604337e-06 6.3255047e-06 1.491129e-06 3.026197e-06 1.0100736e-05
3.0350297e-06 7.5154608e-06 6.3910525e-06 3.904313e-06 5.1459114e-07 6.5810264e-07 4.8657864e-07 7.983948e-07
8.931582e-07 1.0501817e-05 3.833329e-06 2.0612368e-05 1.2651324e-06 5.221457e-07

exp_avg f4 [30, 30]
00000000: 5c7c 60b9 fd03 1ab9 a78e 8039 ab47 4639
00000010: 98c2 1939 cab2 3fb8 2d98 2d39 1bb0 0cb9
00000020: 5751 a538 9e4e 3a39 c7dd 2eb8 d0db ddb7
00000030: 1098 1cb9 b726 ae37 04f1 3ab9 8c95 45b9
00000040: 345b 4ab8 beb2 46b9 277d 4339 0c06 2ab8
00000050: f67b 5439 0cd6 0cb6 9e80 08b8 569e 71b8
00000060: 1024 9338 29a3 3638 8e71 1138 45c0 37b9
00000070: cbe2 9039 d42f a7b8 88ad bcb8 6034 bf37
00000080: 168b 84b8 4106 7e38 da77 7438 05de e838
00000090: 6b91 3c39 cc66 69b9 93c1 69b8 4673 6538
000000a0: 1c1b 32b9 3c74 12b9 4638 c1b8 e424 74b9
000000b0: 964d 5bb9 6a6a 3bb9 eb3d 3038 b7fa 18b9
000000c0: fb5f 8638 288d 5738 8ca0 e2b8 254d 0739
000000d0: 2346 7eb7 f1d3 ab39 dff4 afb7 ad54 bab7
000000e0: 4ce5 7e36 bea8 53b9 b627 a7b9 0956 8f38
000000f0: bcba 3bba c9f6 8cba 7983 803a 4dcd 23b9
00000100: 51a1 983a ad52 9338 e59c 133a 0e05 65b8
00000110: ef97 7a3a f077 6f3a f0d6 6bba b1aa 05ba
00000120: 0bcc 5537 4bf2 11ba f21f 27b8 ac96 37ba
00000130: c3bd 81ba e3dc 3bba bdf4 46b9 b8c7 1aba
00000140: e2b9 a239 b67a 293a 5f15 02b9 1b83 003a
00000150: c947 b839 b9a8 9c3a 0541 953a 71f7 33ba
00000160: ac82 0eb8 0fc1 dab8 aaa4 2139 6fef 23b9
00000170: ac1c ed38 8cb7 9ab9 bf86 1239 e59b 05b9
00000180: a69a a0b9 821d 003a 426d c438 4939 0bb7
00000190: 5689 4cb7 3df6 dc37 a1a2 d439 6ef3 a138
000001a0: 86e5 063a 0020 6e39 2d3a c0b8 df94 3639
000001b0: c2c6 c4b9 b5a2 3338 1843 cfb8 79ed ecb8
000001c0: 9ee3 1e38 b983 f9b8 910c 9ab8 0a0d 1439
000001d0: d547 1a39 8849 3039 ad03 1538 cf66 3ab8
000001e0: ee67 ae38 5376 4738 04ec 4f38 9212 f638
000001f0: baee 62b9 4a44 00b9 0b5c e4b8 06b4 0839
00000200: 4674 88b8 849f ccb8 311a 9539 b9ba 9c39
00000210: 4617 52b8 e8da c739 dd2d 0b39 461e 9438
00000220: 9698 2739 7c8e 1738 8a76 fe38 2fe7 a1b7
00000230: 5688 3d39 48b9 47b9 c9e2 3137 2e6f 00ba
00000240: 1bf0 a738 f31c 8cb9 7396 86b9 ac3a bf38
00000250: 7c41 073a 6e4b 5ab7 a101 0139 840f 8fb8
00000260: 4e23 8937 2f80 5eb9 e2c8 8538 39eb dcb8
00000270: 48bc b3b9 9fa8 e339 15ed 7bb8 fdb0 9eb7
00000280: dafd 7b39 1918 dab8 0ec3 bd39 f6ce b237
00000290: 3629 003a 5c39 1839 5143 afb8 b0c5 1c39
000002a0: 5159 9fb9 f2e0 0939 05b8 b5b8 53b8 6eb9
000002b0: d7c6 5e38 333e 30b9 7868 78b9 2fe0 d638
000002c0: 4f38 06b8 8f9a 5d38 89b8 d636 f487 39b9
000002d0: b2d2 c238 8e30 8c38 998e a7b7 6cde f4b7
000002e0: c9cc aab8 9e99 69b8 32fc aab8 1c01 7038
000002f0: 4b82 edb8 26bb 35b8 9492 ed38 9fa8 0338
00000300: 94e5 1637 7d3b 5038 8ca4 b238 609f 8838
00000310: f0d1 0539 2925 ed35 33ac 73b7 3e18 9338
00000320: d79b bbb8 9bb9 48b8 e7db e937 6bdf 20b8
00000330: eda3 c0b8 3a16 12b9 2f90 09b9 6101 a137
00000340: e8e5 a7b8 a3d6 7bb7 34ee ec36 996b 123a
00000350: 49cb fdb9 994e 103a 4cd6 13ba 2160 5439
00000360: e15a ae39 9fa1 3cba ebef f7b9 0080 68b9
00000370: acdd bf39 b89a 5339 37fb 26ba ce54 0eb5
00000380: 3834 3dba 379d 4fb9 613b 093a 9747 f3b8
00000390: 5b89 303a 61bf 8939 7620 83b8 d81e 98b8
000003a0: bce4 89b8 ada1 0f39 d0a3 3db8 4215 19ba
000003b0: 0357 22ba 7cee f9b8 071a 2db9 c6e5 5a39
000003c0: d8fb bc39 fd89 0b3a 1120 fab9 fe3f 7c39
000003d0: e38e 21ba 952d acb8 6a97 93b9 efea 8bb8
000003e0: 91f1 12ba 59a3 08ba b96b 2a3a cf22 6e39
000003f0: fb7e 21b9 b8a8 cf39 abbd 02b9 b595 d139
-0.00021408632 -0.0001468807 0.00024520347 0.0001890945 0.00014663709 -4.570446e-05 0.00016555256 -0.00013417045
7.882964e-05 0.0001776763 -4.169138e-05 -2.6447611e-05 -0.00014933967 2.0760444e-05 -0.00017828128 -0.00018843095
-4.8245493e-05 -0.00018949338 0.00018643272 -4.053679e-05 0.00020264075 -2.0986217e-06 -3.254471e-05 -5.760634e-05
7.0162234e-05 4.3544136e-05 3.467645e-05 -0.00017523866 0.00027634794 -7.972089e-05 -8.996861e-05 2.2793363e-05
-6.320157e-05 6.0564143e-05 5.8285754e-05 0.000111039764 0.0001798325 -0.00022258906 -5.573181e-05 5.470521e-05
-0.00016985502 -0.00013966946 -9.213439e-05 -0.00023283396 -0.0002091437 -0.00017873352 4.2019336e-05 -0.00014589248
6.407496e-05 5.1391457e-05 -0.00010806424 0.00012903342 -1.515591e-05 0.0003277357 -2.0975653e-05 -2.2212358e-05
3.7982418e-06 -0.0002018539 -0.0003188231 6.834797e-05 -0.00071613095 -0.00107547 0.0009804807 -0.00015621372
0.0011644756 7.024906e-05 0.0005630984 -5.4602562e-05 0.0009559383 0.00091349985 -0.0008996567 -0.00050989824
1.2743297e-05 -0.00055674155 -3.9845654e-05 -0.0007003348 -0.0009898472 -0.00071663986 -0.00018973924 -0.0005904394
0.0003103754 0.0006465124 -0.00012405727 0.0004902349 0.000351487 0.0011952139 0.0011387175 -0.000686518
-3.3977136e-05 -0.0001043101 0.00015415499 -0.00015634087 0.00011306381 -0.00029509922 0.00013973842 -0.00012741944
-0.000306328 0.00048872095 9.366359e-05 -8.298383e-06 -1.2191324e-05 2.6340707e-05 0.0004055696 7.7224206e-05
0.0005145896 0.0002270937 -9.1661095e-05 0.00017412331 -0.0003753212 4.282846e-05 -9.883026e-05 -0.0001129759
3.788212e-05 -0.000118977805 -7.345633e-05 0.00014119237 0.00014713344 0.0001681206 3.552779e-05 -4.4441604e-05
8.316325e-05 4.7555495e-05 4.9572453e-05 0.00011733653 -0.00021641972 -0.00012232471 -0.000108890315 0.00013037035
-6.506643e-05 -9.75719e-05 0.0002843901 0.00029893758 -5.0089577e-05 0.00038119336 0.00013273158 7.062829e-05
0.00015983204 3.6133904e-05 0.000121337434 -1.9300349e-05 0.00018075234 -0.00019047142 1.0602825e-05 -0.00048993796
8.007904e-05 -0.0002672445 -0.00025670565 9.118518e-05 0.0005159599 -1.3011375e-05 0.00012303005 -6.8216614e-05
1.6348113e-05 -0.00021219322 6.3793515e-05 -0.00010534231 -0.0003428182 0.00043422446 -6.0063863e-05 -1.8917484e-05
0.00024031792 -0.000103995386 0.00036194216 2.1315627e-05 0.00048889534 0.00014517218 -8.357189e-05 0.00014950964
-0.0003039339 0.00013149137 -8.665029e-05 -0.00022766115 5.311411e-05 -0.00016807839 -0.0002369004 0.000102460726
-3.200053e-05 5.283445e-05 6.3991797e-06 -0.00017693621 9.289886e-05 6.684764e-05 -1.9974354e-05 -2.919064e-05
-8.144376e-05 -5.5694596e-05 -8.153207e-05 5.7221492e-05 -0.000113253096 -4.332806e-05 0.00011328343 3.1389874e-05
8.9941495e-06 4.9646467e-05 8.518351e-05 6.514671e-05 0.00012762076 1.7668691e-06 -1.4524022e-05 7.014022e-05
-8.945882e-05 -4.7856574e-05 2.7878164e-05 -3.8355047e-05 -9.185807e-05 -0.00013931925 -0.0001311905 1.9193338e-05
-8.006004e-05 -1.501074e-05 7.0610786e-06 0.00055854913 -0.0004840738 0.0005504876 -0.00056395377 0.00020253706
0.00033255576 -0.0007195714 -0.00047290264 -0.00022172928 0.00036595517 0.00020180165 -0.00063698314 -5.302253e-07
-0.0007217559 -0.00019799625 0.00052349834 -0.000116004776 0.0006734335 0.00026273265 -6.252613e-05 -7.25367e-05
-6.575274e-05 0.00013697772 -4.5213674e-05 -0.00058396545 -0.00061927753 -0.000119176664 -0.00016508262 0.00020875697
0.00036045793 0.0005322991 -0.00047707607 0.00024056432 -0.00061629544 -8.2100894e-05 -0.00028150837 -6.671796e-05
-0.0005605454 -0.0005212329 0.0006501037 0.00022710416 -0.0001540146 0.00039607822 -0.00012468423 0.00039975127

exp_avg_sq f4 [30, 30]
00000000: 7ab9 2335 8036 6335 8260 5e35 b655 4d35
00000010: f56a 6035 0063 a533 ed39 0f35 4d1e 9235
00000020: 6d17 3835 2c79 3035 8d6a 4f35 fcc9 2b34
00000030: 7cd7 6835 46a8 0734 4657 a635 a186 8535
00000040: d3d6 0235 f1da 8235 1aa7 8b35 8157 8234
00000050: 914f 4234 83aa 2234 2ce8 bb33 f73b 4434
00000060: 653e 6534 ce60 7035 4c1c 8835 d0d9 af35
00000070: 518f 3134 1fb3 a133 0159 2e36 1df3 8d36
00000080: 4d15 8636 973f 6b36 7093 8b36 2859 be34
00000090: 59e3 2236 9bfc ad36 ea58 6936 e09f 5536
000000a0: 7355 7f36 f288 2835 42bc 8b36 702c 4735
000000b0: a5a6 c536 9c23 9936 7b21 2036 7984 9736
000000c0: 3f3f a336 d4a9 8635 933d 4835 563c 6c35
000000d0: 3ad1 ff34 28dc 7f35 7a83 9a35 f147 9436
000000e0: 8ebb aa36 88ba c336 14ec 4535 e954 f634
000000f0: 5dd8 fe35 1341 4036 204d 3436 fd60 4236
00000100: 8950 4136 806c 7834 a7dd ed35 c28c 9236
00000110: bd7c 3936 61cc 0d36 5deb 5536 c887 0735
00000120: 106a 6736 c6f9 d934 cd45 a836 515d 6036
00000130: df2c ec35 c2d2 5136 6244 8d36 4d21 5535
00000140: 7a40 1535 52a4 0e35 8a40 9234 a3cd 2235
00000150: ce51 3335 4955 6336 9935 8d36 bea5 8e36
00000160: 6386 f734 6c2a 7834 f88d 3535 0c1f 6835
00000170: d6af 6b35 41e0 8235 fa5f 6b35 bbc5 b033
00000180: 0d0a 3035 b01a be35 caa0 4235 6dd9 4035
00000190: 377c 7135 b5a3 4534 891c 9935 6f74 2534
000001a0: cc09 d535 2132 a135 19ce fe34 e3e6 9835
000001b0: cfc8 b535 ae79 7e34 6e3d 6534 ae8d 5034
000001c0: 9bdc c833 afe1 7934 c465 7b34 be01 7935
000001d0: 1ee5 a035 50ab c635 d1d1 2d34 c872 b433
000001e0: a140 8e36 b28c d036 c7af c236 353b e136
000001f0: 9d1f d336 8fb1 1035 d010 8a36 0598 2537
00000200: fe61 c536 7b3f 9e36 ae74 dc36 c22e 9835
00000210: f6f2 0237 0679 8a35 c4b1 3c37 521e 0337
00000220: aa70 7f36 eaa5 f936 0961 1e37 fd34 dc35
00000230: a58d a335 1872 a235 a4a9 1635 5cc1 b335
00000240: 7b44 bf35 0118 f236 5694 1637 af9c 2637
00000250: af47 8935 d1ee 0635 fd99 a435 3db1 ba35
00000260: ccb6 d735 e414 6435 0a08 b035 5a0b 1234
00000270: c43b 8a35 6a41 8935 dba9 3235 383e b035
00000280: 5bde 5a35 07ba 7234 3cb5 7935 cb9c 9034
00000290: 44dc 9435 41d4 f435 f202 1835 ea51 0136
000002a0: 9af3 7935 5197 ae34 1497 bf34 5832 bf34
000002b0: 3ca3 5b34 1b86 db34 287d 0235 c50c 8535
000002c0: 7cf4 6b35 3c6c 2036 e4ac bd34 663d 4e34
000002d0: 33c1 4935 96f9 8b35 1951 8f35 6d09 6035
000002e0: 6515 8835 b9ec cc33 9c6c 3e35 a88b 9d35
000002f0: c7c0 4635 0492 6d35 c1bf 5a35 b9ab 2834
00000300: ab96 8335 41f6 4934 ade0 af35 a3de ab35
00000310: d0e6 1035 290d ae35 353a 9335 f24f 8f34
00000320: 599e 5c34 8f02 8c34 b709 0434 aa21 8734
00000330: f36b 9c34 0b95 8335 2012 9135 2610 dd35
00000340: 10c6 4e34 cc75 fa33 bdb0 f235 fd56 2436
00000350: e7f2 2736 a376 0c36 f40f 2536 7bd1 4634
00000360: 518e d535 b3a2 5136 f983 0a36 b82d 0736
00000370: ab4a 1c36 594f e734 f4f2 2836 1cc9 d234
00000380: f011 7036 089b 4436 f5b9 be35 8929 3f36
00000390: 5d89 4a36 8dba 2835 d7f8 0c35 148e 0c35
000003a0: 3a41 8d34 4ae0 1535 ed83 2f35 e13a 3036
000003b0: 7d09 4d36 994c 7636 150a ee34 caf6 7434
000003c0: ae90 7435 9fa7 be35 54e0 b435 07b7 8e35
000003d0: 18f8 c035 16b4 e833 aa60 5735 8c4a db35
000003e0: 0872 a235 d2b0 9235 da81 b435 628c 6934
000003f0: 7088 b035 759b 8934 bf28 fb35 df74 c735
6.0992136e-07 8.46434e-07 8.284188e-07 7.6493177e-07 8.3602146e-07 7.701419e-08 5.3355944e-07 1.0886666e-06
6.857943e-07 6.574144e-07 7.726856e-07 1.5999098e-07 8.6740306e-07 1.2634072e-07 1.2393364e-06 9.948454e-07
4.8741384e-07 9.749475e-07 1.040494e-06 2.4278054e-07 1.8096604e-07 1.5149458e-07 8.750098e-08 1.8275738e-07
2.1349986e-07 8.9547837e-07 1.0141025e-06 1.3101908e-06 1.6536548e-07 7.529729e-08 2.5979828e-06 4.2304296e-06
3.995991e-06 3.5054743e-06 4.159687e-06 3.5455128e-07 2.4272215e-06 5.185209e-06 3.477146e-06 3.1832533e-06
3.80477e-06 6.278416e-07 4.164439e-06 7.419794e-07 5.8904575e-06 4.563901e-06 2.3861346e-06 4.5155725e-06
4.8651414e-06 1.0033204e-06 7.459541e-07 8.800465e-07 4.7649684e-07 9.531527e-07 1.1512159e-06 4.419119e-06
5.088229e-06 5.833168e-06 7.373176e-07 4.588285e-07 1.8987445e-06 2.8648108e-06 2.6866983e-06 2.8964707e-06
2.8806119e-06 2.3136272e-07 1.7722385e-06 4.3675254e-06 2.7639755e-06 2.1129601e-06 3.1876473e-06 5.0489007e-07
3.4483419e-06 4.0601134e-07 5.014916e-06 3.3432918e-06 1.7596429e-06 3.1266104e-06 4.2100883e-06 7.939714e-07
5.560065e-07 5.313824e-07 2.7241578e-07 6.0648944e-07 6.680174e-07 3.3875278e-06 4.208367e-06 4.2512247e-06
4.6105114e-07 2.3112233e-07 6.7634346e-07 8.6471914e-07 8.7800197e-07 9.751021e-07 8.7683986e-07 8.2316056e-08
6.5579735e-07 1.416387e-06 7.250461e-07 7.184197e-07 8.996025e-07 1.8406611e-07 1.1407693e-06 1.5409181e-07
1.5872588e-06 1.2010024e-06 4.7461143e-07 1.1392079e-06 1.3543994e-06 2.369986e-07 2.1349635e-07 1.9423052e-07
9.353354e-08 2.3272035e-07 2.3413219e-07 9.2762264e-07 1.1987611e-06 1.4802008e-06 1.6188211e-07 8.402782e-08
4.2394536e-06 6.215262e-06 5.8021137e-06 6.712415e-06 6.2919703e-06 5.390256e-07 4.1146777e-06 9.870161e-06
5.8824653e-06 4.716157e-06 6.5700942e-06 1.1338491e-06 7.805173e-06 1.0317024e-06 1.12470625e-05 7.815268e-06
3.806354e-06 7.440093e-06 9.440127e-06 1.6406699e-06 1.218567e-06 1.2103146e-06 5.6126214e-07 1.3392814e-06
1.4250539e-06 7.2149564e-06 8.975234e-06 9.930852e-06 1.0228158e-06 5.0266414e-07 1.2263769e-06 1.3909663e-06
1.6071949e-06 8.496702e-07 1.3115362e-06 1.3601439e-07 1.0299195e-06 1.0226333e-06 6.655734e-07 1.313113e-06
8.15349e-07 2.2605683e-07 9.302346e-07 2.6936172e-07 1.1090965e-06 1.8241191e-06 5.66287e-07 1.9270178e-06
9.3114215e-07 3.2520123e-07 3.5686446e-07 3.5613152e-07 2.0455349e-07 4.0889503e-07 4.86109e-07 9.912989e-07
8.7900094e-07 2.3904859e-06 3.5329788e-07 1.9207582e-07 7.5159477e-07 1.0428946e-06 1.0677933e-06 8.346022e-07
1.0139016e-06 9.54255e-08 7.0938563e-07 1.1738057e-06 7.4041276e-07 8.850186e-07 8.149037e-07 1.5708692e-07
9.804111e-07 1.880917e-07 1.3103905e-06 1.2805289e-06 5.3980057e-07 1.296784e-06 1.0969294e-06 2.6693994e-07
2.0546703e-07 2.6078894e-07 1.2296992e-07 2.5170203e-07 2.9135808e-07 9.803638e-07 1.0808617e-06 1.6470483e-06
1.92573e-07 1.1662959e-07 1.8081843e-06 2.4488538e-06 2.5026327e-06 2.0930681e-06 2.4596202e-06 1.8516396e-07
1.5911156e-06 3.123813e-06 2.064042e-06 2.014318e-06 2.3289274e-06 4.3084836e-07 2.5175368e-06 3.9261874e-07
3.5773228e-06 2.9296516e-06 1.4210224e-06 2.8485395e-06 3.0180302e-06 6.2856344e-07 5.2516174e-07 5.2360815e-07
2.6310755e-07 5.583321e-07 6.538456e-07 2.6260316e-06 3.0552903e-06 3.6701442e-06 4.433829e-07 2.2814052e-07
9.110762e-07 1.4204887e-06 1.3476333e-06 1.0633092e-06 1.437732e-06 1.0836099e-07 8.0234406e-07 1.6338468e-06
1.2103128e-06 1.0929309e-06 1.3448837e-06 2.1750887e-07 1.315273e-06 2.5631348e-07 1.8712816e-06 1.4860669e-06

exp_avg f4 [30]
00000000: 3123 8e37 fbfc 2338 c92e 82ba b2ed 68b9
00000010: 44ff 3939 1c61 f5b7 2067 1339 4c5c 633a
00000020: 38d9 233a ab3a 84b9 682d 96ba d225 1639
00000030: 9e40 2c3a f09c d938 6ae6 283a c49a 28ba
00000040: abbd 96b8 2d3c 39b9 79b9 1939 ee6c 82b9
00000050: 4e20 1b39 8a7e 2839 825e b6b8 ea16 9f37
00000060: 7e72 4d39 4112 493a 3019 853a 9064 22ba
00000070: 0e5b 1c38 3de8 9739
1.6944106e-05 3.9097835e-05 -0.0009932156 -0.00022213793 0.00017738069 -2.9251496e-05 0.0001405743 0.0008673116
0.00062503247 -0.00025220713 -0.0011457624 0.00014319204 0.0006570908 0.00010376598 0.0006443026 -0.0006431753
-7.187886e-05 -0.00017665392 0.00014660311 -0.0002487669 0.00014793986 0.00016068868 -8.69604e-05 1.8964947e-05
0.00019592975 0.00076702615 0.0010154601 -0.00061947946 3.72781e-05 0.00028973995

exp_avg_sq f4 [30]
00000000: a956 c735 6f3a ef36 f0f4 cf36 9e01 ff35
00000010: 9dfd 6237 edd8 9235 8341 cd35 ac65 9536
00000020: 692b 2336 bac6 1336 63bf 9036 04b4 f935
00000030: ac3f d436 cd22 c835 ab15 4b36 5576 2937
00000040: 6aad 4b36 512d fc36 b972 d636 cb01 8336
00000050: 6f22 0a35 78a8 3035 6e9d 0235 4651 5635
00000060: 5dc1 6f35 f630 3037 0ca0 8036 b9e8 ac37
00000070: 9ecd a935 9429 0c35
1.4851877e-06 7.1295576e-06 6.197595e-06 1.8999451e-06 1.3529699e-05 1.0940981e-06 1.5292757e-06 4.452382e-06
2.431416e-06 2.202038e-06 4.3138148e-06 1.8604337e-06 6.3255047e-06 1.491129e-06 3.026197e-06 1.0100736e-05
3.0350297e-06 7.5154608e-06 6.3910525e-06 3.904313e-06 5.1459114e-07 6.5810264e-07 4.8657864e-07 7.983948e-07
8.931582e-07 1.0501817e-05 3.833329e-06 2.0612368e-05 1.2651324e-06 5.221457e-07

exp_avg f4 [5, 30]
00000000: a093 62bb 4ad6 aabb 1f40 a53b 0f97 96ba
00000010: a101 c73b 096a 03b9 2fe4 1f3b 12f9 f83a
00000020: 76e1 9a3b 34ab ae3b 92f6 91bb 1849 f9ba
00000030: 636d bb3a 949d 47bb 0a3d f33a 21f5 8fbb
00000040: c719 85bb ad3c 94bb c4f3 04bb ebd3 e2ba
00000050: 6248 f239 3f7c 2d3b ed89 60ba 1367 433b
00000060: 331d a73a 85c0 a53b e649 a23b 8775 95bb
00000070: 1be3 63ba e4b8 523a 93dc 2f3b bcd5 583b
00000080: 81c5 5abb 2b21 e1b9 fd52 66bb 52c8 1237
00000090: 3c09 e3ba d5c7 b339 3958 f2ba 0c95 59bb
000000a0: 3332 ad3a 25a2 c33a 09af 753a 342e ba3a
000000b0: fe28 533a b91b 5b3b b561 983a 8d66 823b
000000c0: 8d6c f8b9 0210 be3a ed2b 62ba b5b8 d1ba
000000d0: 0074 9539 4170 f5b9 365f 19b8 87b5 0dbb
000000e0: 6bb0 08bb 4ad0 923b 4594 9139 cd81 7bb8
000000f0: 8d84 0e39 98e8 a63a 6811 a3ba 4f8a 733a
00000100: 0517 ccba 07e2 bdb9 2d14 ffb9 32e5 6cba
00000110: 08c0 f9ba eedc ffba fb9b 0a3b 75c2 6eb9
00000120: 53d3 1bba 9e79 8d3a 2fae afba 1459 cd39
00000130: 2c84 733a 2383 2b3a d8aa 1b3a 3b2f 02b9
00000140: 633b 393a 2397 98b9 758b ae39 59cc 54ba
00000150: 0627 58b9 63c9 8cba e9c7 a9ba 3c4f 08b9
00000160: 5135 8d3a 9f7f bdba 0d26 b93a c15a 123a
00000170: 4503 e1b9 78da 2abb b364 1aba 6be0 acba
00000180: bd01 1dbb c1d2 333b 415a 9eb9 4c31 c1ba
00000190: 49c2 463a 5f11 1eba fb62 1c3b e2a9 923a
000001a0: 5109 283b 8a95 213b c9e1 bfba 27bc 0a3b
000001b0: cf60 30bb 24a0 9cba dc5f 83b9 bed4 8637
000001c0: 47fa 853a 016b f1ba 243b 49ba 4861 9b39
000001d0: 08ec 773a b6d6 0e3b 249e 7939 101e c8ba
000001e0: 0911 4bba c37a 9938 2d68 04b8 9167 553b
000001f0: cb5c d8b9 9aa0 eb3a ae84 0e3b 79c7 85bb
00000200: 1aae 2fba 858b b93a dc3b 8839 ec87 a23a
00000210: 4b48 88bb 212d 16ba fc9a 7ebb 3ae4 ecba
00000220: 8e12 613b abf0 11bb b4bb 963b f0a9 d13a
00000230: 0d3c 68b8 a56a 4aba 5b6a 4dba d1f8 1239
00000240: 26bf 8ab9 f0d2 0abb 6efa 24bb 4c07 01bb
00000250: 34b9 3dba a50e 123b
-0.0034572855 -0.0052135335 0.005043044 -0.0011489111 0.006073192 -0.00012532635 0.0024397483 0.0018995127
0.004726584 0.0053304676 -0.0044544423 -0.0019018976 0.0014299568 -0.0030458914 0.001855762 -0.0043932353
-0.004061911 -0.0045238347 -0.0020286897 -0.0017305588 0.00046211766 0.0026471762 -0.00085654744 0.0029816076
0.0012749791 0.0050583505 0.004952657 -0.0045611295 -0.0008693204 0.0008038415 0.0026834353 0.003308638
-0.0033381882 -0.00042940056 -0.003514468 8.748919e-06 -0.0017321478 0.00034290427 -0.0018489427 -0.003320041
0.0013213813 0.0014925642 0.00093720906 0.0014204443 0.00080551195 0.0033433272 0.0011625799 0.00397951
-0.00047383123 0.001450062 -0.0008627761 -0.0016000482 0.0002850592 -0.00046813677 -3.6566715e-05 -0.0021623091
-0.0020857106 0.0044803964 0.00027767025 -5.996395e-05 0.00013591554 0.0012734113 -0.00124411 0.0009290324
-0.0015570825 -0.00036217293 -0.00048652422 -0.00090368383 -0.0019054422 -0.0019520798 0.00211501 -0.0002276989
-0.00059442705 0.0010793691 -0.0013403351 0.00039167015 0.00092894095 0.0006542673 0.00059382385 -0.00012415361
0.0007066039 -0.00029104305 0.0003329177 -0.00081176084 -0.00020613903 -0.001074117 -0.0012953255 -0.00012999488
0.0010773336 -0.001445759 0.001412572 0.00055829814 -0.0004291778 -0.002607016 -0.0005889639 -0.001318944
-0.0023957335 0.0027438852 -0.00030203353 -0.0014739423 0.00075820513 -0.000602981 0.0023862708 0.0011189545
0.0025640319 0.0024655783 -0.0014639433 0.0021169276 -0.0026913171 -0.0011949581 -0.00025057688 1.607311e-05
0.0010221683 -0.001841873 -0.0007676354 0.00029636384 0.00094574736 0.0021795458 0.00023805402 -0.0015267748
-0.0007746374 7.318475e-05 -3.1568274e-05 0.003256295 -0.00041267867 0.001797694 0.0021746564 -0.004082617
-0.00067016634 0.001415596 0.0002598454 0.0012400127 -0.0041590086 -0.00057287706 -0.0038849702 -0.0018073388
0.0034343335 -0.0022268693 0.0046000127 0.001599608 -5.5369037e-05 -0.000772158 -0.00078359776 0.00014016336
-0.00026463828 -0.0021182857 -0.0025173682 -0.0019688187 -0.0007237375 0.002228656

exp_avg_sq f4 [5, 30]
00000000: 9e3e be38 92ab ff38 72dc 0239 4107 cf38
00000010: d142 f938 ab6f 1f37 16b9 9938 6c1a 1439
00000020: cd56 cc38 a760 d738 4587 e238 08e8 b037
00000030: eb7c f138 6ac9 9837 36af 2a39 810a 0a39
00000040: 74e4 8f38 4c6b 0a39 38ec 0e39 2fe7 0438
00000050: 7a6b c437 1ff2 c637 fc0d 3a37 c52c cd37
00000060: f89d d937 13d2 fd38 b962 1239 56fb 2b39
00000070: 8014 8b37 ff75 1e37 19c5 7e38 b96e b238
00000080: 6ab2 a938 0fbf bf38 f32e b238 19e7 1137
00000090: f665 7438 03fb 0b39 747f a338 2b24 8638
000000a0: 2adc be38 4e17 8a37 5041 dc38 5ae8 6337
000000b0: f1d1 1e39 7780 e338 62bb 4a38 1f31 d838
000000c0: b79c 0439 2b18 c237 4ac2 8f37 c8d5 8f37
000000d0: a199 1637 588a 9f37 52f5 b837 fb14 c438
000000e0: 86be fe38 c1fe 0f39 8532 7237 c473 0a37
000000f0: cf63 6038 5cf3 c438 f4e4 9d38 0d3a e738
00000100: 3194 c838 555e 1c37 389a 8138 600f 3039
00000110: c30a cc38 2e51 6638 34a2 e238 bcd0 8537
00000120: a056 0a39 e65f 5d37 aa63 4739 c21b f938
00000130: 869f 8238 61ce e238 a02e 2539 93e2 d837
00000140: 7a38 8d37 883f 9337 c2d5 2f37 92d6 b737
00000150: 8410 d637 a556 0139 a772 2139 15c4 2639
00000160: 9008 8937 0f83 2837 c497 9d38 37c5 dd38
00000170: 6ce1 d638 3163 d838 cbdc db38 7525 2437
00000180: 4da2 8f38 b7c2 1b39 cbfa c138 a122 ac38
00000190: 3f4b db38 41f1 a337 d219 fa38 ced9 9337
000001a0: eb27 3139 a341 0439 2e6b 8338 4538 0139
000001b0: ae9f 1439 ca83 0038 7f5d a237 a08e b337
000001c0: 13eb 3637 384f d437 d372 ce37 f039 f438
000001d0: 7bf4 1139 56c8 2539 eca5 8537 f225 2e37
000001e0: 3b4d ad38 5124 0839 b540 0139 fab3 d438
000001f0: 9dc8 0439 9040 2737 cf4c 8e38 343d 1a39
00000200: 2681 ce38 9db5 ca38 b9e1 df38 413e af37
00000210: 6cfb f938 69c2 9537 4cfe 3139 d015 0139
00000220: f569 9738 222a 0039 d739 1639 9ec9 0438
00000230: 99da b637 597b bf37 aab6 3937 5199 d637
00000240: 31a7 cd37 240e 0c39 fcf6 1639 a3ab 2639
00000250: 20e5 7937 e68c 2b37
9.0715694e-05 0.00012191305 0.00012479888 9.87188e-05 0.00011885691 9.503138e-06 7.3300835e-05 0.00014124223
9.743646e-05 0.00010270002 0.00010801716 2.1088883e-05 0.00011515043 1.8213603e-05 0.00016277735 0.00013164619
6.861324e-05 0.00013200677 0.00013630174 3.168656e-05 2.3415068e-05 2.3716186e-05 1.108972e-05 2.4458752e-05
2.5941976e-05 0.000121031095 0.00013960422 0.00016401461 1.6579637e-05 9.445007e-06 6.074188e-05 8.508325e-05
8.09178e-05 9.143177e-05 8.4964464e-05 8.69648e-06 5.8269092e-05 0.00013349582 7.796186e-05 6.396355e-05
9.100915e-05 1.6461734e-05 0.00010502583 1.3584353e-05 0.00015146263 0.00010848132 4.8335067e-05 0.00010308832
0.00012646882 2.3137856e-05 1.7137401e-05 1.7146478e-05 8.976466e-06 1.9018698e-05 2.2048745e-05 9.349916e-05
0.000121471516 0.00013732446 1.44360865e-05 8.252395e-06 5.3498716e-05 9.3913375e-05 7.528989e-05 0.00011025751
9.564346e-05 9.320288e-06 6.179925e-05 0.00016790396 9.7294826e-05 5.4911878e-05 0.000108067325 1.5952035e-05
0.00013192976 1.3194955e-05 0.00019015247 0.000118784155 6.2285966e-05 0.00010814961 0.00015752995 2.5854713e-05
1.6834809e-05 1.755335e-05 1.0480582e-05 2.1915217e-05 2.5518479e-05 0.00012334676 0.00015396868 0.0001590404
1.633566e-05 1.0044095e-05 7.514612e-05 0.00010574835 0.00010246303 0.000103181585 0.0001048386 9.783883e-06
6.849002e-05 0.00014854489 9.249671e-05 8.208049e-05 0.000104567494 1.9543457e-05 0.00011925738 1.7625189e-05
0.00016894906 0.00012612953 6.2665305e-05 0.0001232336 0.00014173865 3.0640316e-05 1.9355442e-05 2.1404878e-05
1.0902778e-05 2.5309258e-05 2.4610583e-05 0.00011645618 0.00013919354 0.00015810257 1.5932099e-05 1.0380043e-05
8.263668e-05 0.000129835 0.00012326504 0.00010142471 0.00012663235 9.969008e-06 6.785394e-05 0.00014709384
9.846901e-05 9.665939e-05 0.00010675513 2.0890615e-05 0.00011920076 1.7852713e-05 0.00016974768 0.00012310524
7.219977e-05 0.00012222727 0.00014326662 3.1659023e-05 2.1797883e-05 2.2826413e-05 1.1069389e-05 2.5582181e-05
2.4515759e-05 0.00013356708 0.00014397124 0.00015894933 1.4894904e-05 1.02252e-05

exp_avg f4 [5]
00000000: 66b4 8dbb e529 8539 386a e43a d721 2dbb
00000010: 24d8 a23b
-0.0043244837 0.0002539895 0.0017426675 -0.0026417875 0.0049696136

exp_avg_sq f4 [5]
00000000: 6e16 5a39 c8e0 3a39 2f3a 6339 6dee 5839
00000010: dbd4 5b39
0.00020798456 0.0001782208 0.00021670082 0.00020688186 0.00020964762

backbone.x.weight f4 [30, 1]
00000000: cc4b 533f 0e49 9d3f fb36 a5bf 7751 debe
00000010: 8434 93bf 1fbd a4bd d0ae 25bf 8d70 403f
00000020: 9a2a 04bf 671f 74bf d02f ec3e e916 653e
00000030: 6ab3 0e3f 34f2 653e d9ca 7a3f 9749 b43f
00000040: b1ff de3e 7cf5 b13f 8dc0 18bf bdee 843e
00000050: 864b 87be a654 86be 944d d53d 3d9c 30be
00000060: a500 2abe 1214 84bf 9660 3ebf 11b3 1440
00000070: 4da6 f7bd a69e 383d
0.8253753 1.228792 -1.2907404 -0.43421528 -1.1500401 -0.080438845 -0.6471987 0.7517174
-0.51627505 -0.95360416 0.46130228 0.22372021 0.55742514 0.22455674 0.9796577 1.4084958
0.43554452 1.3903041 -0.5966881 0.25963393 -0.26424807 -0.26236457 0.104151875 -0.172471
-0.16601808 -1.0318625 -0.7436613 2.3234293 -0.12092266 0.045073174

backbone.x.bias f4 [30]
00000000: ac33 cd3c e129 133f 4873 72bf 9893 623f
00000010: fa61 17be 8765 453e 598a 1e3e eff1 5cbf
00000020: 3d90 13bf 9a78 b53d 8f74 773f 404d ab3d
00000030: 0c2f 24be 599b 32bf 8a8f 69bf 5784 33bf
00000040: 9c84 4c3f 506f d6be d191 123f f0e0 513f
00000050: 1e53 0dbf 2aea bdbe 3375 41bd 3467 6c3f
00000060: 9a41 c6be a346 1bbf abca 68bf 2da5 84be
00000070: 7110 35bf f0cf 0b3f
0.025049053 0.5748578 -0.94707155 0.8850646 -0.14783469 0.19277011 0.15482463 -0.8630666
-0.57641965 0.088608935 0.9666223 0.08364344 -0.16033572 -0.6976829 -0.9123465 -0.7012381
0.79889846 -0.418818 0.5725375 0.8198385 -0.5520495 -0.37092716 -0.04723091 0.92344975
-0.38721925 -0.6065466 -0.90934247 -0.2590727 -0.7072821 0.5461416

backbone.h.weight f4 [30, 30]
00000000: e6b9 ecbd f2a6 eebd 9e3e 67bd 5df6 93bd
00000010: f83b 0fbe 3552 c5bd 0696 db3d 2b42 373e
00000020: 52e4 ccbd 1af2 d33b 5308 abbd f0e5 573d
00000030: 1adc 26bd 3c13 333e d80c a83d 9532 293e
00000040: 966c 20be 9ddd ef3c 529d 34be cf13 163d
00000050: 33e5 1e3e 44ad 293e c9d9 8f3e 3316 33bd
00000060: e927 30bd 2ae4 363d 2004 1cbc 91eb abbd
00000070: e3c0 cabd cdb1 f3bc 7e74 e63c 8c6b 0cbd
00000080: 5669 00be 54f3 dbbd 9d6d 4bbd 725e aebd
00000090: b983 38be 2d3b 01be c773 503e 4cb3 113d
000000a0: 0734 bc3d 1d5d df3a c1ba b3bd aea6 18bd
000000b0: 2a21 e5bd 0ec9 313e 209c 37be 2fdd 383d
000000c0: f9b2 153e 0e0f 683d 3a4a 0a3e dd0c 28bd
000000d0: d1cd 0abe d88a 7d3d c812 4c3e d1a7 3ebb
000000e0: fc13 5a3c 3a1c 3a3e c2fb 9a3d a806 f33d
000000f0: d345 973c 7bd5 833d 58f6 71bd f33c 5ebd
00000100: 0dfa e23c 4486 cb3d 47f1 9f3d 05ba c1bc
00000110: 4929 843c 522e 04be 8e38 803c a7ad f4bc
00000120: c812 b6bd ec86 323e 38d7 0bbe dc9d 193b
00000130: e4d8 b53c ff18 2fbe 8766 5b3e 37ca 03bc
00000140: 6af6 673e f832 91bd c85f d33d c8d4 2e3e
00000150: 09de 9fbc 5297 babc a13f 0b3d 6ac8 423d
00000160: 585d 61bd 096a 3fbd aaaf eabb 9ade c93d
00000170: c778 df3d a72b 283d b10a b1bd bc42 28be
00000180: db8d 3fbb 85d6 0ebe cd4a 65bd df83 c53d
00000190: 801f 363c 504e d13c 2167 0fbe ff39 c8bd
000001a0: 6f06 153e 8f36 05bd 535b 453e f95b 87bc
000001b0: 7fb4 f33d e6ab 3dbc 1875 ddbd a46a 423d
000001c0: 6c6e b9bd bd84 463e 385a 07bd 35b0 0dbd
000001d0: 7021 f63d 5675 2e3e 25ff 893d a85f 313e
000001e0: 9c2e 10be 9324 f03d d55f 133e 6295 57be
000001f0: 242a d93d 69fb 85be 45d6 bb3d 5dc2 18bc
00000200: 5c90 dfbc 1fdb 683e 5ec6 7cbd 82c8 bcbb
00000210: 4198 f63d 39fa 5f3d 56f5 d53d c7cb 193e
00000220: 3287 7b3b 6b72 60bd 9e0e 0ebe 32f2 89be
00000230: 436f c3bb b23a cc3d 5ba9 133e 526a d0bd
00000240: c100 87bd ced8 4d3e 270e 82bd 9b93 0a3e
00000250: 33c7 c53d 604c 0bbe 3400 2fbd 40d5 98bd
00000260: fa96 09be e4d7 543c 799c 4e3e d682 78be
00000270: d4e7 c03c ea8a be3d 0f39 bebd 708e fe3c
00000280: f0ab b3bb a784 203d bcf6 b0bc 4445 2dbe
00000290: bbaf 453e cc34 013d 5652 183d 6d9d 8ebc
000002a0: 169a 193e 2370 273e 7229 1bbe 6b90 14be
000002b0: 35e9 f4bc 331c 81bd b1c1 96bd 000c 37bd
000002c0: ff5f 89bd a69a abbd e7cd 943d b496 cdbd
000002d0: fe33 e7bd 7cd6 95bb d25d bdbd d775 133e
000002e0: c2a4 08be 9c7e d93d 3595 2ebe 64d6 cfbd
000002f0: 35ed e03d 30a6 a43c 971c bc3d 70aa 243e
00000300: 2d4f 7fbb e65c 5d3d 87de d8bd a201 a83d
00000310: 92c3 0c3e 03da e73d 5ad4 f03c 9649 1f3e
00000320: 6af1 d1bd 1697 5cbd a3b1 8bbc 3049 b43d
00000330: 9ea0 1bbd 2704 373e d5bd 7f3d 132f 3cbe
00000340: 194c 233c d7c1 85bc 1649 83bd 0d85 b33d
00000350: abe5 9bbd 9c8f 73be fb36 4a3e 7c91 bbbd
00000360: 4e48 02be 8829 25bc b29a 0fbc 506c 7fbd
00000370: f6cc 883d 3409 2b3e c3f2 603e dc8f 1cbd
00000380: 9292 43bd b304 d5bd 5865 1bbe 1dcd 2f3d
00000390: 11d1 363d 58ee 37be 99d5 793d b870 ff3d
000003a0: fb94 813d 6dfc 6a3b 5278 223e f44f 0e3e
000003b0: f746 253e fd41 1d3e 7dd5 1dbe bb85 a93d
000003c0: 98e5 3b3e cf93 4fbd c53d 54be 7346 3ebe
000003d0: b620 b5bd a2b0 553d a939 12be db42 ec3d
000003e0: 561f dd3d 229e cf3d 7225 11be 7325 823e
000003f0: 3d96 cbbd b979 1f3e 2d17 283e e974 21be
-0.11558895 -0.11652936 -0.0564562 -0.072247244 -0.1398772 -0.0963482 0.10721974 0.17896335
-0.10004486 0.0064680697 -0.08351197 0.05270952 -0.04073725 0.17487806 0.08205575 0.16523202
-0.15666422 0.029280478 -0.17638138 0.036639985 0.1551712 0.16570002 0.28095844 -0.043722343
-0.04300681 0.044651188 -0.009522468 -0.0839454 -0.099000715 -0.029747868 0.02813172 -0.034282252
-0.12540182 -0.107397705 -0.049665082 -0.08514108 -0.18018998 -0.1262023 0.20356666 0.03557138
0.09189611 0.00170413 -0.08775855 -0.037268333 -0.11187966 0.17361853 -0.1793065 0.045132812
0.14619054 0.056654982 0.13504878 -0.041027892 -0.13555075 0.06189999 0.1992904 -0.0029091726
0.013310429 0.1817483 0.0756755 0.11866504 0.018465912 0.064372025 -0.059072822 -0.054257344
0.027707124 0.099377185 0.07809692 -0.023648271 0.016132968 -0.12908295 0.015651967 -0.02986796
-0.08890301 0.17434281 -0.13656318 0.0023440039 0.022198148 -0.17099379 0.2142583 -0.008043817
0.22652593 -0.070898 0.10321003 0.17073357 -0.019515054 -0.022777233 0.033996228 0.04755441
-0.05502066 -0.046731982 -0.007162054 0.09856911 0.10911708 0.041057255 -0.08644617 -0.16431707
-0.002922884 -0.1394902 -0.05597954 0.09644293 0.011115909 0.025550038 -0.14004184 -0.09776687
0.14553235 -0.032522734 0.19273119 -0.016523348 0.11899661 -0.011576628 -0.108133495 0.04746498
-0.090542644 0.19386573 -0.033045024 -0.034591872 0.120180964 0.17036948 0.06738118 0.17321646
-0.1408028 0.11725726 0.14392026 -0.21053079 0.10603741 -0.26168373 0.09171728 -0.009323684
-0.027290516 0.22739838 -0.061712615 -0.005761207 0.12040759 0.05468199 0.10447185 0.15019141
0.0038380143 -0.054796617 -0.13872764 -0.26942593 -0.005964191 0.09972133 0.14420073 -0.10176529
-0.06591941 0.20102236 -0.063503556 0.1353287 0.09657135 -0.13603354 -0.042724803 -0.07462549
-0.13436499 0.012990925 0.20176877 -0.2426866 0.023548044 0.093038395 -0.09288227 0.031073779
-0.005483143 0.039189007 -0.021602027 -0.16920954 0.19305317 0.03154449 0.037187897 -0.01740905
0.15000185 0.1635137 -0.15152529 -0.14508216 -0.029896358 -0.06304207 -0.073611625 -0.04468918
-0.06707763 -0.08379106 0.07265835 -0.1003851 -0.112892136 -0.0045726877 -0.092464104 0.14400421
-0.133441 0.10619852 -0.17049105 -0.10148314 0.10982744 0.020098776 0.091851406 0.16080642
-0.0038957105 0.054043673 -0.10589319 0.082034364 0.13746479 0.11320879 0.029398132 0.15555415
-0.10251124 -0.053855024 -0.017052477 0.08803022 -0.037994973 0.17872678 0.062436897 -0.18377332
0.009966874 -0.016327782 -0.064104244 0.08765612 -0.07612165 -0.23785251 0.19747536 -0.09158608
-0.12722895 -0.010080703 -0.00876491 -0.062359154 0.06679718 0.1670273 0.21967606 -0.038223132
-0.047747202 -0.10401287 -0.15175378 0.04292022 0.044632975 -0.17962015 0.06099472 0.12472671
0.06327244 0.0035856024 0.15866211 0.13897687 0.16140352 0.15357204 -0.1541347 0.0827746
0.18349302 -0.05067807 -0.20726688 -0.18581562 -0.0884413 0.052170403 -0.14279808 0.11536189
0.107969925 0.10137583 -0.1417444 0.25419196 -0.09940765 0.15573777 0.16415091 -0.15767254

backbone.h.bias f4 [30]
00000000: 3a85 fc3d f2c6 8d3d b3e4 a83d 0bb8 f1bd
00000010: 7b1a 943d 7b7a b238 0929 f83c f3a5 1cbe
00000020: 02ba f33d 301b 3ebd 5de5 50bd 8d37 813d
00000030: f213 7bbe c8da 323e 42ad c2bd 7212 a83d
00000040: b1e7 913d 049d abbc 5922 223e 17ac b93d
00000050: c5ea 4fbd 992b 253e 6c2c a6bd a2ec 29be
00000060: 4c9c a9bd a250 12be 3553 6f3d e849 03be
00000070: c61d 50bc 749f c4bd
0.123300985 0.069227114 0.08246746 -0.118026815 0.07231613 8.510515e-05 0.030293005 -0.1529768
0.119007125 -0.046412647 -0.050999988 0.063094236 -0.24519327 0.17466271 -0.095057026 0.08206643
0.0712427 -0.020948894 0.15833415 0.09066027 -0.050761003 0.16129912 -0.081139416 -0.16594175
-0.082817644 -0.14288571 0.05842896 -0.12821162 -0.012702411 -0.09600726

backbone.out.weight f4 [5, 30]
00000000: c83d 97bd 345d 23be 6bfd 713d 6ecb c63c
00000010: 900b 553e 954f 49bd 27df 263d 8897 1ebe
00000020: 6a95 4c3d 37ea 32bd 7e78 b93c bf2b 28bd
00000030: 5bd6 50be a9ab 99bd 07e6 f0bd 18c4 0a3e
00000040: 3cc2 393d de50 943d dfb7 babb 3188 b1bd
00000050: 808c 933d 3619 d03d eccd 22bd 67e9 083d
00000060: 89fe b43c 602b 2a3e 1816 06be 4a52 e93e
00000070: 705b a93a 78ce f13b c7eb 01be 2e1a 09bd
00000080: 1225 953c 8e36 f43c 2028 95bd 1f2d 3ebb
00000090: 4422 5b3c a3f0 2c3e 66fe dbbc 1b65 b4bd
000000a0: fe7c 353e 077f c8bc e870 67bd c5a3 0b3d
000000b0: e31b 153e 64dd 263d 09a0 e63b 885d 10be
000000c0: 054f 813d 052a b93a 6b39 5e3d 29af 5d3c
000000d0: 0df7 703c 07db 76bb 35d0 a4bd a5f1 473d
000000e0: 8e0a fd3c b502 3bbe f713 2bbd d3cd 543d
000000f0: f27b dabd d459 5c3e 42a0 66bd ebf1 04be
00000100: 33ce 69be dfbb 9ebd 7d62 b53d 9fc8 493e
00000110: fe91 9f3c 63e8 dbbd 19f6 b73c 919e cd3c
00000120: a4c9 353e 1e20 313c a311 ac3e 73de 8fbe
00000130: e47c 0e3e 74f0 5bbe 18f0 8ebe 2e97 e03c
00000140: c579 43bb 94cf 823d 1780 7d3d ba6f 86bc
00000150: e842 b1bd 1419 62be 1a68 883d 614d 12bf
00000160: 15ec b8bd d241 783d 1a4a e0bc 7fd6 35bd
00000170: c226 a73d 3266 c7bd 5ec3 da3d dd4f 8abd
00000180: 5a8f 05bd c505 163e 68cb c13c a10c 38bd
00000190: fa71 203e 9e61 89bc 942f 80bd 0954 70bd
000001a0: d676 e73d 4ea1 16bd e22c 83bd 0124 73bd
000001b0: 708f e73b bb14 5c3d 552b dfbc 2bc2 4d3d
000001c0: 3f05 a6bc 35cc 953d 0aed 91bd edee 40bc
000001d0: dda8 9fbd 1cc8 b03c 1ad4 d9bd 779e ce3d
000001e0: c30b 05bd eb1c 5fbd c6ea 5ebe 4599 6abb
000001f0: 2d48 d53d 98d5 073d 76b3 c23d fbb3 2fbe
00000200: 2930 383e 7fc8 3abe b097 eebd 4ed0 ddbd
00000210: e6eb 77be b937 d4bd e859 61bd a192 a53d
00000220: 067d 55bd dd76 303e 6c0b 653e bfb3 b3bd
00000230: d4a5 ee3d 0438 c23d 3397 3abd 0a20 ce3d
00000240: 77c0 8abc bcae 453e 1cbe 443e eb4c ed3d
00000250: cee2 f8bc a5e2 843d
-0.07384831 -0.15953523 0.05907957 0.024266925 0.20805192 -0.04914816 0.04074016 -0.15487492
0.04994718 -0.043680396 0.022640463 -0.041057345 -0.2039427 -0.07503445 -0.11762624 0.13551366
0.045351252 0.07241987 -0.0056981887 -0.086685546 0.072045326 0.101610586 -0.039747164 0.033425715
0.022094028 0.16618109 -0.13094366 0.45570594 0.0012920927 0.0073793493 -0.12687598 -0.033472233
0.018206153 0.02981117 -0.07283044 -0.0029018593 0.013374869 0.1688867 -0.026854705 -0.08808347
0.17723462 -0.024474634 -0.05650416 0.03409173 0.14561419 0.04073848 0.0070381206 -0.1409818
0.063139 0.0014126903 0.054253977 0.013530531 0.014707339 -0.0037667172 -0.08047525 0.048814435
0.030888822 -0.18262751 -0.041767087 0.0519541 -0.10668172 0.21518642 -0.056305178 -0.1298291
-0.22832565 -0.07750677 0.08856676 0.19705437 0.019478794 -0.107376836 0.022456216 0.025100024
0.17752701 0.01081088 0.33607206 -0.28099403 0.1391483 -0.21478444 -0.27917552 0.027415838
-0.002982722 0.06387249 0.061889734 -0.016410697 -0.086553395 -0.22079879 0.06660481 -0.5714932
-0.09029404 0.060609646 -0.027379084 -0.044394013 0.08161689 -0.09736289 0.106817946 -0.06753514
-0.032607414 0.14650638 0.023656562 -0.04493392 0.15668479 -0.01677018 -0.06259075 -0.058673892
0.11301963 -0.036774926 -0.06405045 -0.059360508 0.0070666596 0.053730708 -0.027242342 0.050234
-0.020266173 0.0731434 -0.0712529 -0.011775714 -0.0779588 0.021579795 -0.10636158 0.100888185
-0.03248192 -0.054470938 -0.21769246 -0.0035796922 0.10414157 0.033162683 0.09506886 -0.17158501
0.17987122 -0.18240546 -0.11650026 -0.108307466 -0.24211082 -0.10362191 -0.055017382 0.08084608
-0.052121185 0.17232843 0.22367638 -0.08774518 0.11652723 0.094833404 -0.04555435 0.10064705
-0.016937478 0.19304937 0.19213146 0.115869366 -0.030381586 0.064885415

backbone.out.bias f4 [5]
00000000: ae91 293d 1036 a2bd 5c21 673d f39e 43bd
00000010: d709 353d
0.041398697 -0.07920468 0.0564283 -0.047759008 0.044198837
