tme4/lightning_logs/version_8/checkpoints/epoch=9-step=52039.ckpt (torch, 22554 bytes, 24 tensors)

exp_avg f4 [30, 1]
000000 00 00 00 00 00 00 00 00 00 00 00 00 00 00 00 00
       0.0 0.0 0.0 0.0
000010 00 00 00 00 00 00 00 00 00 00 00 00 00 00 00 00
       0.0 0.0 0.0 0.0
000020 00 00 00 00 00 00 00 00 00 00 00 00 00 00 00 00
       0.0 0.0 0.0 0.0
000030 00 00 00 00 00 00 00 00 00 00 00 00 00 00 00 00
       0.0 0.0 0.0 0.0
000040 00 00 00 00 00 00 00 00 00 00 00 00 00 00 00 00
       0.0 0.0 0.0 0.0
000050 00 00 00 00 00 00 00 00 00 00 00 00 00 00 00 00
       0.0 0.0 0.0 0.0
000060 00 00 00 00 00 00 00 00 00 00 00 00 00 00 00 00
       0.0 0.0 0.0 0.0
000070 00 00 00 00 00 00 00 00
       0.0 0.0

exp_avg_sq f4 [30, 1]
000000 00 00 00 00 00 00 00 00 00 00 00 00 00 00 00 00
       0.0 0.0 0.0 0.0
000010 00 00 00 00 00 00 00 00 00 00 00 00 00 00 00 00
       0.0 0.0 0.0 0.0
000020 00 00 00 00 00 00 00 00 00 00 00 00 00 00 00 00
       0.0 0.0 0.0 0.0
000030 00 00 00 00 00 00 00 00 00 00 00 00 00 00 00 00
       0.0 0.0 0.0 0.0
000040 00 00 00 00 00 00 00 00 00 00 00 00 00 00 00 00
       0.0 0.0 0.0 0.0
000050 00 00 00 00 00 00 00 00 00 00 00 00 00 00 00 00
       0.0 0.0 0.0 0.0
000060 00 00 00 00 00 00 00 00 00 00 00 00 00 00 00 00
       0.0 0.0 0.0 0.0
000070 00 00 00 00 00 00 00 00
       0.0 0.0

exp_avg f4 [30]
000000 00 00 00 00 00 00 00 00 00 00 00 00 00 00 00 00
       0.0 0.0 0.0 0.0
000010 00 00 00 00 00 00 00 00 00 00 00 00 00 00 00 00
       0.0 0.0 0.0 0.0
000020 00 00 00 00 00 00 00 00 00 00 00 00 00 00 00 00
       0.0 0.0 0.0 0.0
000030 00 00 00 00 00 00 00 00 00 00 00 00 00 00 00 00
       0.0 0.0 0.0 0.0
000040 00 00 00 00 00 00 00 00 00 00 00 00 00 00 00 00
       0.0 0.0 0.0 0.0
000050 00 00 00 00 00 00 00 00 00 00 00 00 00 00 00 00
       0.0 0.0 0.0 0.0
000060 00 00 00 00 00 00 00 00 00 00 00 00 00 00 00 00
       0.0 0.0 0.0 0.0
000070 00 00 00 00 00 00 00 00
       0.0 0.0

exp_avg_sq f4 [30]
000000 00 00 00 00 00 00 00 00 00 00 00 00 00 00 00 00
       0.0 0.0 0.0 0.0
000010 00 00 00 00 00 00 00 00 00 00 00 00 00 00 00 00
       0.0 0.0 0.0 0.0
000020 00 00 00 00 00 00 00 00 00 00 00 00 00 00 00 00
       0.0 0.0 0.0 0.0
000030 00 00 00 00 00 00 00 00 00 00 00 00 00 00 00 00
       0.0 0.0 0.0 0.0
000040 00 00 00 00 00 00 00 00 00 00 00 00 00 00 00 00
       0.0 0.0 0.0 0.0
000050 00 00 00 00 00 00 00 00 00 00 00 00 00 00 00 00
       0.0 0.0 0.0 0.0
000060 00 00 00 00 00 00 00 00 00 00 00 00 00 00 00 00
       0.0 0.0 0.0 0.0
000070 00 00 00 00 00 00 00 00
       0.0 0.0

exp_avg f4 [30, 30]
000000 00 00 00 00 00 00 00 00 00 00 00 00 00 00 00 00
       0.0 0.0 0.0 0.0
000010 00 00 00 00 00 00 00 00 00 00 00 00 00 00 00 00
       0.0 0.0 0.0 0.0
000020 00 00 00 00 00 00 00 00 00 00 00 00 00 00 00 00
       0.0 0.0 0.0 0.0
000030 00 00 00 00 00 00 00 00 00 00 00 00 00 00 00 00
       0.0 0.0 0.0 0.0
000040 00 00 00 00 00 00 00 00 00 00 00 00 00 00 00 00
       0.0 0.0 0.0 0.0
000050 00 00 00 00 00 00 00 00 00 00 00 00 00 00 00 00
       0.0 0.0 0.0 0.0
000060 00 00 00 00 00 00 00 00 00 00 00 00 00 00 00 00
       0.0 0.0 0.0 0.0
000070 00 00 00 00 00 00 00 00 00 00 00 00 00 00 00 00
       0.0 0.0 0.0 0.0
000080 00 00 00 00 00 00 00 00 00 00 00 00 00 00 00 00
       0.0 0.0 0.0 0.0
000090 00 00 00 00 00 00 00 00 00 00 00 00 00 00 00 00
       0.0 0.0 0.0 0.0
0000a0 00 00 00 00 00 00 00 00 00 00 00 00 00 00 00 00
       0.0 0.0 0.0 0.0
0000b0 00 00 00 00 00 00 00 00 00 00 00 00 00 00 00 00
       0.0 0.0 0.0 0.0
0000c0 00 00 00 00 00 00 00 00 00 00 00 00 00 00 00 00
       0.0 0.0 0.0 0.0
0000d0 00 00 00 00 00 00 00 00 00 00 00 00 00 00 00 00
       0.0 0.0 0.0 0.0
0000e0 00 00 00 00 00 00 00 00 00 00 00 00 00 00 00 00
       0.0 0.0 0.0 0.0
0000f0 00 00 00 00 00 00 00 00 00 00 00 00 00 00 00 00
       0.0 0.0 0.0 0.0
000100 00 00 00 00 00 00 00 00 00 00 00 00 00 00 00 00
       0.0 0.0 0.0 0.0
000110 00 00 00 00 00 00 00 00 00 00 00 00 00 00 00 00
       0.0 0.0 0.0 0.0
000120 00 00 00 00 00 00 00 00 00 00 00 00 00 00 00 00
       0.0 0.0 0.0 0.0
000130 00 00 00 00 00 00 00 00 00 00 00 00 00 00 00 00
       0.0 0.0 0.0 0.0
000140 00 00 00 00 00 00 00 00 00 00 00 00 00 00 00 00
       0.0 0.0 0.0 0.0
000150 00 00 00 00 00 00 00 00 00 00 00 00 00 00 00 00
       0.0 0.0 0.0 0.0
000160 00 00 00 00 00 00 00 00 00 00 00 00 00 00 00 00
       0.0 0.0 0.0 0.0
000170 00 00 00 00 00 00 00 00 00 00 00 00 00 00 00 00
       0.0 0.0 0.0 0.0
000180 00 00 00 00 00 00 00 00 00 00 00 00 00 00 00 00
       0.0 0.0 0.0 0.0
000190 00 00 00 00 00 00 00 00 00 00 00 00 00 00 00 00
       0.0 0.0 0.0 0.0
0001a0 00 00 00 00 00 00 00 00 00 00 00 00 00 00 00 00
       0.0 0.0 0.0 0.0
0001b0 00 00 00 00 00 00 00 00 00 00 00 00 00 00 00 00
       0.0 0.0 0.0 0.0
0001c0 00 00 00 00 00 00 00 00 00 00 00 00 00 00 00 00
       0.0 0.0 0.0 0.0
0001d0 00 00 00 00 00 00 00 00 00 00 00 00 00 00 00 00
       0.0 0.0 0.0 0.0
0001e0 00 00 00 00 00 00 00 00 00 00 00 00 00 00 00 00
       0.0 0.0 0.0 0.0
0001f0 00 00 00 00 00 00 00 00 00 00 00 00 00 00 00 00
       0.0 0.0 0.0 0.0
000200 00 00 00 00 00 00 00 00 00 00 00 00 00 00 00 00
       0.0 0.0 0.0 0.0
000210 00 00 00 00 00 00 00 00 00 00 00 00 00 00 00 00
       0.0 0.0 0.0 0.0
000220 00 00 00 00 00 00 00 00 00 00 00 00 00 00 00 00
       0.0 0.0 0.0 0.0
000230 00 00 00 00 00 00 00 00 00 00 00 00 00 00 00 00
       0.0 0.0 0.0 0.0
000240 00 00 00 00 00 00 00 00 00 00 00 00 00 00 00 00
       0.0 0.0 0.0 0.0
000250 00 00 00 00 00 00 00 00 00 00 00 00 00 00 00 00
       0.0 0.0 0.0 0.0
000260 00 00 00 00 00 00 00 00 00 00 00 00 00 00 00 00
       0.0 0.0 0.0 0.0
000270 00 00 00 00 00 00 00 00 00 00 00 00 00 00 00 00
       0.0 0.0 0.0 0.0
000280 00 00 00 00 00 00 00 00 00 00 00 00 00 00 00 00
       0.0 0.0 0.0 0.0
000290 00 00 00 00 00 00 00 00 00 00 00 00 00 00 00 00
       0.0 0.0 0.0 0.0
0002a0 00 00 00 00 00 00 00 00 00 00 00 00 00 00 00 00
       0.0 0.0 0.0 0.0
0002b0 00 00 00 00 00 00 00 00 00 00 00 00 00 00 00 00
       0.0 0.0 0.0 0.0
0002c0 00 00 00 00 00 00 00 00 00 00 00 00 00 00 00 00
       0.0 0.0 0.0 0.0
0002d0 00 00 00 00 00 00 00 00 00 00 00 00 00 00 00 00
       0.0 0.0 0.0 0.0
0002e0 00 00 00 00 00 00 00 00 00 00 00 00 00 00 00 00
       0.0 0.0 0.0 0.0
0002f0 00 00 00 00 00 00 00 00 00 00 00 00 00 00 00 00
       0.0 0.0 0.0 0.0
000300 00 00 00 00 00 00 00 00 00 00 00 00 00 00 00 00
       0.0 0.0 0.0 0.0
000310 00 00 00 00 00 00 00 00 00 00 00 00 00 00 00 00
       0.0 0.0 0.0 0.0
000320 00 00 00 00 00 00 00 00 00 00 00 00 00 00 00 00
       0.0 0.0 0.0 0.0
000330 00 00 00 00 00 00 00 00 00 00 00 00 00 00 00 00
       0.0 0.0 0.0 0.0
000340 00 00 00 00 00 00 00 00 00 00 00 00 00 00 00 00
       0.0 0.0 0.0 0.0
000350 00 00 00 00 00 00 00 00 00 00 00 00 00 00 00 00
       0.0 0.0 0.0 0.0
000360 00 00 00 00 00 00 00 00 00 00 00 00 00 00 00 00
       0.0 0.0 0.0 0.0
000370 00 00 00 00 00 00 00 00 00 00 00 00 00 00 00 00
       0.0 0.0 0.0 0.0
000380 00 00 00 00 00 00 00 00 00 00 00 00 00 00 00 00
       0.0 0.0 0.0 0.0
000390 00 00 00 00 00 00 00 00 00 00 00 00 00 00 00 00
       0.0 0.0 0.0 0.0
0003a0 00 00 00 00 00 00 00 00 00 00 00 00 00 00 00 00
       0.0 0.0 0.0 0.0
0003b0 00 00 00 00 00 00 00 00 00 00 00 00 00 00 00 00
       0.0 0.0 0.0 0.0
0003c0 00 00 00 00 00 00 00 00 00 00 00 00 00 00 00 00
       0.0 0.0 0.0 0.0
0003d0 00 00 00 00 00 00 00 00 00 00 00 00 00 00 00 00
       0.0 0.0 0.0 0.0
0003e0 00 00 00 00 00 00 00 00 00 00 00 00 00 00 00 00
       0.0 0.0 0.0 0.0
0003f0 00 00 00 00 00 00 00 00 00 00 00 00 00 00 00 00
       0.0 0.0 0.0 0.0

exp_avg_sq f4 [30, 30]
000000 00 00 00 00 00 00 00 00 00 00 00 00 00 00 00 00
       0.0 0.0 0.0 0.0
000010 00 00 00 00 00 00 00 00 00 00 00 00 00 00 00 00
       0.0 0.0 0.0 0.0
000020 00 00 00 00 00 00 00 00 00 00 00 00 00 00 00 00
       0.0 0.0 0.0 0.0
000030 00 00 00 00 00 00 00 00 00 00 00 00 00 00 00 00
       0.0 0.0 0.0 0.0
000040 00 00 00 00 00 00 00 00 00 00 00 00 00 00 00 00
       0.0 0.0 0.0 0.0
000050 00 00 00 00 00 00 00 00 00 00 00 00 00 00 00 00
       0.0 0.0 0.0 0.0
000060 00 00 00 00 00 00 00 00 00 00 00 00 00 00 00 00
       0.0 0.0 0.0 0.0
000070 00 00 00 00 00 00 00 00 00 00 00 00 00 00 00 00
       0.0 0.0 0.0 0.0
000080 00 00 00 00 00 00 00 00 00 00 00 00 00 00 00 00
       0.0 0.0 0.0 0.0
000090 00 00 00 00 00 00 00 00 00 00 00 00 00 00 00 00
       0.0 0.0 0.0 0.0
0000a0 00 00 00 00 00 00 00 00 00 00 00 00 00 00 00 00
       0.0 0.0 0.0 0.0
0000b0 00 00 00 00 00 00 00 00 00 00 00 00 00 00 00 00
       0.0 0.0 0.0 0.0
0000c0 00 00 00 00 00 00 00 00 00 00 00 00 00 00 00 00
       0.0 0.0 0.0 0.0
0000d0 00 00 00 00 00 00 00 00 00 00 00 00 00 00 00 00
       0.0 0.0 0.0 0.0
0000e0 00 00 00 00 00 00 00 00 00 00 00 00 00 00 00 00
       0.0 0.0 0.0 0.0
0000f0 00 00 00 00 00 00 00 00 00 00 00 00 00 00 00 00
       0.0 0.0 0.0 0.0
000100 00 00 00 00 00 00 00 00 00 00 00 00 00 00 00 00
       0.0 0.0 0.0 0.0
000110 00 00 00 00 00 00 00 00 00 00 00 00 00 00 00 00
       0.0 0.0 0.0 0.0
000120 00 00 00 00 00 00 00 00 00 00 00 00 00 00 00 00
       0.0 0.0 0.0 0.0
000130 00 00 00 00 00 00 00 00 00 00 00 00 00 00 00 00
       0.0 0.0 0.0 0.0
000140 00 00 00 00 00 00 00 00 00 00 00 00 00 00 00 00
       0.0 0.0 0.0 0.0
000150 00 00 00 00 00 00 00 00 00 00 00 00 00 00 00 00
       0.0 0.0 0.0 0.0
000160 00 00 00 00 00 00 00 00 00 00 00 00 00 00 00 00
       0.0 0.0 0.0 0.0
000170 00 00 00 00 00 00 00 00 00 00 00 00 00 00 00 00
       0.0 0.0 0.0 0.0
000180 00 00 00 00 00 00 00 00 00 00 00 00 00 00 00 00
       0.0 0.0 0.0 0.0
000190 00 00 00 00 00 00 00 00 00 00 00 00 00 00 00 00
       0.0 0.0 0.0 0.0
0001a0 00 00 00 00 00 00 00 00 00 00 00 00 00 00 00 00
       0.0 0.0 0.0 0.0
0001b0 00 00 00 00 00 00 00 00 00 00 00 00 00 00 00 00
       0.0 0.0 0.0 0.0
0001c0 00 00 00 00 00 00 00 00 00 00 00 00 00 00 00 00
       0.0 0.0 0.0 0.0
0001d0 00 00 00 00 00 00 00 00 00 00 00 00 00 00 00 00
       0.0 0.0 0.0 0.0
0001e0 00 00 00 00 00 00 00 00 00 00 00 00 00 00 00 00
       0.0 0.0 0.0 0.0
0001f0 00 00 00 00 00 00 00 00 00 00 00 00 00 00 00 00
       0.0 0.0 0.0 0.0
000200 00 00 00 00 00 00 00 00 00 00 00 00 00 00 00 00
       0.0 0.0 0.0 0.0
000210 00 00 00 00 00 00 00 00 00 00 00 00 00 00 00 00
       0.0 0.0 0.0 0.0
000220 00 00 00 00 00 00 00 00 00 00 00 00 00 00 00 00
       0.0 0.0 0.0 0.0
000230 00 00 00 00 00 00 00 00 00 00 00 00 00 00 00 00
       0.0 0.0 0.0 0.0
000240 00 00 00 00 00 00 00 00 00 00 00 00 00 00 00 00
       0.0 0.0 0.0 0.0
000250 00 00 00 00 00 00 00 00 00 00 00 00 00 00 00 00
       0.0 0.0 0.0 0.0
000260 00 00 00 00 00 00 00 00 00 00 00 00 00 00 00 00
       0.0 0.0 0.0 0.0
000270 00 00 00 00 00 00 00 00 00 00 00 00 00 00 00 00
       0.0 0.0 0.0 0.0
000280 00 00 00 00 00 00 00 00 00 00 00 00 00 00 00 00
       0.0 0.0 0.0 0.0
000290 00 00 00 00 00 00 00 00 00 00 00 00 00 00 00 00
       0.0 0.0 0.0 0.0
0002a0 00 00 00 00 00 00 00 00 00 00 00 00 00 00 00 00
       0.0 0.0 0.0 0.0
0002b0 00 00 00 00 00 00 00 00 00 00 00 00 00 00 00 00
       0.0 0.0 0.0 0.0
0002c0 00 00 00 00 00 00 00 00 00 00 00 00 00 00 00 00
       0.0 0.0 0.0 0.0
0002d0 00 00 00 00 00 00 00 00 00 00 00 00 00 00 00 00
       0.0 0.0 0.0 0.0
0002e0 00 00 00 00 00 00 00 00 00 00 00 00 00 00 00 00
       0.0 0.0 0.0 0.0
0002f0 00 00 00 00 00 00 00 00 00 00 00 00 00 00 00 00
       0.0 0.0 0.0 0.0
000300 00 00 00 00 00 00 00 00 00 00 00 00 00 00 00 00
       0.0 0.0 0.0 0.0
000310 00 00 00 00 00 00 00 00 00 00 00 00 00 00 00 00
       0.0 0.0 0.0 0.0
000320 00 00 00 00 00 00 00 00 00 00 00 00 00 00 00 00
       0.0 0.0 0.0 0.0
000330 00 00 00 00 00 00 00 00 00 00 00 00 00 00 00 00
       0.0 0.0 0.0 0.0
000340 00 00 00 00 00 00 00 00 00 00 00 00 00 00 00 00
       0.0 0.0 0.0 0.0
000350 00 00 00 00 00 00 00 00 00 00 00 00 00 00 00 00
       0.0 0.0 0.0 0.0
000360 00 00 00 00 00 00 00 00 00 00 00 00 00 00 00 00
       0.0 0.0 0.0 0.0
000370 00 00 00 00 00 00 00 00 00 00 00 00 00 00 00 00
       0.0 0.0 0.0 0.0
000380 00 00 00 00 00 00 00 00 00 00 00 00 00 00 00 00
       0.0 0.0 0.0 0.0
000390 00 00 00 00 00 00 00 00 00 00 00 00 00 00 00 00
       0.0 0.0 0.0 0.0
0003a0 00 00 00 00 00 00 00 00 00 00 00 00 00 00 00 00
       0.0 0.0 0.0 0.0
0003b0 00 00 00 00 00 00 00 00 00 00 00 00 00 00 00 00
       0.0 0.0 0.0 0.0
0003c0 00 00 00 00 00 00 00 00 00 00 00 00 00 00 00 00
       0.0 0.0 0.0 0.0
0003d0 00 00 00 00 00 00 00 00 00 00 00 00 00 00 00 00
       0.0 0.0 0.0 0.0
0003e0 00 00 00 00 00 00 00 00 00 00 00 00 00 00 00 00
       0.0 0.0 0.0 0.0
0003f0 00 00 00 00 00 00 00 00 00 00 00 00 00 00 00 00
       0.0 0.0 0.0 0.0

exp_avg f4 [30]
000000 00 00 00 00 00 00 00 00 00 00 00 00 00 00 00 00
       0.0 0.0 0.0 0.0
000010 00 00 00 00 00 00 00 00 00 00 00 00 00 00 00 00
       0.0 0.0 0.0 0.0
000020 00 00 00 00 00 00 00 00 00 00 00 00 00 00 00 00
       0.0 0.0 0.0 0.0
000030 00 00 00 00 00 00 00 00 00 00 00 00 00 00 00 00
       0.0 0.0 0.0 0.0
000040 00 00 00 00 00 00 00 00 00 00 00 00 00 00 00 00
       0.0 0.0 0.0 0.0
000050 00 00 00 00 00 00 00 00 00 00 00 00 00 00 00 00
       0.0 0.0 0.0 0.0
000060 00 00 00 00 00 00 00 00 00 00 00 00 00 00 00 00
       0.0 0.0 0.0 0.0
000070 00 00 00 00 00 00 00 00
       0.0 0.0

exp_avg_sq f4 [30]
000000 00 00 00 00 00 00 00 00 00 00 00 00 00 00 00 00
       0.0 0.0 0.0 0.0
000010 00 00 00 00 00 00 00 00 00 00 00 00 00 00 00 00
       0.0 0.0 0.0 0.0
000020 00 00 00 00 00 00 00 00 00 00 00 00 00 00 00 00
       0.0 0.0 0.0 0.0
000030 00 00 00 00 00 00 00 00 00 00 00 00 00 00 00 00
       0.0 0.0 0.0 0.0
000040 00 00 00 00 00 00 00 00 00 00 00 00 00 00 00 00
       0.0 0.0 0.0 0.0
000050 00 00 00 00 00 00 00 00 00 00 00 00 00 00 00 00
       0.0 0.0 0.0 0.0
000060 00 00 00 00 00 00 00 00 00 00 00 00 00 00 00 00
       0.0 0.0 0.0 0.0
000070 00 00 00 00 00 00 00 00
       0.0 0.0

exp_avg f4 [5, 30]
000000 aa b8 c2 3a aa b8 c2 3a aa b8 c2 3a aa b8 c2 3a
       0.001485606 0.001485606 0.001485606 0.001485606
000010 aa b8 c2 3a aa b8 c2 3a aa b8 c2 ba aa b8 c2 3a
       0.001485606 0.001485606 -0.001485606 0.001485606
000020 aa b8 c2 3a aa b8 c2 ba aa b8 c2 3a aa b8 c2 3a
       0.001485606 -0.001485606 0.001485606 0.001485606
000030 aa b8 c2 3a aa b8 c2 3a aa b8 c2 ba aa b8 c2 3a
       0.001485606 0.001485606 -0.001485606 0.001485606
000040 aa b8 c2 3a aa b8 c2 3a aa b8 c2 ba aa b8 c2 ba
       0.001485606 0.001485606 -0.001485606 -0.001485606
000050 aa b8 c2 ba aa b8 c2 3a aa b8 c2 ba aa b8 c2 ba
       -0.001485606 0.001485606 -0.001485606 -0.001485606
000060 aa b8 c2 3a aa b8 c2 3a aa b8 c2 3a aa b8 c2 ba
       0.001485606 0.001485606 0.001485606 -0.001485606
000070 aa b8 c2 3a aa b8 c2 ba b4 3b 05 3a b4 3b 05 3a
       0.001485606 -0.001485606 0.0005082444 0.0005082444
000080 b4 3b 05 3a b4 3b 05 3a b4 3b 05 3a b4 3b 05 3a
       0.0005082444 0.0005082444 0.0005082444 0.0005082444
000090 b4 3b 05 ba b4 3b 05 3a b4 3b 05 3a b4 3b 05 ba
       -0.0005082444 0.0005082444 0.0005082444 -0.0005082444
0000a0 b4 3b 05 3a b4 3b 05 3a b4 3b 05 3a b4 3b 05 3a
       0.0005082444 0.0005082444 0.0005082444 0.0005082444
0000b0 b4 3b 05 ba b4 3b 05 3a b4 3b 05 3a b4 3b 05 3a
       -0.0005082444 0.0005082444 0.0005082444 0.0005082444
0000c0 b4 3b 05 ba b4 3b 05 ba b4 3b 05 ba b4 3b 05 3a
       -0.0005082444 -0.0005082444 -0.0005082444 0.0005082444
0000d0 b4 3b 05 ba b4 3b 05 ba b4 3b 05 3a b4 3b 05 3a
       -0.0005082444 -0.0005082444 0.0005082444 0.0005082444
0000e0 b4 3b 05 3a b4 3b 05 ba b4 3b 05 3a b4 3b 05 ba
       0.0005082444 -0.0005082444 0.0005082444 -0.0005082444
0000f0 08 46 b1 ba 08 46 b1 ba 08 46 b1 ba 08 46 b1 ba
       -0.0013524899 -0.0013524899 -0.0013524899 -0.0013524899
000100 08 46 b1 ba 08 46 b1 ba 08 46 b1 3a 08 46 b1 ba
       -0.0013524899 -0.0013524899 0.0013524899 -0.0013524899
000110 08 46 b1 ba 08 46 b1 3a 08 46 b1 ba 08 46 b1 ba
       -0.0013524899 0.0013524899 -0.0013524899 -0.0013524899
000120 08 46 b1 ba 08 46 b1 ba 08 46 b1 3a 08 46 b1 ba
       -0.0013524899 -0.0013524899 0.0013524899 -0.0013524899
000130 08 46 b1 ba 08 46 b1 ba 08 46 b1 3a 08 46 b1 3a
       -0.0013524899 -0.0013524899 0.0013524899 0.0013524899
000140 08 46 b1 3a 08 46 b1 ba 08 46 b1 3a 08 46 b1 3a
       0.0013524899 -0.0013524899 0.0013524899 0.0013524899
000150 08 46 b1 ba 08 46 b1 ba 08 46 b1 ba 08 46 b1 3a
       -0.0013524899 -0.0013524899 -0.0013524899 0.0013524899
000160 08 46 b1 ba 08 46 b1 3a a1 3c 8b ba a1 3c 8b ba
       -0.0013524899 0.0013524899 -0.0010622927 -0.0010622927
000170 a1 3c 8b ba a1 3c 8b ba a1 3c 8b ba a1 3c 8b ba
       -0.0010622927 -0.0010622927 -0.0010622927 -0.0010622927
000180 a1 3c 8b 3a a1 3c 8b ba a1 3c 8b ba a1 3c 8b 3a
       0.0010622927 -0.0010622927 -0.0010622927 0.0010622927
000190 a1 3c 8b ba a1 3c 8b ba a1 3c 8b ba a1 3c 8b ba
       -0.0010622927 -0.0010622927 -0.0010622927 -0.0010622927
0001a0 a1 3c 8b 3a a1 3c 8b ba a1 3c 8b ba a1 3c 8b ba
       0.0010622927 -0.0010622927 -0.0010622927 -0.0010622927
0001b0 a1 3c 8b 3a a1 3c 8b 3a a1 3c 8b 3a a1 3c 8b ba
       0.0010622927 0.0010622927 0.0010622927 -0.0010622927
0001c0 a1 3c 8b 3a a1 3c 8b 3a a1 3c 8b ba a1 3c 8b ba
       0.0010622927 0.0010622927 -0.0010622927 -0.0010622927
0001d0 a1 3c 8b ba a1 3c 8b 3a a1 3c 8b ba a1 3c 8b 3a
       -0.0010622927 0.0010622927 -0.0010622927 0.0010622927
0001e0 30 b0 dc 39 30 b0 dc 39 30 b0 dc 39 30 b0 dc 39
       0.0004209294 0.0004209294 0.0004209294 0.0004209294
0001f0 30 b0 dc 39 30 b0 dc 39 30 b0 dc b9 30 b0 dc 39
       0.0004209294 0.0004209294 -0.0004209294 0.0004209294
000200 30 b0 dc 39 30 b0 dc b9 30 b0 dc 39 30 b0 dc 39
       0.0004209294 -0.0004209294 0.0004209294 0.0004209294
000210 30 b0 dc 39 30 b0 dc 39 30 b0 dc b9 30 b0 dc 39
       0.0004209294 0.0004209294 -0.0004209294 0.0004209294
000220 30 b0 dc 39 30 b0 dc 39 30 b0 dc b9 30 b0 dc b9
       0.0004209294 0.0004209294 -0.0004209294 -0.0004209294
000230 30 b0 dc b9 30 b0 dc 39 30 b0 dc b9 30 b0 dc b9
       -0.0004209294 0.0004209294 -0.0004209294 -0.0004209294
000240 30 b0 dc 39 30 b0 dc 39 30 b0 dc 39 30 b0 dc b9
       0.0004209294 0.0004209294 0.0004209294 -0.0004209294
000250 30 b0 dc 39 30 b0 dc b9
       0.0004209294 -0.0004209294

exp_avg_sq f4 [5, 30]
000000 b2 48 48 39 b2 48 48 39 b2 48 48 39 b2 48 48 39
       0.00019100567 0.00019100567 0.00019100567 0.00019100567
000010 b2 48 48 39 b2 48 48 39 b2 48 48 39 b2 48 48 39
       0.00019100567 0.00019100567 0.00019100567 0.00019100567
000020 b2 48 48 39 b2 48 48 39 b2 48 48 39 b2 48 48 39
       0.00019100567 0.00019100567 0.00019100567 0.00019100567
000030 b2 48 48 39 b2 48 48 39 b2 48 48 39 b2 48 48 39
       0.00019100567 0.00019100567 0.00019100567 0.00019100567
000040 b2 48 48 39 b2 48 48 39 b2 48 48 39 b2 48 48 39
       0.00019100567 0.00019100567 0.00019100567 0.00019100567
000050 b2 48 48 39 b2 48 48 39 b2 48 48 39 b2 48 48 39
       0.00019100567 0.00019100567 0.00019100567 0.00019100567
000060 b2 48 48 39 b2 48 48 39 b2 48 48 39 b2 48 48 39
       0.00019100567 0.00019100567 0.00019100567 0.00019100567
000070 b2 48 48 39 b2 48 48 39 ba 41 54 39 ba 41 54 39
       0.00019100567 0.00019100567 0.0002024238 0.0002024238
000080 ba 41 54 39 ba 41 54 39 ba 41 54 39 ba 41 54 39
       0.0002024238 0.0002024238 0.0002024238 0.0002024238
000090 ba 41 54 39 ba 41 54 39 ba 41 54 39 ba 41 54 39
       0.0002024238 0.0002024238 0.0002024238 0.0002024238
0000a0 ba 41 54 39 ba 41 54 39 ba 41 54 39 ba 41 54 39
       0.0002024238 0.0002024238 0.0002024238 0.0002024238
0000b0 ba 41 54 39 ba 41 54 39 ba 41 54 39 ba 41 54 39
       0.0002024238 0.0002024238 0.0002024238 0.0002024238
0000c0 ba 41 54 39 ba 41 54 39 ba 41 54 39 ba 41 54 39
       0.0002024238 0.0002024238 0.0002024238 0.0002024238
0000d0 ba 41 54 39 ba 41 54 39 ba 41 54 39 ba 41 54 39
       0.0002024238 0.0002024238 0.0002024238 0.0002024238
0000e0 ba 41 54 39 ba 41 54 39 ba 41 54 39 ba 41 54 39
       0.0002024238 0.0002024238 0.0002024238 0.0002024238
0000f0 36 31 49 39 36 31 49 39 36 31 49 39 36 31 49 39
       0.00019187186 0.00019187186 0.00019187186 0.00019187186
000100 36 31 49 39 36 31 49 39 36 31 49 39 36 31 49 39
       0.00019187186 0.00019187186 0.00019187186 0.00019187186
000110 36 31 49 39 36 31 49 39 36 31 49 39 36 31 49 39
       0.00019187186 0.00019187186 0.00019187186 0.00019187186
000120 36 31 49 39 36 31 49 39 36 31 49 39 36 31 49 39
       0.00019187186 0.00019187186 0.00019187186 0.00019187186
000130 36 31 49 39 36 31 49 39 36 31 49 39 36 31 49 39
       0.00019187186 0.00019187186 0.00019187186 0.00019187186
000140 36 31 49 39 36 31 49 39 36 31 49 39 36 31 49 39
       0.00019187186 0.00019187186 0.00019187186 0.00019187186
000150 36 31 49 39 36 31 49 39 36 31 49 39 36 31 49 39
       0.00019187186 0.00019187186 0.00019187186 0.00019187186
000160 36 31 49 39 36 31 49 39 52 0f 52 39 52 0f 52 39
       0.00019187186 0.00019187186 0.00020032868 0.00020032868
000170 52 0f 52 39 52 0f 52 39 52 0f 52 39 52 0f 52 39
       0.00020032868 0.00020032868 0.00020032868 0.00020032868
000180 52 0f 52 39 52 0f 52 39 52 0f 52 39 52 0f 52 39
       0.00020032868 0.00020032868 0.00020032868 0.00020032868
000190 52 0f 52 39 52 0f 52 39 52 0f 52 39 52 0f 52 39
       0.00020032868 0.00020032868 0.00020032868 0.00020032868
0001a0 52 0f 52 39 52 0f 52 39 52 0f 52 39 52 0f 52 39
       0.00020032868 0.00020032868 0.00020032868 0.00020032868
0001b0 52 0f 52 39 52 0f 52 39 52 0f 52 39 52 0f 52 39
       0.00020032868 0.00020032868 0.00020032868 0.00020032868
0001c0 52 0f 52 39 52 0f 52 39 52 0f 52 39 52 0f 52 39
       0.00020032868 0.00020032868 0.00020032868 0.00020032868
0001d0 52 0f 52 39 52 0f 52 39 52 0f 52 39 52 0f 52 39
       0.00020032868 0.00020032868 0.00020032868 0.00020032868
0001e0 44 84 58 39 44 84 58 39 44 84 58 39 44 84 58 39
       0.00020648638 0.00020648638 0.00020648638 0.00020648638
0001f0 44 84 58 39 44 84 58 39 44 84 58 39 44 84 58 39
       0.00020648638 0.00020648638 0.00020648638 0.00020648638
000200 44 84 58 39 44 84 58 39 44 84 58 39 44 84 58 39
       0.00020648638 0.00020648638 0.00020648638 0.00020648638
000210 44 84 58 39 44 84 58 39 44 84 58 39 44 84 58 39
       0.00020648638 0.00020648638 0.00020648638 0.00020648638
000220 44 84 58 39 44 84 58 39 44 84 58 39 44 84 58 39
       0.00020648638 0.00020648638 0.00020648638 0.00020648638
000230 44 84 58 39 44 84 58 39 44 84 58 39 44 84 58 39
       0.00020648638 0.00020648638 0.00020648638 0.00020648638
000240 44 84 58 39 44 84 58 39 44 84 58 39 44 84 58 39
       0.00020648638 0.00020648638 0.00020648638 0.00020648638
000250 44 84 58 39 44 84 58 39
       0.00020648638 0.00020648638

exp_avg f4 [5]
000000 ad b8 c2 ba ca 3b 05 ba 0a 46 b1 3a a1 3c 8b 3a
       -0.0014856063 -0.00050824566 0.0013524902 0.0010622927
000010 1a b0 dc b9
       -0.00042092876

exp_avg_sq f4 [5]
000000 b3 48 48 39 b5 41 54 39 36 31 49 39 50 0f 52 39
       0.00019100569 0.00020242373 0.00019187186 0.00020032865
000010 44 84 58 39
       0.00020648638

backbone.x.weight f4 [30, 1]
000000 20 ad be bd 28 cc 5b bf 42 79 0f bf 80 b0 3f bd
       -0.09310365 -0.8585839 -0.560444 -0.046799183
000010 86 11 7e bf a4 3e 6d bf d8 ee 12 3f e0 05 44 bd
       -0.9924549 -0.92673707 0.57395697 -0.047857165
000020 b4 9e 09 bf 04 55 6c 3f 44 d7 52 bf 34 74 00 bf
       -0.53757787 0.92317224 -0.8235972 -0.5017731
000030 16 c7 03 bf f0 80 54 be 00 db 92 3d 78 71 43 bf
       -0.51475656 -0.20752311 0.07170677 -0.76345015
000040 fc 95 d6 be 06 8b 4e bf 40 14 03 3e 16 bc 42 3f
       -0.41911304 -0.8068088 0.12800694 0.76068246
000050 b4 3e 53 3f f8 d4 3f bf 54 7f 93 3e 46 58 67 3f
       0.8251755 -0.7493434 0.2880808 0.9036907
000060 e2 e4 4b bf 4e 38 6a bf b8 54 28 be bc 9e 72 3f
       -0.7964612 -0.91492164 -0.16438568 0.9477346
000070 40 9c 62 bd 60 25 5d 3e
       -0.055324793 0.21596289

backbone.x.bias f4 [30]
000000 78 7a 6f 3f 58 d5 9b 3e 94 0d c6 3e 76 db 6b bf
       0.9354625 0.30436206 0.38682234 -0.92131746
000010 e0 ea 98 3e ee b7 32 bf 02 b7 7c bf 3e 47 5e 3f
       0.29866695 -0.69811904 -0.9871675 0.86827457
000020 90 51 09 be 44 2d f4 be b0 8a 46 3f 12 63 51 3f
       -0.1341002 -0.47690785 0.7755537 0.81791794
000030 54 8e 5e 3f 5c f2 bd be 80 d5 85 3d d8 a7 23 be
       0.86935925 -0.37098968 0.065348625 -0.15981996
000040 00 29 29 be 8c 00 32 bf 50 7a d1 bd ac aa 49 3f
       -0.16519547 -0.69532084 -0.102284074 0.7877605
000050 fc 4a 8d 3e bc c0 5a 3f f8 85 c9 be 9c a1 3a 3f
       0.2759627 0.8545034 -0.39360023 0.72902846
000060 30 4b 58 3f a8 38 1b be ae 72 22 bf 2c f9 8f 3e
       0.8448973 -0.15158331 -0.6345624 0.2811979
000070 08 6f 99 3e 20 c0 8b 3d
       0.29967523 0.06823754

backbone.h.weight f4 [30, 30]
000000 ab 3e 06 3d 11 2d 34 be 13 2e 01 bd ef 04 a3 bd
       0.03277461 -0.17595316 -0.03153808 -0.079599254
000010 d3 7f 18 be 71 8f 8c bd 9c c1 e6 bc 95 c7 27 be
       -0.14892511 -0.06863297 -0.028168492 -0.16384728
000020 1b 08 19 3e 94 22 25 be 0d 46 a9 3d 26 75 df bc
       0.14944498 -0.16126472 0.08265314 -0.02727754
000030 d5 4f a3 3d f6 97 34 bd c9 bd 0f be ce 96 8c bc
       0.07974211 -0.044090234 -0.14037241 -0.017161753
000040 7c 88 25 3e 55 b9 2a be e4 6d 19 3e a7 cb 23 bd
       0.16165346 -0.16672261 0.14983326 -0.03998914
000050 00 c9 da 3d b1 e9 5a bc 52 2f d3 3c 27 1a 0b be
       0.10682869 -0.01336138 0.0257794 -0.13584195
000060 c0 a1 de 3d 74 90 ff 3c 2e 4c 0f be 7b 35 19 3e
       0.10870695 0.03119681 -0.13993904 0.14961807
000070 4e 70 20 3e 6a 8d 04 3e 9d 86 a2 3d 21 91 40 bd
       0.15667841 0.1294457 0.07935832 -0.047013406
000080 f4 27 e3 bd 77 d2 35 3e 23 7c 0b 3e d5 98 6b 3d
       -0.11091605 0.17756067 0.13621573 0.0575188
000090 4c aa 73 bd 20 96 02 3e 8d 30 6c 3d 5c 61 33 be
       -0.05948858 0.1275258 0.05766349 -0.17517608
0000a0 eb e0 82 bb 17 5c 95 bd e4 54 81 bd 2b 97 1e be
       -0.0039940975 -0.07292955 -0.0631502 -0.15487354
0000b0 e5 b5 9d bd a8 cd d3 3c 43 17 16 be 82 56 f7 3c
       -0.07700709 0.0258549 -0.14657311 0.030192617
0000c0 04 51 32 3e 2c 85 8c 3d 68 ad b9 3d ca db 2e be
       0.17413718 0.06861338 0.09066278 -0.1707603
0000d0 8c db 0d 3e 34 32 c0 bd fb c4 84 3d e5 3b 24 be
       0.13853282 -0.093845755 0.064828835 -0.16038473
0000e0 07 2f a3 bc a4 13 09 be a6 bc 1b be 62 75 04 be
       -0.019919885 -0.13386399 -0.15208682 -0.12935403
0000f0 f7 e5 15 be 40 9e a0 3d 16 3d f4 39 50 fc 18 be
       -0.14638506 0.07842684 0.0004658482 -0.1494
000100 86 7c c8 ba 34 aa 9a bd aa 1a 10 3c c7 3b 85 3d
       -0.00152959 -0.07551995 0.00879542 0.06505542
000110 05 7a 83 bd 4f ff 2c be 10 24 d1 3c cb 96 9b 3d
       -0.06419758 -0.16894267 0.025529891 0.07597121
000120 28 eb 1f 3e 9e 0b ec 3d 76 de 0f 3d f0 5e 34 3e
       0.15617049 0.11525653 0.035124265 0.17614341
000130 b6 92 f7 bd 04 f6 a8 bc 86 39 aa 3d a1 3f bf bd
       -0.1208853 -0.020625122 0.08311753 -0.09338308
000140 dc 15 8f 3d 65 bd b3 bc 1c ed ed bd da f5 14 3e
       0.06986591 -0.021940896 -0.11617491 0.1454691
000150 00 67 c0 3d a3 d9 2c be 9e 6c 07 3e eb 91 c1 bc
       0.09394646 -0.16879897 0.13225028 -0.02362915
000160 db 9a 1a 3e d0 ed 1c be b7 80 24 3e 4f 62 38 3e
       0.15098135 -0.15325093 0.16064726 0.18006252
000170 0b 3e 9c 3d a6 e7 f6 3d a5 a4 f2 3d 41 68 99 bb
       0.07629021 0.12055902 0.1184781 -0.0046816175
000180 4f 84 50 bd 71 d0 53 bd 39 1e 96 bc eb bd 12 bc
       -0.05090743 -0.051712457 -0.018324958 -0.008956413
000190 d6 44 16 bc 89 ee 62 3d ee 91 e7 bc a5 93 f3 3d
       -0.009171685 0.055403266 -0.028267827 0.11893395
0001a0 33 f2 2c be 01 25 f6 bd c9 05 37 3e 28 72 0a 3e
       -0.16889267 -0.12018777 0.178733 0.1352011
0001b0 cb f8 d7 bd 60 21 37 3d 06 48 28 3c a8 a8 51 bd
       -0.105455 0.044709563 0.010271078 -0.051186234
0001c0 b7 e1 d6 3d a1 b9 0a be 5d bc ff 3d 3a b6 b9 bc
       0.104922704 -0.13547374 0.12487099 -0.0226699
0001d0 eb 2e 85 bd a7 b8 94 3d 75 a6 04 be de f9 0b 3e
       -0.065030895 0.07261782 -0.12954123 0.13669536
0001e0 e8 c5 8c 3d 37 7d f4 3d 05 e5 38 3d d5 23 3b bd
       0.06873685 0.11937945 0.045140285 -0.04568847
0001f0 d1 1d 5b bd f3 48 b0 bd bd 26 97 bd fb 9d a5 bd
       -0.053495232 -0.08607664 -0.073804356 -0.08086773
000200 25 01 22 be 3d e0 a0 bd 45 b0 ae 3c 0d 64 21 be
       -0.15820749 -0.0785527 0.021324286 -0.15760823
000210 a1 06 7a 3d 88 f6 1e be 43 40 05 be 04 6e c6 bd
       0.061041478 -0.15523732 -0.13012795 -0.096889526
000220 21 12 a1 3d b7 d3 01 3e 9d 23 2b 3e 0b 78 a2 bc
       0.07864786 0.12678419 0.16712804 -0.019832632
000230 cf fa 00 3e 78 4f 1e be bf 3a 83 3c 84 29 00 3d
       0.12595676 -0.15460002 0.016019223 0.031289592
000240 f8 e5 26 be 25 c7 70 bd fe 60 a9 3d 85 1d 19 be
       -0.16298664 -0.05878367 0.08270453 -0.14952667
000250 5f 97 a7 3d 84 7d ac bd e1 27 89 3d c3 28 06 be
       0.081831686 -0.08422378 0.066970594 -0.13101487
000260 f6 d2 0f 3d 2d 94 17 3e 63 ba 0f 3e 94 97 cf 3d
       0.035113297 0.14802618 0.14035945 0.10136333
000270 b3 e6 0f bd ab 7e 0c be 0f 36 2e be d7 41 70 3d
       -0.03513212 -0.13720195 -0.17012809 0.05865654
000280 d9 1b 19 3e a4 44 0b be 72 51 20 be ea c3 28 be
       0.1495203 -0.13600403 -0.15656069 -0.16480985
000290 9d 8e cc bd 43 f4 89 bd 72 7f 19 be 5b 7c 18 3e
       -0.09988139 -0.06736042 -0.14990023 0.14891188
0002a0 27 fc 29 3e 05 5e d5 bd 68 39 3a 3c b6 55 b1 bd
       0.16600095 -0.104183234 0.011366226 -0.08658926
0002b0 68 c5 a5 bc a4 3e a8 bd ae c9 fc bd ac 79 04 3e
       -0.020235732 -0.08215073 -0.12343155 0.12937039
0002c0 cf ea eb 3b 75 96 92 3d bb 3e 0e be e3 fa 56 3d
       0.007199622 0.07157604 -0.13891117 0.052485358
0002d0 d1 53 20 3d bd 17 d5 3d 34 9e 38 3d 46 d5 07 3e
       0.039142434 0.10404918 0.04507275 0.13264951
0002e0 c3 34 dd 3c aa 40 d3 ba 8f 96 d5 bd a0 a2 76 3d
       0.027002698 -0.0016117294 -0.104291074 0.060213685
0002f0 c6 32 cb 3d b8 a7 23 3e 90 c6 18 3d 1b 42 13 3e
       0.09921794 0.15981948 0.03729874 0.14380686
000300 46 70 31 bd 4c e1 86 3d df 5e 30 3d b4 bb 20 bd
       -0.043319963 0.06585941 0.043059226 -0.039241508
000310 d6 e0 a4 3d 7b 3c 70 bc fb ef ec 3d 12 1e 4a 3d
       0.080506966 -0.014662857 0.1156921 0.049345084
000320 a2 ed 0c 3e 9b 6e 1e bd 50 f2 f0 bd 86 bc 47 3d
       0.13762525 -0.0386797 -0.117649674 0.048763774
000330 e8 c4 2b 3e c4 d0 99 3d 7a 38 31 3d 48 e8 2b 3e
       0.16774333 0.07510522 0.04326675 0.16787827
000340 a6 f4 2d be 37 b3 6b bd 61 22 25 be 64 ec b5 3c
       -0.16987857 -0.05754396 -0.16126396 0.022207446
000350 74 0f 2c 3e 26 7d 60 bc ea 4a c6 bd 9e 98 d2 3d
       0.1680277 -0.013701713 -0.096822575 0.10283016
000360 07 4a 1b 3e c0 88 9f 3c 90 55 23 be 9b 26 f4 bd
       0.15164958 0.019474387 -0.15950608 -0.11921426
000370 a4 c9 9e bc 6f 75 ed bd a8 96 10 3d 6d 28 ba bc
       -0.01938326 -0.11594664 0.035299927 -0.022724355
000380 f8 c1 21 3d 76 f3 d3 bd 1d 7b 18 3e 6d b5 09 be
       0.039491624 -0.10349171 0.14890714 -0.13448115
000390 15 c9 2b 3e fd 88 b4 3d 9f aa bc bd a4 62 00 bd
       0.16775925 0.08815191 -0.09212231 -0.03134407
0003a0 02 c6 e7 3d 07 e6 c0 3c 18 1a ac bd eb ce 9d 3c
       0.11317064 0.023547186 -0.084034145 0.019263705
0003b0 a0 6f dc 3d bb ef 32 3e 8f 1a ff 3d 04 82 34 be
       0.10763478 0.17474262 0.124562375 -0.17627722
0003c0 10 a0 58 3d 49 8c 2f 3e 96 a6 19 be e4 bf 09 3e
       0.052887022 0.17143358 -0.15004954 0.13452107
0003d0 41 71 bf bd 4f 39 10 be ba d7 04 bb 0a 73 04 bd
       -0.09347773 -0.14084361 -0.0020270185 -0.032336272
0003e0 d3 5e ad 3d 6a 99 3d 3d 0b 82 16 be 9f cb a4 3d
       0.08465352 0.046288885 -0.14698045 0.0804665
0003f0 22 8a 6e 3d 14 2d 1d 3e 66 e9 c9 bc 83 e7 1f be
       0.058237202 0.15349227 -0.024647426 -0.15615658

backbone.h.bias f4 [30]
000000 eb db f2 3d d8 ea b6 bd 52 fc 1c 3c 64 e3 03 be
       0.11858352 -0.08931512 0.009581642 -0.12879711
000010 8a eb 21 be b2 36 63 bd b7 9b e2 3d 45 4b 6a 3b
       -0.15812507 -0.055472083 0.110648565 0.003575043
000020 1a 46 10 be 0d 85 2b be 37 fa 20 3e 54 ea a0 3d
       -0.14089242 -0.16749974 0.1572045 0.078571945
000030 77 61 d5 3a e6 a9 0a 3d 87 12 93 bd 54 84 16 bd
       0.0016279657 0.033853434 -0.07181268 -0.03674729
000040 3c 3e 9e bd 2c b6 10 be b1 34 af bd b4 27 4a bd
       -0.07726714 -0.14131993 -0.08554972 -0.04935427
000050 5a cc b6 3d ff 61 29 3e 15 6b ed 3d 0c ff df 3d
       0.08925696 0.16541289 0.1159269 0.10937318
000060 ec b4 2f 3e a5 fd 11 be 57 34 be 3d aa 4a 83 3d
       0.1715886 -0.14256914 0.09287327 0.064107254
000070 61 c6 16 be cf b0 f6 bd
       -0.14724113 -0.12045442

backbone.out.weight f4 [5, 30]
000000 5c 4f 43 be c3 a2 85 3d 5b b0 0a 3e 5d 5b 07 3e
       -0.19073242 0.06525185 0.13543837 0.13218446
000010 19 be de 3d 52 8c 36 be cd 31 35 3d d9 fe 84 bd
       0.10876102 -0.17826965 0.044236947 -0.06493921
000020 e7 51 bf bd b6 e0 0c be c0 ab 4a be 41 96 a0 3d
       -0.093417935 -0.13757595 -0.1979208 0.07841159
000030 d6 70 11 be d2 99 da 3c 9d 60 03 3d 59 05 a6 bc
       -0.142032 0.026684675 0.03207456 -0.020266222
000040 4c 43 5f bd b4 ae 8a bc 71 ff af bd 64 2d 08 3e
       -0.05450754 -0.016929008 -0.085936435 0.13298565
000050 1c a7 1f 3e cd ed d7 3c 7e f2 8b bd 90 3c 29 3e
       0.15591091 0.02635851 -0.06833361 0.16527009
000060 f8 ad 19 bc c3 d6 b5 3d 2b 24 ea 3d 9d f8 e1 3d
       -0.009379856 0.08878853 0.1143268 0.11033747
000070 c0 29 ee bb a9 9e d5 3d be ed 56 bd 20 14 9a bc
       -0.0072681606 0.10430653 -0.052472822 -0.018808424
000080 c4 9a 28 be 4a bf de bc 9c 97 a3 3d ba 60 49 be
       -0.16465288 -0.027190823 0.079879016 -0.19665805
000090 dc 41 46 3e 79 ba f9 bd d6 46 e6 bd 4a ff 2c 3d
       0.19361061 -0.1219377 -0.1124398 0.04223565
0000a0 fc 9d ce bd 6c 1a 3d be a0 5f 66 be fc 79 a1 3d
       -0.10088727 -0.1846711 -0.22497416 0.07884595
0000b0 88 ac 96 bd 6f 46 db bc 6d b0 ff bc 9f 12 81 bd
       -0.073571265 -0.026766984 -0.031212056 -0.0630238
0000c0 06 cc d2 bc b8 cd c5 bd 80 ad e4 bd 31 0d 0d 3d
       -0.025732052 -0.09658378 -0.11165905 0.03443641
0000d0 90 a3 1d 3e 44 0a 54 bd 66 81 51 bc 70 ea c6 3d
       0.15394425 -0.051767603 -0.012787199 0.09712684
0000e0 c8 66 c6 3d 76 2f cf bd 67 8f 56 bb bd ac 32 ba
       0.09687573 -0.10116474 -0.0032739283 -0.0006815901
0000f0 17 48 f6 bd bb 5e f5 3d 7b eb 29 3c e4 4b 3b be
       -0.12025469 0.11980959 0.010371084 -0.18290669
000100 e6 75 fd bd 0c 96 39 3d e7 41 13 3b 45 50 d2 3d
       -0.12376003 0.04530911 0.00224697 0.102692164
000110 f0 96 26 be 48 ea 46 3e b4 18 39 be 8a 4c 2e bd
       -0.16268516 0.19425309 -0.1807583 -0.042553462
000120 65 aa b6 3d 08 31 22 3d 26 8e df 3c 6e 3b 8c 3d
       0.08919219 0.03959754 0.027289461 0.06847273
000130 29 49 b9 bd dc 86 5b be 20 6a 47 3e f9 92 cb bd
       -0.09047157 -0.21438164 0.19474077 -0.09940142
000140 7d 5c 01 3b 85 b6 c0 bd 6d f6 ba 3c 11 85 a0 3d
       0.0019738965 -0.09409813 0.022822583 0.078378804
000150 fb 6c 05 3e 81 c0 ff 3d 87 a7 d1 3d 76 cd 42 bd
       0.13029854 0.12487889 0.102370314 -0.047559224
000160 36 8e 09 bd b4 9e 6a bd ed 1c 04 bd 28 9e dd 3c
       -0.03358289 -0.057280257 -0.03225415 0.027052954
000170 04 67 f2 3d a7 46 62 bd 6b 26 38 be e6 08 88 3c
       0.11836055 -0.05524316 -0.17983405 0.016605806
000180 87 cb 34 3c 1d e6 63 bd 0d 5e c3 3d 25 47 91 3c
       0.011034853 -0.055639375 0.09539423 0.01773412
000190 85 66 23 3d 63 08 5d be ad 08 c7 bb b7 be 67 be
       0.039892692 -0.2158523 -0.0060740323 -0.22631346
0001a0 d1 f6 2b bd 81 40 d1 3d 87 39 2f 3d e7 77 e6 3d
       -0.04198343 0.10217381 0.04277947 0.11253338
0001b0 07 1e 6b bb 74 c3 97 bc 40 fe 8a 3d fc 2e 63 ba
       -0.0035876052 -0.018525817 0.067867756 -0.0008666364
0001c0 b3 79 43 3e 4d 1d 76 3e bb 88 ca bd b1 74 a5 bd
       0.19089393 0.24034615 -0.098893605 -0.08078898
0001d0 09 b7 15 3d af 37 9a 3d d9 8d 21 bd 53 60 17 bd
       0.03655151 0.07530152 -0.039441917 -0.036957096
0001e0 55 78 40 be 2c ab dd bd fe a0 01 3e 4d 56 1b bd
       -0.18795903 -0.10823664 0.1265907 -0.0379241
0001f0 cd 06 2a 3d 58 4c ed bd 60 9d b0 bd 4e 91 7e 3d
       0.041510392 -0.11586827 -0.08623767 0.062150292
000200 63 74 07 be 09 58 09 3e d4 fb f2 3c 0d 4a 05 3e
       -0.13227992 0.13412489 0.029661097 0.1301653
000210 a5 f5 3c be 40 5a ca bd 3c 61 8d 3a b3 e8 2c be
       -0.18453081 -0.09880495 0.0010786424 -0.16885643
000220 fd 76 23 be f9 54 1f 3e 10 2c b5 3d 5c 85 a1 bc
       -0.15963359 0.15559758 0.08846295 -0.019716911
000230 3a 18 04 bc 5b 1d 3b 3d 00 5a b0 3c 10 61 9b bd
       -0.008062417 0.045682292 0.02152729 -0.075868726
000240 cf da a7 3b b1 70 0f be 49 48 27 be 5d 59 83 bd
       0.0051225196 -0.14007832 -0.16336168 -0.06413529
000250 5f 55 42 bb 2e 96 bf bd
       -0.0029652936 -0.093548164

backbone.out.bias f4 [5]
000000 f2 0e 0f 3e 87 c9 46 bd 9a 20 80 bd 08 3c 67 bd
       0.13970545 -0.048532035 -0.06256218 -0.056453735
000010 c9 bc ae 3c
       0.021330254

weight f4 [30, 1]
000000 20 ad be bd 28 cc 5b bf 42 79 0f bf 80 b0 3f bd
       -0.09310365 -0.8585839 -0.560444 -0.046799183
000010 86 11 7e bf a4 3e 6d bf d8 ee 12 3f e0 05 44 bd
       -0.9924549 -0.92673707 0.57395697 -0.047857165
000020 b4 9e 09 bf 04 55 6c 3f 44 d7 52 bf 34 74 00 bf
       -0.53757787 0.92317224 -0.8235972 -0.5017731
000030 16 c7 03 bf f0 80 54 be 00 db 92 3d 78 71 43 bf
       -0.51475656 -0.20752311 0.07170677 -0.76345015
000040 fc 95 d6 be 06 8b 4e bf 40 14 03 3e 16 bc 42 3f
       -0.41911304 -0.8068088 0.12800694 0.76068246
000050 b4 3e 53 3f f8 d4 3f bf 54 7f 93 3e 46 58 67 3f
       0.8251755 -0.7493434 0.2880808 0.9036907
000060 e2 e4 4b bf 4e 38 6a bf b8 54 28 be bc 9e 72 3f
       -0.7964612 -0.91492164 -0.16438568 0.9477346
000070 40 9c 62 bd 60 25 5d 3e
       -0.055324793 0.21596289

bias f4 [30]
000000 78 7a 6f 3f 58 d5 9b 3e 94 0d c6 3e 76 db 6b bf
       0.9354625 0.30436206 0.38682234 -0.92131746
000010 e0 ea 98 3e ee b7 32 bf 02 b7 7c bf 3e 47 5e 3f
       0.29866695 -0.69811904 -0.9871675 0.86827457
000020 90 51 09 be 44 2d f4 be b0 8a 46 3f 12 63 51 3f
       -0.1341002 -0.47690785 0.7755537 0.81791794
000030 54 8e 5e 3f 5c f2 bd be 80 d5 85 3d d8 a7 23 be
       0.86935925 -0.37098968 0.065348625 -0.15981996
000040 00 29 29 be 8c 00 32 bf 50 7a d1 bd ac aa 49 3f
       -0.16519547 -0.69532084 -0.102284074 0.7877605
000050 fc 4a 8d 3e bc c0 5a 3f f8 85 c9 be 9c a1 3a 3f
       0.2759627 0.8545034 -0.39360023 0.72902846
000060 30 4b 58 3f a8 38 1b be ae 72 22 bf 2c f9 8f 3e
       0.8448973 -0.15158331 -0.6345624 0.2811979
000070 08 6f 99 3e 20 c0 8b 3d
       0.29967523 0.06823754

weight f4 [30, 30]
000000 ab 3e 06 3d 11 2d 34 be 13 2e 01 bd ef 04 a3 bd
       0.03277461 -0.17595316 -0.03153808 -0.079599254
000010 d3 7f 18 be 71 8f 8c bd 9c c1 e6 bc 95 c7 27 be
       -0.14892511 -0.06863297 -0.028168492 -0.16384728
000020 1b 08 19 3e 94 22 25 be 0d 46 a9 3d 26 75 df bc
       0.14944498 -0.16126472 0.08265314 -0.02727754
000030 d5 4f a3 3d f6 97 34 bd c9 bd 0f be ce 96 8c bc
       0.07974211 -0.044090234 -0.14037241 -0.017161753
000040 7c 88 25 3e 55 b9 2a be e4 6d 19 3e a7 cb 23 bd
       0.16165346 -0.16672261 0.14983326 -0.03998914
000050 00 c9 da 3d b1 e9 5a bc 52 2f d3 3c 27 1a 0b be
       0.10682869 -0.01336138 0.0257794 -0.13584195
000060 c0 a1 de 3d 74 90 ff 3c 2e 4c 0f be 7b 35 19 3e
       0.10870695 0.03119681 -0.13993904 0.14961807
000070 4e 70 20 3e 6a 8d 04 3e 9d 86 a2 3d 21 91 40 bd
       0.15667841 0.1294457 0.07935832 -0.047013406
000080 f4 27 e3 bd 77 d2 35 3e 23 7c 0b 3e d5 98 6b 3d
       -0.11091605 0.17756067 0.13621573 0.0575188
000090 4c aa 73 bd 20 96 02 3e 8d 30 6c 3d 5c 61 33 be
       -0.05948858 0.1275258 0.05766349 -0.17517608
0000a0 eb e0 82 bb 17 5c 95 bd e4 54 81 bd 2b 97 1e be
       -0.0039940975 -0.07292955 -0.0631502 -0.15487354
0000b0 e5 b5 9d bd a8 cd d3 3c 43 17 16 be 82 56 f7 3c
       -0.07700709 0.0258549 -0.14657311 0.030192617
0000c0 04 51 32 3e 2c 85 8c 3d 68 ad b9 3d ca db 2e be
       0.17413718 0.06861338 0.09066278 -0.1707603
0000d0 8c db 0d 3e 34 32 c0 bd fb c4 84 3d e5 3b 24 be
       0.13853282 -0.093845755 0.064828835 -0.16038473
0000e0 07 2f a3 bc a4 13 09 be a6 bc 1b be 62 75 04 be
       -0.019919885 -0.13386399 -0.15208682 -0.12935403
0000f0 f7 e5 15 be 40 9e a0 3d 16 3d f4 39 50 fc 18 be
       -0.14638506 0.07842684 0.0004658482 -0.1494
000100 86 7c c8 ba 34 aa 9a bd aa 1a 10 3c c7 3b 85 3d
       -0.00152959 -0.07551995 0.00879542 0.06505542
000110 05 7a 83 bd 4f ff 2c be 10 24 d1 3c cb 96 9b 3d
       -0.06419758 -0.16894267 0.025529891 0.07597121
000120 28 eb 1f 3e 9e 0b ec 3d 76 de 0f 3d f0 5e 34 3e
       0.15617049 0.11525653 0.035124265 0.17614341
000130 b6 92 f7 bd 04 f6 a8 bc 86 39 aa 3d a1 3f bf bd
       -0.1208853 -0.020625122 0.08311753 -0.09338308
000140 dc 15 8f 3d 65 bd b3 bc 1c ed ed bd da f5 14 3e
       0.06986591 -0.021940896 -0.11617491 0.1454691
000150 00 67 c0 3d a3 d9 2c be 9e 6c 07 3e eb 91 c1 bc
       0.09394646 -0.16879897 0.13225028 -0.02362915
000160 db 9a 1a 3e d0 ed 1c be b7 80 24 3e 4f 62 38 3e
       0.15098135 -0.15325093 0.16064726 0.18006252
000170 0b 3e 9c 3d a6 e7 f6 3d a5 a4 f2 3d 41 68 99 bb
       0.07629021 0.12055902 0.1184781 -0.0046816175
000180 4f 84 50 bd 71 d0 53 bd 39 1e 96 bc eb bd 12 bc
       -0.05090743 -0.051712457 -0.018324958 -0.008956413
000190 d6 44 16 bc 89 ee 62 3d ee 91 e7 bc a5 93 f3 3d
       -0.009171685 0.055403266 -0.028267827 0.11893395
0001a0 33 f2 2c be 01 25 f6 bd c9 05 37 3e 28 72 0a 3e
       -0.16889267 -0.12018777 0.178733 0.1352011
0001b0 cb f8 d7 bd 60 21 37 3d 06 48 28 3c a8 a8 51 bd
       -0.105455 0.044709563 0.010271078 -0.051186234
0001c0 b7 e1 d6 3d a1 b9 0a be 5d bc ff 3d 3a b6 b9 bc
       0.104922704 -0.13547374 0.12487099 -0.0226699
0001d0 eb 2e 85 bd a7 b8 94 3d 75 a6 04 be de f9 0b 3e
       -0.065030895 0.07261782 -0.12954123 0.13669536
0001e0 e8 c5 8c 3d 37 7d f4 3d 05 e5 38 3d d5 23 3b bd
       0.06873685 0.11937945 0.045140285 -0.04568847
0001f0 d1 1d 5b bd f3 48 b0 bd bd 26 97 bd fb 9d a5 bd
       -0.053495232 -0.08607664 -0.073804356 -0.08086773
000200 25 01 22 be 3d e0 a0 bd 45 b0 ae 3c 0d 64 21 be
       -0.15820749 -0.0785527 0.021324286 -0.15760823
000210 a1 06 7a 3d 88 f6 1e be 43 40 05 be 04 6e c6 bd
       0.061041478 -0.15523732 -0.13012795 -0.096889526
000220 21 12 a1 3d b7 d3 01 3e 9d 23 2b 3e 0b 78 a2 bc
       0.07864786 0.12678419 0.16712804 -0.019832632
000230 cf fa 00 3e 78 4f 1e be bf 3a 83 3c 84 29 00 3d
       0.12595676 -0.15460002 0.016019223 0.031289592
000240 f8 e5 26 be 25 c7 70 bd fe 60 a9 3d 85 1d 19 be
       -0.16298664 -0.05878367 0.08270453 -0.14952667
000250 5f 97 a7 3d 84 7d ac bd e1 27 89 3d c3 28 06 be
       0.081831686 -0.08422378 0.066970594 -0.13101487
000260 f6 d2 0f 3d 2d 94 17 3e 63 ba 0f 3e 94 97 cf 3d
       0.035113297 0.14802618 0.14035945 0.10136333
000270 b3 e6 0f bd ab 7e 0c be 0f 36 2e be d7 41 70 3d
       -0.03513212 -0.13720195 -0.17012809 0.05865654
000280 d9 1b 19 3e a4 44 0b be 72 51 20 be ea c3 28 be
       0.1495203 -0.13600403 -0.15656069 -0.16480985
000290 9d 8e cc bd 43 f4 89 bd 72 7f 19 be 5b 7c 18 3e
       -0.09988139 -0.06736042 -0.14990023 0.14891188
0002a0 27 fc 29 3e 05 5e d5 bd 68 39 3a 3c b6 55 b1 bd
       0.16600095 -0.104183234 0.011366226 -0.08658926
0002b0 68 c5 a5 bc a4 3e a8 bd ae c9 fc bd ac 79 04 3e
       -0.020235732 -0.08215073 -0.12343155 0.12937039
0002c0 cf ea eb 3b 75 96 92 3d bb 3e 0e be e3 fa 56 3d
       0.007199622 0.07157604 -0.13891117 0.052485358
0002d0 d1 53 20 3d bd 17 d5 3d 34 9e 38 3d 46 d5 07 3e
       0.039142434 0.10404918 0.04507275 0.13264951
0002e0 c3 34 dd 3c aa 40 d3 ba 8f 96 d5 bd a0 a2 76 3d
       0.027002698 -0.0016117294 -0.104291074 0.060213685
0002f0 c6 32 cb 3d b8 a7 23 3e 90 c6 18 3d 1b 42 13 3e
       0.09921794 0.15981948 0.03729874 0.14380686
000300 46 70 31 bd 4c e1 86 3d df 5e 30 3d b4 bb 20 bd
       -0.043319963 0.06585941 0.043059226 -0.039241508
000310 d6 e0 a4 3d 7b 3c 70 bc fb ef ec 3d 12 1e 4a 3d
       0.080506966 -0.014662857 0.1156921 0.049345084
000320 a2 ed 0c 3e 9b 6e 1e bd 50 f2 f0 bd 86 bc 47 3d
       0.13762525 -0.0386797 -0.117649674 0.048763774
000330 e8 c4 2b 3e c4 d0 99 3d 7a 38 31 3d 48 e8 2b 3e
       0.16774333 0.07510522 0.04326675 0.16787827
000340 a6 f4 2d be 37 b3 6b bd 61 22 25 be 64 ec b5 3c
       -0.16987857 -0.05754396 -0.16126396 0.022207446
000350 74 0f 2c 3e 26 7d 60 bc ea 4a c6 bd 9e 98 d2 3d
       0.1680277 -0.013701713 -0.096822575 0.10283016
000360 07 4a 1b 3e c0 88 9f 3c 90 55 23 be 9b 26 f4 bd
       0.15164958 0.019474387 -0.15950608 -0.11921426
000370 a4 c9 9e bc 6f 75 ed bd a8 96 10 3d 6d 28 ba bc
       -0.01938326 -0.11594664 0.035299927 -0.022724355
000380 f8 c1 21 3d 76 f3 d3 bd 1d 7b 18 3e 6d b5 09 be
       0.039491624 -0.10349171 0.14890714 -0.13448115
000390 15 c9 2b 3e fd 88 b4 3d 9f aa bc bd a4 62 00 bd
       0.16775925 0.08815191 -0.09212231 -0.03134407
0003a0 02 c6 e7 3d 07 e6 c0 3c 18 1a ac bd eb ce 9d 3c
       0.11317064 0.023547186 -0.084034145 0.019263705
0003b0 a0 6f dc 3d bb ef 32 3e 8f 1a ff 3d 04 82 34 be
       0.10763478 0.17474262 0.124562375 -0.17627722
0003c0 10 a0 58 3d 49 8c 2f 3e 96 a6 19 be e4 bf 09 3e
       0.052887022 0.17143358 -0.15004954 0.13452107
0003d0 41 71 bf bd 4f 39 10 be ba d7 04 bb 0a 73 04 bd
       -0.09347773 -0.14084361 -0.0020270185 -0.032336272
0003e0 d3 5e ad 3d 6a 99 3d 3d 0b 82 16 be 9f cb a4 3d
       0.08465352 0.046288885 -0.14698045 0.0804665
0003f0 22 8a 6e 3d 14 2d 1d 3e 66 e9 c9 bc 83 e7 1f be
       0.058237202 0.15349227 -0.024647426 -0.15615658

bias f4 [30]
000000 eb db f2 3d d8 ea b6 bd 52 fc 1c 3c 64 e3 03 be
       0.11858352 -0.08931512 0.009581642 -0.12879711
000010 8a eb 21 be b2 36 63 bd b7 9b e2 3d 45 4b 6a 3b
       -0.15812507 -0.055472083 0.110648565 0.003575043
000020 1a 46 10 be 0d 85 2b be 37 fa 20 3e 54 ea a0 3d
       -0.14089242 -0.16749974 0.1572045 0.078571945
000030 77 61 d5 3a e6 a9 0a 3d 87 12 93 bd 54 84 16 bd
       0.0016279657 0.033853434 -0.07181268 -0.03674729
000040 3c 3e 9e bd 2c b6 10 be b1 34 af bd b4 27 4a bd
       -0.07726714 -0.14131993 -0.08554972 -0.04935427
000050 5a cc b6 3d ff 61 29 3e 15 6b ed 3d 0c ff df 3d
       0.08925696 0.16541289 0.1159269 0.10937318
000060 ec b4 2f 3e a5 fd 11 be 57 34 be 3d aa 4a 83 3d
       0.1715886 -0.14256914 0.09287327 0.064107254
000070 61 c6 16 be cf b0 f6 bd
       -0.14724113 -0.12045442

weight f4 [5, 30]
000000 5c 4f 43 be c3 a2 85 3d 5b b0 0a 3e 5d 5b 07 3e
       -0.19073242 0.06525185 0.13543837 0.13218446
000010 19 be de 3d 52 8c 36 be cd 31 35 3d d9 fe 84 bd
       0.10876102 -0.17826965 0.044236947 -0.06493921
000020 e7 51 bf bd b6 e0 0c be c0 ab 4a be 41 96 a0 3d
       -0.093417935 -0.13757595 -0.1979208 0.07841159
000030 d6 70 11 be d2 99 da 3c 9d 60 03 3d 59 05 a6 bc
       -0.142032 0.026684675 0.03207456 -0.020266222
000040 4c 43 5f bd b4 ae 8a bc 71 ff af bd 64 2d 08 3e
       -0.05450754 -0.016929008 -0.085936435 0.13298565
000050 1c a7 1f 3e cd ed d7 3c 7e f2 8b bd 90 3c 29 3e
       0.15591091 0.02635851 -0.06833361 0.16527009
000060 f8 ad 19 bc c3 d6 b5 3d 2b 24 ea 3d 9d f8 e1 3d
       -0.009379856 0.08878853 0.1143268 0.11033747
000070 c0 29 ee bb a9 9e d5 3d be ed 56 bd 20 14 9a bc
       -0.0072681606 0.10430653 -0.052472822 -0.018808424
000080 c4 9a 28 be 4a bf de bc 9c 97 a3 3d ba 60 49 be
       -0.16465288 -0.027190823 0.079879016 -0.19665805
000090 dc 41 46 3e 79 ba f9 bd d6 46 e6 bd 4a ff 2c 3d
       0.19361061 -0.1219377 -0.1124398 0.04223565
0000a0 fc 9d ce bd 6c 1a 3d be a0 5f 66 be fc 79 a1 3d
       -0.10088727 -0.1846711 -0.22497416 0.07884595
0000b0 88 ac 96 bd 6f 46 db bc 6d b0 ff bc 9f 12 81 bd
       -0.073571265 -0.026766984 -0.031212056 -0.0630238
0000c0 06 cc d2 bc b8 cd c5 bd 80 ad e4 bd 31 0d 0d 3d
       -0.025732052 -0.09658378 -0.11165905 0.03443641
0000d0 90 a3 1d 3e 44 0a 54 bd 66 81 51 bc 70 ea c6 3d
       0.15394425 -0.051767603 -0.012787199 0.09712684
0000e0 c8 66 c6 3d 76 2f cf bd 67 8f 56 bb bd ac 32 ba
       0.09687573 -0.10116474 -0.0032739283 -0.0006815901
0000f0 17 48 f6 bd bb 5e f5 3d 7b eb 29 3c e4 4b 3b be
       -0.12025469 0.11980959 0.010371084 -0.18290669
000100 e6 75 fd bd 0c 96 39 3d e7 41 13 3b 45 50 d2 3d
       -0.12376003 0.04530911 0.00224697 0.102692164
000110 f0 96 26 be 48 ea 46 3e b4 18 39 be 8a 4c 2e bd
       -0.16268516 0.19425309 -0.1807583 -0.042553462
000120 65 aa b6 3d 08 31 22 3d 26 8e df 3c 6e 3b 8c 3d
       0.08919219 0.03959754 0.027289461 0.06847273
000130 29 49 b9 bd dc 86 5b be 20 6a 47 3e f9 92 cb bd
       -0.09047157 -0.21438164 0.19474077 -0.09940142
000140 7d 5c 01 3b 85 b6 c0 bd 6d f6 ba 3c 11 85 a0 3d
       0.0019738965 -0.09409813 0.022822583 0.078378804
000150 fb 6c 05 3e 81 c0 ff 3d 87 a7 d1 3d 76 cd 42 bd
       0.13029854 0.12487889 0.102370314 -0.047559224
000160 36 8e 09 bd b4 9e 6a bd ed 1c 04 bd 28 9e dd 3c
       -0.03358289 -0.057280257 -0.03225415 0.027052954
000170 04 67 f2 3d a7 46 62 bd 6b 26 38 be e6 08 88 3c
       0.11836055 -0.05524316 -0.17983405 0.016605806
000180 87 cb 34 3c 1d e6 63 bd 0d 5e c3 3d 25 47 91 3c
       0.011034853 -0.055639375 0.09539423 0.01773412
000190 85 66 23 3d 63 08 5d be ad 08 c7 bb b7 be 67 be
       0.039892692 -0.2158523 -0.0060740323 -0.22631346
0001a0 d1 f6 2b bd 81 40 d1 3d 87 39 2f 3d e7 77 e6 3d
       -0.04198343 0.10217381 0.04277947 0.11253338
0001b0 07 1e 6b bb 74 c3 97 bc 40 fe 8a 3d fc 2e 63 ba
       -0.0035876052 -0.018525817 0.067867756 -0.0008666364
0001c0 b3 79 43 3e 4d 1d 76 3e bb 88 ca bd b1 74 a5 bd
       0.19089393 0.24034615 -0.098893605 -0.08078898
0001d0 09 b7 15 3d af 37 9a 3d d9 8d 21 bd 53 60 17 bd
       0.03655151 0.07530152 -0.039441917 -0.036957096
0001e0 55 78 40 be 2c ab dd bd fe a0 01 3e 4d 56 1b bd
       -0.18795903 -0.10823664 0.1265907 -0.0379241
0001f0 cd 06 2a 3d 58 4c ed bd 60 9d b0 bd 4e 91 7e 3d
       0.041510392 -0.11586827 -0.08623767 0.062150292
000200 63 74 07 be 09 58 09 3e d4 fb f2 3c 0d 4a 05 3e
       -0.13227992 0.13412489 0.029661097 0.1301653
000210 a5 f5 3c be 40 5a ca bd 3c 61 8d 3a b3 e8 2c be
       -0.18453081 -0.09880495 0.0010786424 -0.16885643
000220 fd 76 23 be f9 54 1f 3e 10 2c b5 3d 5c 85 a1 bc
       -0.15963359 0.15559758 0.08846295 -0.019716911
000230 3a 18 04 bc 5b 1d 3b 3d 00 5a b0 3c 10 61 9b bd
       -0.008062417 0.045682292 0.02152729 -0.075868726
000240 cf da a7 3b b1 70 0f be 49 48 27 be 5d 59 83 bd
       0.0051225196 -0.14007832 -0.16336168 -0.06413529
000250 5f 55 42 bb 2e 96 bf bd
       -0.0029652936 -0.093548164

bias f4 [5]
000000 f2 0e 0f 3e 87 c9 46 bd 9a 20 80 bd 08 3c 67 bd
       0.13970545 -0.048532035 -0.06256218 -0.056453735
000010 c9 bc ae 3c
       0.021330254
