tme5/models/my-model.pth (torch, 552192 bytes, 9 tensors)

embeddings.weight f4 [97, 100]
00000000: 7f7a 5dbf 58b3 5b3e 7d94 6abf e951 57bf
00000010: 7073 9c3f b210 003e f3fe 08bf 305c 913f
00000020: 115d 8dbe ddf7 4cbf ed71 a03f 70b7 66be
00000030: 2543 993e ef64 a7be d716 5ebf cece e1be
00000040: f6e9 c2be 2685 68be 2790 813f 6b10 30bf
00000050: a443 5ebf 587d 7abf b316 cbbf ab22 3bbf
00000060: 521f 9c3f 72ac b53f 881a e1be 92e9 993e
00000070: ec78 eabf 7ba2 693e 8060 93be f6de a1bf
00000080: 4e95 95bf b624 edbe 55f2 d63f f749 97bf
00000090: 29c5 96be a8d4 d7bf 1677 73bf d088 c93f
000000a0: 05cb c73f b9f6 db3e b8e2 e43c fc7d 613f
000000b0: e62c b5be 9f03 b7bf 1950 ff3a 5132 02c0
000000c0: da1f fa3f 757d d73f 5dcf 5f3f 114c 2b3f
000000d0: 92e7 cebe 759a 003f bfe4 bdbe d642 a3bf
000000e0: e00f 553d ebce 16be 1a89 18bf 4b6e 71bf
000000f0: f2f4 83bf 8c25 353d 6bbb ab3e 6a58 20bf
00000100: 69f3 1f3f 409e 8ebe fd51 1abe 5554 08be
00000110: 059a bb3d 3fce b5bf 8284 e6be 1710 c73e
00000120: 5bd3 6fbf e9b7 c4be a05c 5d3f 1e1e ba3f
00000130: 1715 bcbe 1377 8f3f 8edf 7dbe d88b 2e3f
00000140: b0bc 57bf 348e 00c0 91a6 803e a092 233f
00000150: 4c39 93bf d86e 36bd e8fe a43f bf00 1b3f
00000160: 262e 6ebf 35a6 df3e 7b72 613d 2c5c 32bf
00000170: 9920 43be bff1 2a3e 37b0 97be 686d 1a3d
00000180: eeed 52bf ff0e b4be 1d27 47bf 2d5d 59bf
00000190: aeb3 43be 88de 543f c282 e93e d4da 5bbe
000001a0: 1d11 89bf 1bf9 55bf cef6 1dbf 0c84 04bf
000001b0: 5aec 503f 6818 18bf dd42 04bf 5911 debd
000001c0: 1364 903d db98 ae3f aff3 ffbe 561e 20bf
000001d0: c1ec a63f b0ad a0bf 08d3 68bf b834 84bf
000001e0: 7f63 6abf 0cfa 0b3e 2ce8 8d3f 60a5 babf
000001f0: 9796 bebd 77b7 753e dbf4 5ebf 8c7a cb3e
00000200: 6110 743f 894c 6a3c 9545 91bd 14c2 323f
00000210: 5c71 a3be 406d 0d40 2771 2fc0 eb85 be3d
00000220: 6e3c b5bf 2fbe 6bbe 3307 6bbf e3ea 503f
00000230: b9c9 d83f 5943 553f fc51 08bf 36a4 c33f
00000240: 157f c2be abaf 833f 745b 3abf f882 a63f
00000250: 360c 9ebf de37 10be da6d cc3f 9b76 36bf
00000260: a6ab 7fbf 30d8 2cbf de74 3a3f b9cd adbe
00000270: 67f3 04bf acca 76bd 8073 70bf f136 073f
00000280: 0979 343f 1972 34bf e232 243e 44dc 4ebf
00000290: 9892 913f 32e7 c23e f1a0 983f 3821 1ebf
000002a0: 4bc2 8cbf 9719 bc3d cf2e 123f f587 55bf
000002b0: 1614 9abf b3ef 9dbf cf92 013d de41 0d3e
000002c0: e58e 8dbf 9bd0 f8be 924a b2be 3c73 07c0
000002d0: a009 093f 173f acbc d227 00bf aee5 773c
000002e0: 3b3e c13f 30af 9a3f f0e8 a63f c8fc 9e3f
000002f0: a5d2 ad3f 5339 53bf c02e 493f 3420 513f
00000300: 533f 0ac0 ccfa 383d 60d5 4bbf 909c 933f
00000310: c9da ffbf 6702 7fbf 03b7 aebf 92ac a8bf
00000320: b061 9c3e d251 5fbf 5b29 39c0 2542 e33f
00000330: f812 283f 10b5 7b3f ca96 953f 388a 24bf
00000340: db90 103f 5de4 43bf 5bdc 973a b656 0a3e
00000350: 57cd fe3e 4943 e23e b227 b0be 1b7f b53f
00000360: 50e4 c2bf 9ead ea3f ac4e f9be 80ba b5bf
00000370: 67cf 553e 98ec 84bf 2fa5 753f a02c 1c3f
00000380: 545a bdbf f062 863f e32b 8b3f c91d 3b3f
00000390: a9ff 26be 73e9 c3be e6e0 063f 60b8 dbbe
000003a0: 698c 98bf cc7b 48bf a993 ccbe b5e2 19bf
000003b0: f5c1 1bbf f741 00c0 0bb0 7e3e 1724 943f
000003c0: 82a6 323f 3c62 1d3f 26c9 423f c27a f1be
000003d0: 3d6f fb3e 2882 46bf a1fd f43f 9ffc 713f
000003e0: 37c4 7e3d 46e9 6c3e b424 973f 3ddc 93bf
000003f0: ca29 e83f 71ba 89be 8dc0 2b40 0646 983f
-0.8651504 0.21455133 -0.91632825 -0.8410936 1.2222729 0.12506369 -0.5351402 1.1356258
-0.27610067 -0.8006571 1.2534767 -0.22530913 0.2993404 -0.32694194 -0.867536 -0.44103092
-0.38069123 -0.22707042 1.0122117 -0.6877505 -0.8682196 -0.9784751 -1.5866302 -0.73099774
1.2197058 1.4193251 -0.43965554 0.30061013 -1.8318152 0.22815888 -0.2878456 -1.2646167
-1.1686189 -0.4631707 1.6792704 -1.1819447 -0.29447296 -1.6861773 -0.95103586 1.5744877
1.5608832 0.42961672 0.02794014 0.8808286 -0.35385817 -1.429798 0.0019478827 -2.034321
1.954097 1.6835161 0.87425786 0.66912943 -0.4041105 0.5023568 -0.37088582 -1.2754772
0.052017093 -0.1472737 -0.595842 -0.9430892 -1.0309126 0.04422526 0.33541426 -0.6263491
0.6248079 -0.2785511 -0.15070339 -0.1331342 0.09160236 -1.4203566 -0.4502297 0.38879463
-0.9368188 -0.38421562 0.8646946 1.4540441 -0.3673484 1.1208214 -0.2479231 0.68182135
-0.8427229 -2.0086794 0.2512708 0.63895607 -1.1501861 -0.044539303 1.2890291 0.60548013
-0.93039167 0.43681493 0.055040818 -0.69671893 -0.19055404 0.16693781 -0.2962663 0.037701994
-0.823943 -0.3516769 -0.7779406 -0.849078 -0.19111511 0.83152056 0.45607573 -0.21470195
-1.0708348 -0.8358323 -0.6170472 -0.5176399 0.81610644 -0.5941224 -0.51664525 -0.108431526
0.07050338 1.3640398 -0.49990603 -0.6254629 1.3041002 -1.2553005 -0.9094701 -1.0328588
-0.9155807 0.13669604 1.1086478 -1.4581718 -0.093060665 0.23995768 -0.8709237 0.39741933
0.9533749 0.014300474 -0.0709335 0.6982739 -0.31922424 2.209793 -2.7412813 0.093028866
-1.4159067 -0.23021768 -0.9180786 0.8160841 1.6936561 0.8330589 -0.532501 1.5284488
-0.3798758 1.0287985 -0.72795796 1.3008718 -1.2347476 -0.14083812 1.5971024 -0.7127473
-0.9987129 -0.67517376 0.72834575 -0.33946016 -0.519339 -0.060251877 -0.9392624 0.5281821
0.70497185 -0.704866 0.16035035 -0.8080485 1.1372862 0.38067013 1.1924115 -0.6176944
-1.0996794 0.091845684 0.57102674 -0.8341058 -1.203738 -1.2338775 0.03163415 0.13794658
-1.1059233 -0.48596653 -0.34822518 -2.1164083 0.5353031 -0.021026177 -0.5006076 0.0151304435
1.5097116 1.2084713 1.3039837 1.2420893 1.3579909 -0.82509345 0.7858696 0.81689763
-2.160115 0.045161054 -0.7962246 1.1532154 -1.9988643 -0.9961304 -1.3649601 -1.3177664
0.3054328 -0.8723422 -2.8931491 1.7754561 0.65653944 0.98323154 1.1686642 -0.64273405
0.5647103 -0.7652033 0.0011586057 0.1350964 0.49766037 0.4419196 -0.34405285 1.4179415
-1.5225925 1.8334234 -0.48692834 -1.419754 0.20879899 -1.0384703 0.95955175 0.6100559
-1.4793191 1.0498943 1.0872768 0.73092324 -0.16308464 -0.38264045 0.5268692 -0.42914104
-1.191785 -0.783139 -0.39956406 -0.6011155 -0.6084283 -2.0040262 0.24871843 1.1573514
0.6978532 0.6147802 0.7608818 -0.4716397 0.49108306 -0.7754235 1.9139901 0.94526094
0.062198844 0.23135862 1.1808076 -1.1551586 1.8137753 -0.26900056 2.6836274 1.189637

z.weight f4 [150, 250]
00000000: 1b74 57bd 88ce a3bc 3074 893e 55b8 44be
00000010: 43a2 09be 684a 913c d82c 62be e837 a03e
00000020: c872 56bc 2d1f a5bd 34ab a7bd e4f9 643d
00000030: b8f9 1cbd bbbf 2fbe 9554 d2bd 1f56 e7bc
00000040: 7bdf e53d edae fabd a568 54be 2d98 0fbe
00000050: c91f 4b3e 5d4b 0dbe 51b1 52be dc55 483b
00000060: f84b 46be c3a3 64be 0b1f 8bbc 6de1 243e
00000070: 95cc ec3d 343a 9bbd 1bda 72bd 9d56 e6bd
00000080: b52b 623d 89b8 1abe cb1a 3ebe d800 98bc
00000090: 9187 c13d ea72 47be 0c67 c0bc 47a3 873d
000000a0: 7e81 223e a414 c3bc 12d4 c4bd f95d 4bbc
000000b0: 8098 cbbd a9b1 8dbc a8e7 a4be 03fa acbd
000000c0: 7580 d3bc 96f6 62bd d3b7 0ebc f680 d9bd
000000d0: b4e9 2e3d 5f62 d63c 152f 69bd efe1 a0bb
000000e0: 7fe4 b73d 3ae3 f7bd 3ece 54bc 61f6 163d
000000f0: 4ae3 ea3d 79c5 5fbd a153 93bd 0ae0 95bc
00000100: 8e9c d83d 34fc 5abc 703d 28be 8a64 2abe
00000110: 4004 6cbe 8851 953d e71e 23be 23b1 e6bd
00000120: d904 82be 9422 6c3d fafa 9c3b 3c6a 20bd
00000130: e9c6 0dbd 85a6 71bd 2dd0 1dbd 1b25 78bc
00000140: ed3d d0bd 9451 c1bd a063 14be 85bc 81bd
00000150: 92c4 a23d 6198 89be 2803 2e3e 0369 3fbe
00000160: 2f06 87bd 83a3 42bd bc32 c93d aa17 a03d
00000170: ace2 0bbd e63f d5bd d7d0 25bd 5477 bdbd
00000180: 5aba fa3b 2958 b83d bb47 19be f922 c53c
00000190: f90a 25bc 0d08 5c3e c6f9 e9be e9c6 693d
000001a0: 77ee d4be 1022 edbd 19b8 b23e 05fa d43e
000001b0: f284 143d e22a 683d e0c4 da3c 1d8a 10be
000001c0: 9364 88be 2a55 563e 8879 8a3e 4a71 9a3e
000001d0: ceaf 63be b2e5 193f 5259 143e 6795 113e
000001e0: 43b2 adbe dd97 cdbd 8a42 28be a447 bcbd
000001f0: a72c 19be c075 833e 03d3 b23c 43e0 d43b
00000200: 5b17 f4bd f85c e43d a3b1 e53e 65fe 93bc
00000210: 99ca 6fbc 2c2b 423e d666 103f 8070 cebd
00000220: 4f74 483c 3524 763e eef8 0cbe eaac 0fbe
00000230: 53ef b7bb 7eaa f03d aab8 13be 7dd4 30bd
00000240: de03 afbe 0777 1c3e 11c8 643d f086 8abe
00000250: abc6 4b3e 3668 943e eda9 803e 9e29 cc3d
00000260: 37e4 64be aa00 813e 7790 3e3e c7c0 9fbd
00000270: 0acb 803e 7aa6 fa3e c57b 803e ec84 6d3d
00000280: 8ead 3dbd 1264 5e3d b10d 883e 613c 2dbe
00000290: 8f13 50be 23d3 1c3e 5d5d 8f3c 3e98 d33c
000002a0: a64c a33e 045d 833e 8d7e 063d 2711 003f
000002b0: a089 4bbd ec5b b1bd 03ea dcbe 6e6c 9cbe
000002c0: 0190 1abf dbcb 813d 781a babe 94a8 ed3e
000002d0: 94be 873e a40b 593e 65f9 8a3d 8972 e33c
000002e0: 1b65 b9bd 367c bb3d e725 363e 12f7 3fbe
000002f0: f640 913e 987e 4bbb c39a dabe 0f7d 8a3e
00000300: d741 3fbe 995b 453e f51d a7bc ad11 2f3f
00000310: 8a8c e7bc 00e3 f13e 8e91 ae3d 321a d4bd
00000320: 555a f1be 1a23 bb3e bd55 9d3d 37cd 31be
00000330: a2c8 58be 53f9 12bd 5d52 433d f4de d53e
00000340: 494e fa3e eb9e 8abd 6df4 b83e b150 883d
00000350: 1015 74be 3e0b 723e 18ce 84bd 0be5 a53d
00000360: 95e7 573d 0cb4 a6be 9d90 a93e a4db 923e
00000370: 7acd 5cbd 1ac1 95be b68e 0e3d f8d7 4dbd
00000380: 67fc 04be db00 a9be f150 453e 4eb0 28be
00000390: 2b01 75be b652 0f3e df40 5cbe dd71 1e3e
000003a0: 0234 b63e 05a6 c03c 7dc7 613d 2a07 cf3e
000003b0: d4b3 983e 5be3 1ebe fb06 433c 6c59 c8bd
000003c0: d90a 5c3e 3f6f 223d af3c ebbc 9404 15be
000003d0: 90ee 92be 780d 263e 00c3 2e3c bfd8 cc3e
000003e0: 1cbc 063e b6da 103e 9ab2 f23c ddf2 4c3e
000003f0: d471 2d3d 3b3c 023e dc11 9c3d 9589 37bd
-0.05260096 -0.019995943 0.26846457 -0.19210942 -0.13440804 0.017735675 -0.22087419 0.31292653
-0.013088889 -0.08062587 -0.08186951 0.055902377 -0.038324088 -0.17162983 -0.10270039 -0.028239308
0.11224266 -0.12240396 -0.20743044 -0.14022894 0.19836344 -0.1379828 -0.20575453 0.0030568754
-0.19364917 -0.22328095 -0.016982576 0.16101618 0.115624584 -0.07579461 -0.059290033 -0.11246989
0.055217464 -0.15109457 -0.18564908 -0.01855509 0.09449685 -0.1947743 -0.023486637 0.066229396
0.1586971 -0.023813553 -0.09610762 -0.012412542 -0.099411964 -0.017296629 -0.3220799 -0.084461235
-0.025818089 -0.055410944 -0.008710819 -0.106203005 0.042703345 0.026169954 -0.056929667 -0.004909746
0.08979129 -0.12103887 -0.012988625 0.03685606 0.11469133 -0.054631684 -0.07193685 -0.018295307
0.105767354 -0.013365794 -0.16429687 -0.16639915 -0.23048496 0.072909415 -0.15929757 -0.11264255
-0.25394323 0.057650164 0.004790661 -0.039163813 -0.034613524 -0.058996696 -0.03852861 -0.015145565
-0.101680614 -0.09439388 -0.14491129 -0.06334785 0.07947649 -0.26874068 0.16993392 -0.18692403
-0.06592976 -0.04751922 0.0982413 0.078170136 -0.034151718 -0.10412578 -0.04048237 -0.09251276
0.0076516094 0.0900119 -0.14968769 0.024064528 -0.010073417 0.21487446 -0.45698375 0.05707446
-0.41588184 -0.115787625 0.3490608 0.41597 0.0362596 0.05668152 0.026705205 -0.14115186
-0.26639232 0.20930925 0.27045846 0.30164558 -0.22235033 0.6011611 0.14487198 0.14217149
-0.33925065 -0.10038731 -0.16431633 -0.09193352 -0.1495844 0.25675774 0.021829134 0.0064964606
-0.11918517 0.11150545 0.4486209 -0.01806564 -0.014635705 0.18961781 0.56406915 -0.100800514
0.012234761 0.2403725 -0.13766834 -0.14030805 -0.0056132465 0.11751269 -0.14425912 -0.043171395
-0.34182638 0.1527978 0.05585486 -0.27056074 0.19900005 0.28985757 0.25129643 0.09968875
-0.22352682 0.2519582 0.18609796 -0.07800441 0.25154907 0.48955137 0.2509443 0.057988092
-0.046308093 0.054294653 0.26572946 -0.16917564 -0.20319961 0.15314917 0.017500574 0.02582943
0.31894416 0.25656903 0.032835532 0.5002617 -0.049691796 -0.08660111 -0.43147287 -0.30551475
-0.6037598 0.063377105 -0.3634832 0.46417677 0.26512587 0.21195847 0.067858495 0.027764576
-0.090524875 0.09154551 0.17787896 -0.18746594 0.28369874 -0.0031050798 -0.426962 0.27048537
-0.1867746 0.19273223 -0.020400027 0.68386346 -0.028265256 0.472435 0.08523856 -0.10356559
-0.4713923 0.36550218 0.07682369 -0.1736344 -0.21170285 -0.035882305 0.04768597 0.41771662
0.48887852 -0.067685924 0.36123982 0.06656016 -0.2383616 0.23637101 -0.06484622 0.08100327
0.05271109 -0.3255924 0.33118144 0.28683197 -0.053906895 -0.29248887 0.03480407 -0.050254792
-0.12986909 -0.33008465 0.19269158 -0.16473505 -0.23926227 0.13996395 -0.21509121 0.15473123
0.35586554 0.023516664 0.055121887 0.40435153 0.29824698 -0.15516417 0.01190352 -0.09782681
0.21488513 0.039656874 -0.02871546 -0.14552528 -0.28697634 0.16216075 0.010666609 0.40009114
0.13157696 0.14145932 0.02962618 0.2001452 0.042344883 0.12718289 0.07620594 -0.044808943

z.bias f4 [150]
00000000: 8388 053e 713d 8f3d c11b b13d 7fed 7a3d
00000010: 5ebc d73d 72d8 e03d d247 a73e 7852 a93c
00000020: d6a5 073e 2b49 663e ee4d ad3d ff76 04bd
00000030: ad3b 5b3e b7c7 273e bc15 503e aca0 d93d
00000040: 2562 133e dfd9 bd3d 9ac4 933c 7bc4 c73d
00000050: d863 103e 9ae6 703e 35f8 973e 6c6b 763d
00000060: a65a 2e3d ceef b53c a8d9 303e 028e 7f3d
00000070: 110d 183e 9a51 193b 5cad 4f3e 6ae5 f13d
00000080: 5d97 1b3e f5d1 033e 1447 123e c68a 4a3e
00000090: d3f7 ce3e c40b 003e d4b6 433e d4c3 9f3c
000000a0: 99a6 943e 0335 8f3d b76f 653e 8a83 ec3d
000000b0: f2eb f33d 7721 193e 0e3b 1fbc 5ee9 6a3e
000000c0: 8895 613e bded ba3e d903 753e 3487 923e
000000d0: 24f8 e33d 0f55 e33d 076c 023d eb32 5d3e
000000e0: a388 5b3e 3e1b 133e c1a0 1e3e 4289 853e
000000f0: efa0 c5bc 0cd3 ffbc 38fb 723e 2c46 e73d
00000100: 90de 973d 65a9 2b3e e165 8a3e 467f 523e
00000110: e384 243e 3ef2 633e 03c7 673e 8f52 303e
00000120: 9124 f13d b35d 213e 142f 27be 989a 583e
00000130: 05b4 f0bc 4d5e 293e 1581 9f3e 5533 883c
00000140: 1472 e03d 6b30 163d 4f7d 413e 00eb 8d3e
00000150: bf49 1dbe 5f53 a23c f878 013e 8f53 723e
00000160: 9826 db3d e929 ab3d 740e 5a3e 753c 3b3e
00000170: 610e 613c 7a44 b03c 5ac8 e63d 355a 733e
00000180: a626 003e 01ec cf3d 3aeb 883d 9bde 823e
00000190: 1c45 3d3e f7b3 853e 13d8 023e c1c2 963e
000001a0: f844 f33b 3975 1e3e c05e a83d 3570 073e
000001b0: 8a4d 093e 455b 043e c2ef c73d bc9c 403d
000001c0: 43d0 ba3d 7574 753e 5467 623e 8fda afbc
000001d0: a2ee 633e cb53 703e bf59 7b3e 1ab7 213e
000001e0: d320 923d c42d 4d3e 28ff 7a3c bb42 df3d
000001f0: 472d 213e 2154 ce3d 5f49 c03d 27f3 ef3c
00000200: 84c7 453e 480e f43d 8966 6a3e c232 2a3e
00000210: 7ecc 373e 362f d43c e6e0 9e3d 78ef 6a3e
00000220: cdf1 4e3e d6a0 a03e 2abc 033e af47 5b3e
00000230: 60c2 013e 57b8 e03d f666 0f3d 426b dcbc
00000240: 484d 453e e6b7 183b 7f71 9e3d 671c 4a3e
00000250: efd5 a73d 9940 543e
0.13040356 0.06994141 0.08647872 0.06126165 0.10533975 0.10978784 0.32671982 0.020669207
0.13246855 0.22488849 0.084621295 -0.032340046 0.21409483 0.16384779 0.20320791 0.10626349
0.14392908 0.09270071 0.018038083 0.097542726 0.14100587 0.23525468 0.29681554 0.06016104
0.042566918 0.022209074 0.1727053 0.06239129 0.14848734 0.0023394586 0.20280975 0.118113354
0.1519446 0.12873061 0.14284927 0.197795 0.4042345 0.12504488 0.19112712 0.019502558
0.29033354 0.06992533 0.22405897 0.115485266 0.11910237 0.14954172 -0.00971867 0.22940585
0.22029698 0.36509505 0.23927249 0.28618777 0.111313134 0.11100208 0.031841304 0.21601455
0.21438842 0.14365861 0.1549101 0.26081282 -0.02412459 -0.031228565 0.23728645 0.11292681
0.07415497 0.16763838 0.27030852 0.20556363 0.16066317 0.22260377 0.2263451 0.17218994
0.117745526 0.157584 -0.16326553 0.21152723 -0.029382715 0.16539879 0.3115317 0.01662604
0.10959259 0.03666727 0.18895458 0.27718353 -0.15360163 0.019815145 0.12643802 0.23664688
0.107007205 0.08357603 0.21294576 0.18284781 0.013736338 0.021517027 0.11268683 0.2376488
0.12514743 0.10152436 0.06685491 0.2556046 0.18483394 0.26113865 0.12777738 0.2944546
0.007423993 0.15474404 0.08221197 0.13226397 0.13408485 0.12925442 0.09762527 0.047024474
0.09121754 0.23970206 0.22109729 -0.021466522 0.22259 0.23469464 0.24545954 0.15792504
0.07135167 0.2003699 0.015319623 0.109014 0.15739928 0.1007464 0.093889944 0.029290749
0.1931439 0.119167864 0.22890677 0.16620925 0.17949101 0.025901418 0.0775774 0.22942913
0.20209427 0.31372708 0.12864748 0.21414064 0.12671804 0.1097266 0.0350103 -0.026906613
0.19267762 0.0023302971 0.077364914 0.19737397 0.081951015 0.20727767

r.weight f4 [150, 250]
00000000: e063 42be 55ea 5cbd a663 26bd 50de 63bd
00000010: d7dc 383e d7ed fb3d 28e2 87bc ec1d 3c3e
00000020: 5ed0 533e b365 583c 53d7 973d 1b82 be3d
00000030: 10ec c4bc 797b ecbd 62cb d7bc 4e95 7b3d
00000040: 2f68 d33d 851a 603d 9dda 1e3d 5e3b 2bbd
00000050: 5a6d 0e3e fc81 41be a382 b1bd 00f0 10bc
00000060: 7904 6bbe 053f 71be 1971 d2bb 0775 a43e
00000070: e917 cf3c 8124 8a3c 43e9 b13d 0810 02be
00000080: c41e a8bd 0106 1abc 9c2a 92be 5805 87bd
00000090: 659d 443e 0ffd e1bd 677f 203e 4719 b83c
000000a0: 18fa 173d 404c 913d 469b 123e 7813 b13d
000000b0: d2ae 053e 5245 f73b 1060 debd e490 ae3c
000000c0: 0c89 8e3d 5b16 8ebd 2f3c b73d e2f3 ab3b
000000d0: 8b38 5bbc 49fb e3bb ce04 293e c2b6 d73c
000000e0: a9d8 52be d46f 09be 9297 a03d 334c 143c
000000f0: 5b93 183e 7446 203e af71 79bd 4e74 08bc
00000100: 5575 e23d a755 353d 5d2d 63bd e732 24bd
00000110: 7244 943c 8eeb 1bbd 44d2 a4bd 7603 0c3e
00000120: a9d3 3cbe 26af 5f3e e943 b13d b101 2e3c
00000130: 0e94 d2bd a290 95bc 4edb a63c 4fe9 d0bd
00000140: 234f c9bd 122a db3c 5f3c a2be 3d26 9cbd
00000150: 9902 cf3d 7857 bfbd 453f 0f3d fea0 b5be
00000160: 93d9 babb d69d ecbd e0d8 67bb e536 21bd
00000170: 330c 62be 5d4e bb3d 68f3 4dbd 7d18 2ebe
00000180: 2c23 fbbd 6f8e 033e 2d21 f53c 060e dd3c
00000190: 236b b53c ce78 8c3d d056 273d 1c99 f53d
000001a0: 9bbd 95be 42a6 eabd 1dd5 5f3e c1bf 9c3d
000001b0: 029e a8be 0ebe 953d 78fa 473c 2f0b 8abd
000001c0: 9bdb 9e3e 8b07 a3bd d82b 3e3e 62ac bf3d
000001d0: 38f9 f43c 71f8 d33d e15a 1d3d a125 8e3d
000001e0: 7c49 a3be ce9d 093e 279f b4bd 8d24 28be
000001f0: 2781 83be b0a9 e63d 852a dbbd eeef 92be
00000200: 768f d2bc 5dc1 cd3d 3b19 273e 8d85 8f3e
00000210: 0d13 69bc 538d 633e b21f 4abd 7749 d03e
00000220: dfa8 b33a f513 5fbd 79ac d8be a5fd 42be
00000230: 9ff0 483e 435f 7e3e d9b7 febd 3d8e 35be
00000240: 15fa cdbd 7928 ffbd 04b1 3a3e 628e 023e
00000250: 7c4d ae3d 649c d23e eb6c ab3e 8036 5d3e
00000260: 3a92 cabe f52d d43e 5d0d cbbd 3a23 b4bd
00000270: 865d 8b3d 1ba1 9e3e ac46 b63d 3c1b 5f3e
00000280: 1f94 013e e84c 59bd d1cd af3e 998c 76be
00000290: d0e1 bfbd 51de e73e 3bdd 77bc cab0 17bc
000002a0: 86c6 e43d e391 f13d 8216 24bd 76bf 983c
000002b0: cf43 ddbc 5f4b 32be eaeb 923d 74e5 53be
000002c0: 447e f2be 104e c93c 3640 82bd 91ce debd
000002d0: d280 703e 15a6 5fbd d48e be3d 056b 473e
000002e0: f2d9 efbe 6c01 16bd e961 213d abd2 443e
000002f0: 3ad8 813e 8ace 773e e7fe c6be 6dc5 013f
00000300: 2ee0 34bd 3527 c33e d734 85be 8168 483e
00000310: 6780 50be 8f45 7d3e 5382 583e 7896 c6bd
00000320: dbff e23c ed09 a63d 7f52 8f3e 9fba 813d
00000330: dac3 29be 8787 0a3e 8233 ec3d 4e2b 79be
00000340: 07af 6f3e d6cb 66be 8b58 40be 603a b9bd
00000350: e1cf 29bd e5d4 173e e9f0 d0bd 0401 cabd
00000360: 3765 433e 2d9b 50be d959 9c3e 7938 f73d
00000370: 062e 1abe 88ab 00bf e161 35bd 5b0a 1abe
00000380: a9e9 94bc 71bb c13c 502b 7bbd 257d 3dbe
00000390: f1b9 57be 0f2c b13c 281f c83c 278f 923e
000003a0: f75e ad3e a723 c53d 288c 8dbc 7aa6 853e
000003b0: b753 a83a 60bc b63e 74bf fd3d 4f28 89bd
000003c0: 8022 383e 598c a43b d91e febd ee1c 1c3e
000003d0: 239e dcbd a844 3fbd 3a3a cdbd 7740 473e
000003e0: 5418 b63d 2874 dd3d e245 fe3b ea7f 613e
000003f0: f27d bb3d e09f d93d 1838 383e ab66 633e
-0.18983412 -0.053934414 -0.040622376 -0.055631936 0.18052994 0.12301224 -0.016587332 0.1837079
0.20684955 0.013207841 0.07414117 0.093021594 -0.024038345 -0.11546988 -0.026342098 0.061421685
0.10322606 0.05471279 0.038782705 -0.041804664 0.13908902 -0.18897241 -0.08667495 -0.008846283
-0.22950925 -0.23559196 -0.0064221737 0.32120535 0.025279956 0.01686311 0.08687069 -0.12701428
-0.08208993 -0.0094008455 -0.28548133 -0.06592816 0.19200666 -0.11034595 0.156736 0.02247299
0.037103742 0.07094622 0.14317045 0.086462915 0.1305497 0.0075461054 -0.10858166 0.021309324
0.06959733 -0.06937858 0.08947026 0.005247579 -0.01338018 -0.0069574458 0.16505739 0.026332263
-0.20590462 -0.13421565 0.0784141 0.00905137 0.14899962 0.15651876 -0.060899433 -0.00832851
0.110575356 0.044271138 -0.055463184 -0.040087607 0.018099044 -0.03806644 -0.080479175 0.13673195
-0.18440117 0.21844158 0.08655531 0.01062052 -0.102821454 -0.018257443 0.020368244 -0.1020075
-0.09829547 0.02675346 -0.31686684 -0.07624481 0.10107917 -0.09342855 0.034972448 -0.3547439
-0.0057022064 -0.11553542 -0.003537707 -0.039358992 -0.22074966 0.09145806 -0.05028096 -0.17001529
-0.12262568 0.12847303 0.029923046 0.026984226 0.022145813 0.06858979 0.040854275 0.11992094
-0.2924622 -0.114574924 0.2185864 0.07653762 -0.3293305 0.07311641 0.0122057125 -0.06740414
0.3102692 -0.07960423 0.18571413 0.09359051 0.029903993 0.10350121 0.038416747 0.06940771
-0.31892002 0.13439104 -0.088194184 -0.16420193 -0.25684473 0.11262834 -0.10701469 -0.28698677
-0.025703173 0.10046647 0.16318218 0.2803158 -0.0142257335 0.2222188 -0.049346633 0.4068105
0.0013706944 -0.054462392 -0.42319086 -0.1904207 0.1962304 0.24841027 -0.1243741 -0.17730041
-0.10057465 -0.124588914 0.18231589 0.12749627 0.08510873 0.41134942 0.33481535 0.21602821
-0.39564687 0.41441312 -0.09914658 -0.087957814 0.068049476 0.3098229 0.08900198 0.21787733
0.1265416 -0.05305186 0.34336713 -0.24077071 -0.09369242 0.452868 -0.015128429 -0.009258458
0.11170678 0.11795404 -0.040060528 0.018645983 -0.027009873 -0.17411564 0.07173903 -0.20692998
-0.47361958 0.024573356 -0.063599035 -0.10879243 0.23486641 -0.054601748 0.09304586 0.19474418
-0.46845967 -0.03662245 0.039400015 0.19220988 0.2536028 0.24199882 -0.3886635 0.5069187
-0.044159107 0.3811585 -0.26016876 0.19571115 -0.20361482 0.24733566 0.21143465 -0.096966684
0.027709892 0.08107362 0.27992627 0.06334423 -0.16578618 0.13528262 0.11533262 -0.24332926
0.23406611 -0.22538695 -0.18783776 -0.09044337 -0.041458014 0.14827307 -0.102022 -0.09863475
0.19081579 -0.20371695 0.30537298 0.12071318 -0.15056619 -0.50261736 -0.044282798 -0.15043013
-0.018177824 0.02364895 -0.061320603 -0.1850477 -0.21067025 0.021627454 0.024428919 0.28624842
0.33861515 0.09625941 -0.017278746 0.26103574 0.0012842332 0.35690594 0.123900324 -0.066971414
0.1798191 0.0050216136 -0.124082275 0.15245411 -0.1077235 -0.046696335 -0.100208715 0.19458185
0.08891359 0.10813171 0.0077597955 0.22021452 0.091548815 0.10626197 0.17990148 0.22207133

r.bias f4 [150]
00000000: 122b 0c3d ae03 b53d 8213 0c3e b7f6 c83d
00000010: 5016 fcbb 93b7 123c 20bd 273e 144c b83d
00000020: 6c7a 013d 7b96 073e dc45 a43d 4fea 1a3e
00000030: 0deb 383e 801f 653d 7482 0f3d d089 133e
00000040: 9f58 2f3e 4b20 983c 168e 7a3d 8e6b 8f3d
00000050: 36e0 8f3d 3bcd eb3d 0d75 243e 6ef0 8c3d
00000060: 0e78 e93d 2e35 533d c604 ec3d e700 d63c
00000070: 4954 963d 962a e53b 33cf cf3d bdaf fb3d
00000080: cc16 ea3d 126e a73d 5e95 1e3e cef2 eb3b
00000090: fa00 d73d 2e4e b23c ab29 923d 7037 693d
000000a0: 6f0b bc3d 78e8 773d 051d d53d a6fc 2e3c
000000b0: 90ad ca3d 79af 0d3e 6595 a83d cbcc d33d
000000c0: 10d8 c63b 4302 b73d 2ed8 ff3c 1271 723d
000000d0: 98eb 713d ddca ec3c e1c1 cc3d 99a1 0fbc
000000e0: 316c aa3d 2074 143e f0b7 103e 9d25 0c3e
000000f0: 4b11 c03d 51bb d33d bb2a 4c3d b3b3 803c
00000100: 5b84 103d 8a68 3e3d aff0 4a3e 78ce 6c3d
00000110: b278 e23d 8355 063e 8093 d93d 49f3 5c3d
00000120: 6815 113e 348d d03d 4453 033e ad40 503d
00000130: 5c4b 6d3d e161 643c b5f9 c738 4025 703d
00000140: 3a7e fb3d aa6d 0abd 76f1 cb3d 5887 203e
00000150: 92e7 c5ba eaa0 893d e31b c63d 9c0c 103e
00000160: 085a 1f3d 5c55 573d 707d 063c bc7a 2f3e
00000170: 5805 813d 698d 11bd a49a 053d bded b33d
00000180: 8f59 913d 50a0 093e 780b 0c3e 8b3e c9bc
00000190: cbc7 a0bd 4252 663d 17ce c2bc bded b03d
000001a0: f76b ab3d b31e ec3d 2f74 253e f4df 4b3d
000001b0: 789b 283d c083 1d3e b46d 683d 2cc4 8b3d
000001c0: 3a4a 943d d1b6 fb3d 2cd7 263e 149a 4f3d
000001d0: 483b 0fbc 810b f13d f5bb 723d d5de a439
000001e0: 04bd 1d3e 8a21 0a3d 0a7c ea3d 1286 dd3d
000001f0: 174f 6a3d 3e8b df3d 0227 163d 4da5 e13d
00000200: 5bae a43d c4fc 483c 6133 8a3c 43db ed3d
00000210: 98c4 ac3d d895 f03d 116b ff3d df4c 033e
00000220: f593 f33d f16c bc3c 7e4c a93d 67db ad3d
00000230: 35bd d7bc 7593 c43d de92 d53d 9131 983d
00000240: ac78 953d 9cff ee3d ee8e 6bbd cabf b73c
00000250: bfb2 9b3d b2c8 8f3d
0.034220763 0.088385925 0.13679317 0.09812682 -0.0076930895 0.0089549 0.16380739 0.08998886
0.03161089 0.13240997 0.08021137 0.15128444 0.18058415 0.055938244 0.03503652 0.1440804
0.1712365 0.018570086 0.06117066 0.07002936 0.07025187 0.11513754 0.16060276 0.06881796
0.11399852 0.051564388 0.11524348 0.026123477 0.07340295 0.006993602 0.10146942 0.12289379
0.114301294 0.08175291 0.15486667 0.0072005754 0.10498233 0.021765795 0.07136854 0.056937635
0.09181868 0.060524434 0.10405926 0.010680353 0.09896386 0.13836469 0.0823162 0.103417955
0.006068237 0.08935978 0.031231012 0.059189864 0.05906257 0.028905327 0.09997917 -0.008766555
0.08321417 0.14497423 0.14132667 0.13686223 0.09378298 0.10338462 0.04984544 0.015710687
0.035282474 0.046486415 0.19818376 0.05781409 0.11058177 0.13118558 0.106238365 0.053942952
0.14168322 0.10183182 0.12824732 0.05084293 0.057933196 0.013939352 9.535571e-05 0.058629274
0.12279935 -0.03379599 0.099581644 0.1567663 -0.001509892 0.06720145 0.09673288 0.1406731
0.03890422 0.05257164 0.008208618 0.17136663 0.06299847 -0.03553525 0.03261818 0.08785579
0.0709716 0.1344006 0.1367625 -0.024565956 -0.078506075 0.05623079 -0.023779912 0.08639095
0.08370202 0.11529293 0.16157602 0.049774125 0.04116389 0.1538229 0.056745246 0.06824526
0.0724072 0.12290729 0.16293019 0.05068405 -0.008742161 0.11769772 0.05926128 0.0003144654
0.15404135 0.03372339 0.1144944 0.108165875 0.057204332 0.1091523 0.036658294 0.11017857
0.08041068 0.012267295 0.016870202 0.116140865 0.08435935 0.117473304 0.12471593 0.12822293
0.11893455 0.023001166 0.08266543 0.08489113 -0.026335338 0.09598438 0.10428403 0.07431329
0.07298407 0.11669847 -0.057509355 0.02243032 0.076024525 0.070207015

h.weight f4 [150, 250]
00000000: bacf f6be 9a79 5fbe 8d1b b3be 667f b93d
00000010: 8d3f b9bd 2ae6 e03d d26f 9fbd 7161 2b3e
00000020: a790 a2be cb57 703e 916f 56be 6294 3fbd
00000030: 22ea 13bb 7654 35be 2277 15be a7e3 453e
00000040: 2fa5 cfbe 883e d4bc de9e 263d 3224 9e3d
00000050: dc0d e7bc f309 d73c 3cbd 97bd 0df8 393c
00000060: b6d5 debd 49ae 1b3d e45d b13d fb6b 843d
00000070: bdb2 d5bd 3b64 9b3c 96d6 733e 0fef 7cbd
00000080: 3a5b 8c3d 484e 1cbc 3d2f f0bd f815 363d
00000090: 7556 4bbe 172d 42be d8d5 983d 0a55 77be
000000a0: 2831 f53d b786 6f3d 1f42 c4be ad31 8abb
000000b0: 421a 483e a754 85be 715e 0dbe 9819 2b3d
000000c0: d5da 9fbd add3 c63d a37c adbc b0d4 853c
000000d0: c846 573e ce72 5dbc 0aca bfbe bbd4 d2bc
000000e0: 23d7 c0bd e0cf 773e 460b 923e 2e28 283e
000000f0: 91ba 923d 3c2a 883d 5805 fd3d 9ab9 01be
00000100: 2955 38be 659d 6a3e 5668 3ebe de20 473e
00000110: 7681 68be 8ca8 cc3c cd6d 67be 9f36 153e
00000120: a638 243e d436 6cbe f2bf 05be f6a1 8ebd
00000130: 304e 2abd 4bed bb3d 587f db3d e292 123e
00000140: 7690 15be 9e22 703c b2bb 35be 8b21 263d
00000150: 6bd2 3f3c 21b2 01be d785 10be c4db eebb
00000160: d644 3fbe 3fd5 79bb ba5a 5fbe 6969 343e
00000170: a38a 89bd 9589 033e 58b9 50bd 541b a33e
00000180: 52d3 b4be 5919 833c 2fc8 9cbe fe8b 49be
00000190: 4040 5ebe 43f0 563c 07f5 7a3e 3dc0 84be
000001a0: 170b 593e f5c0 bc3e 36c2 3fbd b63b 8d3e
000001b0: 292c 09bd 5b2b c1bd 0441 543d 727c 293d
000001c0: 601e 80be 0e25 c73d 5b78 cebc 65a1 1c3e
000001d0: 0870 a63d 15c9 8a3e 45bc 93be 80a8 153e
000001e0: 5c91 08bf 004c 8e3c 543c 153d b0ad 73be
000001f0: aca0 86be 3bf5 183e 43ab 0d3e 3a55 20be
00000200: b5b0 8bbe fda6 02be 9ae5 26bb 335d 4b3d
00000210: d5f1 563d 3365 bebe 072a 8abe bea5 163e
00000220: 876e 93bd 9e09 c6bb 23ee 9abd a242 8d3e
00000230: e0b5 b73e 9389 0f3e a849 ad3d 62bc 963d
00000240: cd4b 2e3d 29c1 adbd e160 053e 09c5 7d3e
00000250: ab74 6e3d dcb6 58be ed38 4f3c ed8b 94bd
00000260: d5c9 5cbe d0b5 48bd 3821 8fbc 9066 b2bc
00000270: 2a9f 2f3e 43d5 87bc a75b 883d b3d1 af3d
00000280: 0461 24be 4dfb 8fbd aeca 43bd 9d5e 17be
00000290: 5aad 8fbd dea9 d63d e74a f1bc 4d1e 3a3e
000002a0: d905 f0bd ebcc 433b ecb2 c9bc 51ca a53c
000002b0: 2c71 273d d72e 673e 334f 36bd 6dbd 303c
000002c0: b9ba 6f3d c741 5b3d ceca 0ebe 1bb3 fa3d
000002d0: 4a75 143e 58a0 423d b8ba 13be 1b39 da3b
000002e0: 8a13 3e3d 0247 d5bd d9bd 8fbd 916e 91bd
000002f0: e338 0a3e c83a 4abe dad8 1d3e e475 653e
00000300: d64d aabd b7fb 983d f0a8 933e c4ec 65bd
00000310: 09f0 89bd 47d2 e73d 4219 053e c15a 3c3d
00000320: 0c7c 88bc 761d 763c 1297 efbc 98c1 c33d
00000330: dc76 d23d 4c9a b9bc de2a 46be 466b 4f3d
00000340: a350 cdbd 1652 f1bd 42a4 e9bd bca3 633d
00000350: a1e3 d3bd 6a78 41bd ade7 cd3c b2b7 493b
00000360: 259f ae3d 1366 35bd 34d8 c73d 4f86 383d
00000370: 9be9 65bd f7f8 7c3d 0dcc 273d 91a6 893c
00000380: f799 c93c 9701 b53d c90d bd3c 4eee 083e
00000390: 683d f13c 73ca e23c 5918 103d 43d1 f13d
000003a0: ba78 93bd e38e 833c 0b28 e9bd 0947 db3d
000003b0: 8a9f 18bc 37b2 2dbe e553 9b3c 1e81 31be
000003c0: 7ab7 f5bd 349b 913e 61d1 cfbc bacf 603d
000003d0: 64b0 a23d 1b1f 60be 09cc 00bd b20b c8bd
000003e0: e5ea 33bd 1cba 81bb a09e bf3c 6d90 ba3d
000003f0: a78e ccbe 16e0 94bd e425 8cbe fe6b cb3d
-0.48205358 -0.21823731 -0.34981957 0.090575024 -0.090453245 0.109814 -0.07785 0.1673639
-0.31750986 0.2347099 -0.20940997 -0.04677237 -0.0022569974 -0.17708 -0.14596227 0.19325124
-0.40555713 -0.025908723 0.04067885 0.077217475 -0.02820485 0.026249861 -0.074091405 0.011350644
-0.10880606 0.03800801 0.08660486 0.06465908 -0.10434482 0.018968692 0.23812327 -0.06175142
0.068533376 -0.009540148 -0.1172776 0.044454545 -0.198572 -0.18962513 0.074626625 -0.24153534
0.119722664 0.058478083 -0.38331696 -0.0042173476 0.19541267 -0.26041147 -0.13805558 0.041772455
-0.07805411 0.09708343 -0.021177595 0.016336769 0.21023095 -0.013516141 -0.3745883 -0.025736203
-0.09416034 0.24200392 0.28524226 0.16421577 0.07164491 0.066486806 0.12354535 -0.12668458
-0.18001236 0.22911604 -0.18594489 0.19446132 -0.22705635 0.024982713 -0.2260048 0.14571618
0.16037235 -0.2306779 -0.13061503 -0.06964485 -0.04157847 0.091761194 0.10717648 0.14313844
-0.14605889 0.014656691 -0.17747381 0.040559333 0.011707882 -0.12665607 -0.14113556 -0.0072893817
-0.18678603 -0.003812149 -0.21811953 0.17618336 -0.06715896 0.12845452 -0.050958008 0.31856787
-0.35317475 0.016003298 -0.30621478 -0.19682309 -0.21704197 0.013118806 0.24507533 -0.25927916
0.21195637 0.36865965 -0.046816073 0.27584618 -0.03348938 -0.094320975 0.051819816 0.041378446
-0.25023174 0.097238645 -0.025203874 0.15295942 0.08126837 0.27106538 -0.28854576 0.14615059
-0.533468 0.017370224 0.036434487 -0.23796725 -0.26294458 0.14937298 0.13834862 -0.15657511
-0.27283254 -0.12759013 -0.0025466443 0.04964943 0.052476723 -0.37186584 -0.2698519 0.14711663
-0.07198816 -0.006043627 -0.07564952 0.275899 0.35880947 0.14017324 0.084613144 0.0736015
0.042552758 -0.08484108 0.13025238 0.24782194 0.058216732 -0.21163505 0.0126478495 -0.07253251
-0.21561368 -0.049001515 -0.017471895 -0.021777421 0.1715056 -0.016581183 0.06658106 0.08584919
-0.16052634 -0.07030354 -0.047800712 -0.14782186 -0.07015486 0.10481618 -0.029454662 0.18175621
-0.11719865 0.002987678 -0.02462145 0.020238074 0.040879413 0.22576462 -0.044509124 0.01078735
0.058527682 0.053529527 -0.13944551 0.12241193 0.14497867 0.047516197 -0.14426696 0.0066596395
0.046405353 -0.10413934 -0.070186324 -0.07101167 0.13498263 -0.19748986 0.15414754 0.22408253
-0.08315627 0.07469886 0.28839827 -0.056134 -0.06735236 0.11319404 0.12997916 0.045984987
-0.016660713 0.0150216725 -0.02924684 0.095584095 0.10276577 -0.022656582 -0.1935229 0.050639413
-0.10025146 -0.11783235 -0.11408283 0.05557607 -0.10346151 -0.047233976 0.025134886 0.0030779657
0.08526448 -0.0442868 0.09758034 0.04504996 -0.056130987 0.06176087 0.040966082 0.016803058
0.024609549 0.08838194 0.023077862 0.13372156 0.029448226 0.027684426 0.03517947 0.11807492
-0.07200761 0.016059345 -0.11384591 0.10706908 -0.009315381 -0.16962515 0.018960902 -0.1733441
-0.11997886 0.28438723 -0.025368394 0.054885603 0.079438 -0.21886866 -0.031444583 -0.09767856
-0.043925185 -0.0039589535 0.023391068 0.09109578 -0.39952585 -0.072693035 -0.27372658 0.09932707

h.bias f4 [150]
00000000: 76cf b03c b7af b3bb 8fe7 b2bd 034c d53d
00000010: 9389 8fbc c94b 4d3b 910a 8cbd 336f 0fbc
00000020: 884e 0c3d ca9e 74bd d044 cdbc 6867 ee3d
00000030: f8f1 d3bc 741b c63d ae99 bebc 43a5 56bd
00000040: 447a 513d c4dd 3e3c bc14 afbc a2f3 3a3c
00000050: 281a b9bd ca02 c5bd 02cb eabd 52ff 543d
00000060: baa3 91bd dd17 0f3d 1197 e43d 256c 883c
00000070: 70a8 70bd f989 09bc a3d8 193d bdf8 acbc
00000080: e006 393d 9cb5 8abd 249e db3d ec01 0b3e
00000090: e1e8 a1bd a155 cf3d ff90 8cbc 25fe 1ebc
000000a0: eb75 7c3d 1013 843c 6bb8 363d 52f5 853c
000000b0: d70a 2fbd 10ef 683c cdca be3d c992 d03c
000000c0: fe1b 4e3d 5d5d 253d f463 d33c f6ca 2cbd
000000d0: d8d8 393d cfd4 943d 8db3 a83c 0562 aebc
000000e0: 74a2 963d eff7 053e 456d e0bd e180 5ebd
000000f0: 503c 2bbd b548 35bc d47e 5b3d 5d94 b83d
00000100: c3ba ba3c 123f 713b a42c 8d3c 97e5 4ebd
00000110: cec5 91bc 4f26 a8bc f3cf 893b fc85 ef3d
00000120: a984 a43d d6bd af3d fb02 36bc f74c 3d3c
00000130: 8d23 afbd 70c5 323d 3276 f73b 6102 b43c
00000140: af0e ae3d b2bd 7a3d ea08 243d 949f 823c
00000150: b79e 1b3d 4b1a f33d df95 403c f82a 503d
00000160: f23f 1c3d 94f0 923d 7499 b1bd 2f9d 39bd
00000170: 8e36 86bd d50a c9bd 71fc a2bd ade8 5bbd
00000180: 417f eb3d 6cca 903d 8c7e 93bc 77cc b0bd
00000190: 72ef 463d d0bd b03d 2cf4 7c3d d9cc d0bc
000001a0: a61d 593c a6e8 6cbd 97dd c8bb a9e0 8c3d
000001b0: f4c0 713d 3a32 163e 0dfc 3ebd 26d7 cb3c
000001c0: 8878 e9bc 8c32 16be 75dd 2ebd 497c d3bd
000001d0: 3138 49bd 1549 f13d aa39 843d 0595 91bd
000001e0: 417e 373d ebb1 44bd 63f3 cabc 8130 5b3d
000001f0: f9a7 e13d 52fe e3bd 9098 15bd 1930 e5bd
00000200: f7bc 0b3d 801e 0d3d e9ad ccbd ba82 b43d
00000210: 776b acbc d45d de3d 4d39 0fbc b9d4 16bd
00000220: 9244 d7bc f1c8 de3d 5e8e 34bd 4479 5a3b
00000230: d611 313c 4f84 89bd f474 883c 2e2f 093d
00000240: 8fc0 adbc f2b3 683d e764 b0bc 99bd 823b
00000250: 4717 bebd 5198 763d
0.0215833 -0.0054835933 -0.087355725 0.10414889 -0.017521655 0.003132569 -0.06837953 -0.008754539
0.03425458 -0.059721746 -0.025057226 0.11640817 -0.025872216 0.09673205 -0.02326664 -0.0524037
0.051141992 0.011649553 -0.021372192 0.011410626 -0.09038192 -0.096196726 -0.11464502 0.052001305
-0.071113065 0.034934867 0.11161626 0.01665313 -0.058754385 -0.008394712 0.037560116 -0.021114701
0.045172572 -0.067729205 0.10723522 0.13574952 -0.07905746 0.10123754 -0.017158983 -0.009704147
0.061635893 0.016122371 0.04460947 0.01635233 -0.042734947 0.014217153 0.09316025 0.025460618
0.050319664 0.04037224 0.025804497 -0.042185746 0.045372814 0.072671525 0.020593429 -0.021286974
0.07355204 0.1308286 -0.109583415 -0.054322127 -0.041805565 -0.011064698 0.05358775 0.09012673
0.022794133 0.0036811274 0.0172332 -0.050511923 -0.017794516 -0.02052608 0.0042056977 0.11695477
0.080331154 0.0858113 -0.011109109 0.011553994 -0.08551703 0.043645322 0.007551932 0.02197379
0.084988944 0.061216064 0.040047564 0.015945233 0.03799316 0.11870249 0.011754482 0.05082223
0.03814692 0.07174793 -0.08671847 -0.045315918 -0.06553374 -0.09816519 -0.079583056 -0.053688694
0.11498881 0.07069859 -0.018004678 -0.086327486 0.048568197 0.08629954 0.061756298 -0.025488304
0.013251698 -0.05783906 -0.006129931 0.06878788 0.059021905 0.14667597 -0.046627093 0.024882864
-0.028499857 -0.1466772 -0.042691667 -0.1032644 -0.049125854 0.117815174 0.06456311 -0.07108501
0.04479814 -0.04802124 -0.024774259 0.053513054 0.11018366 -0.11132492 -0.036522448 -0.111908145
0.034115758 0.034452915 -0.09994108 0.088139966 -0.021047337 0.1085774 -0.008741689 -0.036823962
-0.026277814 0.1087817 -0.044081084 0.003333644 0.010807475 -0.06714689 0.01665733 0.03349226
-0.021209983 0.056812234 -0.021532489 0.003989887 -0.092817836 0.060203854

out.0.weight f4 [97, 150]
00000000: 3193 f13d e32c cbbc ae40 e6bc c2b2 03bd
00000010: 7439 6cbd 5646 c93d 0c1c 00be 3b82 1bbe
00000020: ced5 853b a470 be3d 8bc5 fd3c e21f b2bd
00000030: 17ab f8bd ee76 03be d894 09be fa1e 793c
00000040: c283 bb3d 870c 9fbd 02e0 60be 2697 db3c
00000050: 5b3f 2d3e 8427 1e3d 16b5 d63d 49c8 3cbe
00000060: c818 433e 56e4 e3bd fae5 b3bd a388 23be
00000070: 48b6 653d ebd9 0cbe b415 b0bd 3109 da3d
00000080: efc6 0c3d 502d 09bd 4fa9 79bd c6fc 36be
00000090: ef6a 383e 29f2 93bd b52f 543e 82b4 8f3d
000000a0: 5186 aebd 5d16 6cbd e631 303d 307d 223d
000000b0: 3dab 093d ff2a 173d a256 11be ac32 3a3e
000000c0: cf75 97bd bfcf 98bd dc3a 48be e9f0 f53d
000000d0: d596 173d cdb6 3cbe f975 10bd 7ccd a9bd
000000e0: 215d 20bd 4943 52bd a1ed d63d 1907 3dbd
000000f0: 48b5 d93d 425a 343e dca5 abbc 9039 b4bc
00000100: 5673 30be a29a 02be 1f41 b23d 3fd5 113e
00000110: d9e4 0cbe c493 06bc d3d3 8cbc 6b75 43be
00000120: a25c 01be d4cf d53d 811f 1f3e d748 5d3e
00000130: 344e d43d b9ca 0abc 9dbe e03d 2c3b 16be
00000140: acb6 20be c576 c1bd 1353 04be f737 08bd
00000150: 25ab fdbc 0ce6 31be c59a 9d3d 5965 c4bd
00000160: 5612 16bd aab6 f0bd 40c7 2a3e 6d83 d63d
00000170: 54f9 5d3e 82f2 743d 28f6 f93d 5548 3dbd
00000180: b56c 5cbd 5666 74bd 852d 653e b87a e23d
00000190: 4c79 473d 77ef 89bd a33d 31be c967 233d
000001a0: 853e c43c 69cd 6b3d 88b5 5abc 7c3d 34bd
000001b0: 49dc 24bd fc52 1fbe 359e 383e 895a 58bc
000001c0: d7aa 163e d0cb f93d 530a 19bd 792b 093d
000001d0: f0c2 ab3c 2f83 a3bc 25be d1bd c241 b23d
000001e0: 5c0c d1bd b193 d93d fdbf bf3d 5143 0bbe
000001f0: 6690 15be 2692 133e 5341 08be 3f36 0b3e
00000200: d099 c73d d7d7 ecbd 0aa1 d33c be48 1fbd
00000210: 4294 dbbc 7783 42be f3e3 d3ba cb79 bf3d
00000220: 3bff fa3d ed17 03be 4fa4 fd3c d4e9 bebd
00000230: ce40 bdbd 5bfe c23c 84bc 30be 7992 2abe
00000240: 7a96 983d 1a22 82bd 1459 f33d e750 12bd
00000250: b726 063e 0002 26bd 82f0 503e 5e1c 883e
00000260: de18 673c 6fa5 7ebe bd0e 3cbe 3f51 3bbe
00000270: ade0 323e f78d 063d e368 57be bab0 47bd
00000280: 7199 36be ff53 2d3d 6346 40be 1532 47be
00000290: 31ad 8bbd 6772 5bbe 6c85 973d 2399 53be
000002a0: 6709 6cbe ee97 583d 4838 843e ddcb 553e
000002b0: a97c 00be 0f31 2bbe 3aae 863d 0dfa f4bd
000002c0: 7fb8 67be d4e9 c2be b1ca 543e 3a49 7ebc
000002d0: 5588 6cbe 5f1b 193d 48bc 813e 289a 3e3e
000002e0: b7c3 b43d e7c1 6bbe a009 613e 13b1 3fbe
000002f0: 26a7 6e3e bb22 5ebe 5c5c 67be 2a01 9cbe
00000300: ef23 08be d7c0 8a3e 486c 63be e921 85be
00000310: 3bef 0b3d a46e 26be e19b a5be 218e 6abd
00000320: ee09 6ebd 992e 343e 96dd bebd 0e2f b7bd
00000330: 0c34 483e b793 42be d729 94bc 62d4 793e
00000340: 7e0e 31be d300 48be 07e6 6fbe 297b 743d
00000350: b27c 253e 2e52 6cbe 5321 5e3d 65e3 15be
00000360: 37ef a43a c142 1f3e 7731 58be 0a1f 1ebe
00000370: 647e 42be 7f19 f03d fb51 8c3d cc1b f7bd
00000380: b7ce 86bd 1b0b 293e 97e1 483e 486f 99be
00000390: fbc3 543e 73b9 e3bd 6d05 563d bcae 42be
000003a0: 02ae 483e a522 9bbd ee69 663d df4f cbbd
000003b0: daf3 903d 1df6 79bd 6873 5bbe f9f0 54be
000003c0: 420a 833e 30cc 78be bb5e 303e fb00 23be
000003d0: f19a d5bd c1c3 b43e cfe1 4dbe 9c00 49be
000003e0: 079e 6fbd cebd 6e3e 832e 2bbe 1bca f63d
000003f0: aab2 8a3c 2a16 593e 463b 993c 40ab bdbd
0.11795653 -0.024801677 -0.028107014 -0.0321529 -0.05767198 0.09827869 -0.12510699 -0.15186398
0.0040843254 0.09298828 0.030977985 -0.086974874 -0.12142008 -0.12838337 -0.13435686 0.015205139
0.0915599 -0.07766061 -0.21960452 0.026805472 0.169187 0.038611904 0.10483758 -0.18435778
0.19052422 -0.11127536 -0.08784099 -0.15970092 0.05608204 -0.13755004 -0.085978895 0.10646284
0.034369405 -0.03349048 -0.06095248 -0.17869863 0.18009542 -0.07223923 0.20721324 0.07016851
-0.085217126 -0.057638515 0.043016337 0.03967017 0.03361057 0.03690624 -0.14193204 0.18183392
-0.07395517 -0.074614994 -0.19553703 0.120088406 0.03700908 -0.18429108 -0.035268757 -0.08291146
-0.039151315 -0.0513337 0.10494543 -0.046149347 0.1063028 0.17612556 -0.020953111 -0.022000104
-0.17231497 -0.127543 0.08703827 0.14241503 -0.13759173 -0.008213941 -0.01719085 -0.1908776
-0.12632993 0.10440031 0.15539362 0.21609817 0.103664786 -0.008471184 0.109738566 -0.1467101
-0.15694684 -0.094464816 -0.12922315 -0.033256497 -0.030965397 -0.17372912 0.076955356 -0.09589643
-0.03663858 -0.117535904 0.1667757 0.10474286 0.21677142 0.059801586 0.12205154 -0.04621156
-0.05381461 -0.059667908 0.22380646 0.11058563 0.048699662 -0.067351274 -0.17308669 0.0398939
0.023955593 0.05756894 -0.0133489445 -0.04400395 -0.040249143 -0.15559 0.18029101 -0.013205179
0.14713608 0.12197077 -0.03736336 0.033488724 0.020966977 -0.019960014 -0.10241345 0.087039486
-0.102074355 0.10623873 0.09362791 -0.13599898 -0.14605865 0.1441122 -0.13306169 0.13594912
0.09746134 -0.11564606 0.025833625 -0.03888773 -0.026804093 -0.18995462 -0.0016165957 0.09349402
0.122557126 -0.12802096 0.030962138 -0.09321943 -0.09240876 0.023802927 -0.17259413 -0.16657437
0.07450576 -0.063541606 0.11882225 -0.035721686 0.13100706 -0.04052925 0.20404246 0.26584142
0.01410505 -0.24867795 -0.18364997 -0.18292712 0.1746852 0.032850232 -0.21036105 -0.048752524
-0.17831971 0.042316433 -0.1877685 -0.19452699 -0.06820143 -0.2143036 0.07398495 -0.20663886
-0.23050462 0.052879266 0.2582419 0.20878549 -0.12547554 -0.16717933 0.065762 -0.11961756
-0.22628973 -0.38069022 0.20780446 -0.015520388 -0.23098882 0.03737962 0.2533896 0.18613493
0.08826392 -0.23023187 0.21976328 -0.18719892 0.2330595 -0.21692936 -0.22593826 -0.30469638
-0.13294958 0.2710025 -0.22209275 -0.26002434 0.034163695 -0.16253144 -0.3234549 -0.05726445
-0.05811494 0.175959 -0.09319608 -0.08944522 0.19551104 -0.19001661 -0.018086357 0.24397424
-0.17290685 -0.19531564 -0.23427592 0.059687767 0.16160849 -0.23078224 0.054231 -0.14637525
0.0012583499 0.15552808 -0.2111262 -0.15441528 -0.18993527 0.11723613 0.06851574 -0.12065849
-0.065823965 0.16508143 0.19617306 -0.29967713 0.20777886 -0.11119356 0.05225127 -0.19011968
0.19597629 -0.07574967 0.056253366 -0.099273436 0.07077761 -0.061025728 -0.21430743 -0.20795049
0.25593764 -0.24296641 0.17223637 -0.15918343 -0.10429943 0.35305598 -0.2010567 -0.19629139
-0.058500316 0.23314592 -0.16716962 0.12050267 0.016930897 0.21199861 0.018705022 -0.09261179

out.0.bias f4 [97]
00000000: ad87 f2bd 9d8d c0bd d3b5 863c db61 93bc
00000010: 3f66 c83b 8c8c f0bb 82ee 773c 193f 233d
00000020: 6caf f33d a0de 533b f10b ee3b b069 343d
00000030: b08d 19bd aeec 343d 250a 843c 14cf 003c
00000040: 5304 043e 095a dcb9 a7a6 b5bc e6cf 243d
00000050: ec6c 7b3d 8be7 1b3d 52fb 063e 5a41 843c
00000060: 42fb 7cbd 05ea c5bd 89ff fd3d 194e 1cbd
00000070: 3e4a c1bd 3d8f 1fbe 62b5 3ebb 42fe e5bd
00000080: e0f0 02be f621 0fbe c18a 17be b0fd f0bd
00000090: 9492 fd3c 9bda 9dbc 486e c8bc e531 0bbe
000000a0: 2e43 97bd fd14 fe3c 96a1 cbbd 183d 78bc
000000b0: 5fe3 8cbd 6527 fbbc fd29 9cbd 7520 09bd
000000c0: e639 bebd cf31 0abe 4465 e0bc 99ad 2bbb
000000d0: 68ea e4bb 4e4a 0dbe 80c1 70bd 1d99 1fbd
000000e0: d2f0 11be d052 e2bc b143 9ebd 6851 66bd
000000f0: 95ba 463d c3ef 83bd 0010 11bd 93ec efbd
00000100: cc77 52bd dc6b f73d 7745 08bd fced ff3d
00000110: 2448 60bd 460d 19bb 3816 9dbc 850c 14bd
00000120: 371a c1bb a3a6 27be 883e 94bc 8909 7abc
00000130: 129a 15bd f189 f8bd 34d7 3fbd 9f51 1abd
00000140: d5ce f2bd 8c36 29be d16b e2bd 5e29 3bbd
00000150: 1071 1cbe f978 71bd 0457 32bd 9c1f 91bd
00000160: 8fbc ffbc 095c fdbd 993b 9cbd 1e44 e6bd
00000170: 87ef 10be 7406 c2bc 9fcc 5bbd 38cc b1bd
00000180: 1f94 2fbd
-0.11842284 -0.094020106 0.016444122 -0.017990997 0.0061157043 -0.0073409732 0.015132548 0.039855096
0.118986934 0.003232874 0.007264607 0.044046104 -0.03748864 0.044171028 0.016118119 0.007861871
0.12892275 -0.0004202875 -0.022174193 0.04023733 0.061383173 0.038062613 0.13181809 0.016144443
-0.061763056 -0.09663776 0.12402255 -0.038160417 -0.09437989 -0.15581985 -0.0029099812 -0.112301365
-0.12787199 -0.13977799 -0.14799024 -0.11767137 0.030953683 -0.019269278 -0.024466649 -0.13593252
-0.073858604 0.031015867 -0.099429294 -0.015151285 -0.06879305 -0.030658433 -0.07625196 -0.03347822
-0.09288387 -0.13495563 -0.027392037 -0.0026196002 -0.006985951 -0.13797876 -0.058778286 -0.03896438
-0.14252022 -0.027627379 -0.07727755 -0.05622998 0.048517782 -0.06442215 -0.03541565 -0.11715045
-0.05138378 0.120811194 -0.03326937 0.12496564 -0.0547563 -0.002335386 -0.019175634 -0.036144752
-0.0058930176 -0.1637216 -0.018096223 -0.015261062 -0.036523886 -0.12135685 -0.046836093 -0.037675496
-0.11855856 -0.16524714 -0.110557206 -0.045693748 -0.15277505 -0.05895326 -0.043540016 -0.07086107
-0.031217841 -0.1237107 -0.07628555 -0.11243461 -0.14153872 -0.023684718 -0.05366194 -0.0868153
-0.04286587
