tme4/lightning_logs/version_25/checkpoints/epoch=0-step=5202.ckpt (torch, 20817 bytes, 20 tensors)

exp_avg f4 [30, 1]
0	0xba39dd37	-0.00070901535
1	0xb6157c52	-2.2275094e-06
2	0x39f166a0	0.00046043564
3	0xb9aed77c	-0.00033348415
4	0x3a3147da	0.0006762721
5	0x379940a6	1.8269126e-05
6	0xb95aac13	-0.00020854203
7	0x3979cc6e	0.00023822646
8	0x3912fcbb	0.00014017794
9	0x373d4a61	1.1282596e-05
10	0xb9c2cfcc	-0.00037157384
11	0x3a1a553f	0.00058873364
12	0xba16b755	-0.00057493645
13	0xb8a94450	-8.071272e-05
14	0x3a2aef30	0.0006520627
15	0xb9d6feff	-0.00041007248
16	0x3a06b79d	0.0005139055
17	0xb9b38c34	-0.00034246
18	0xb99a3f97	-0.00029420547
19	0x3a256162	0.00063087617
20	0x39aaaba0	0.00032552797
21	0x3a2f5d5c	0.0006689632
22	0xb81d5e5c	-3.7519596e-05
23	0xba50552d	-0.00079472625
24	0xb68c7a5b	-4.186569e-06
25	0x3966b945	0.00022003528
26	0x3a57f347	0.000823785
27	0xb982a8d1	-0.0002492131
28	0xb7ea58fa	-2.7936407e-05
29	0xb70cecac	-8.399755e-06

exp_avg_sq f4 [30, 1]
0	0x36d3add1	6.308525e-06
1	0x353d6fa7	7.057046e-07
2	0x35c54f4a	1.470072e-06
3	0x36af664d	5.227316e-06
4	0x36ae00eb	5.185711e-06
5	0x355e7667	8.287374e-07
6	0x34c9fd26	3.7623357e-07
7	0x356192a1	8.4032405e-07
8	0x36f971d2	7.4340287e-06
9	0x35bd23bc	1.4091997e-06
10	0x35e4de3b	1.7052001e-06
11	0x36e30d19	6.766652e-06
12	0x368f87a2	4.277522e-06
13	0x34a74ede	3.1163557e-07
14	0x36a00e80	4.7700596e-06
15	0x3670ccd4	3.5882013e-06
16	0x36c44d38	5.8502446e-06
17	0x369e9336	4.7259045e-06
18	0x36244ea0	2.448367e-06
19	0x36a00f8c	4.7701815e-06
20	0x3564ac4c	8.5187344e-07
21	0x3698c57a	4.5529423e-06
22	0x3553ffb0	7.89757e-07
23	0x36dcefb3	6.5844156e-06
24	0x3527407b	6.230618e-07
25	0x3586d5e6	1.0046031e-06
26	0x370c9a83	8.380625e-06
27	0x3608605b	2.0321665e-06
28	0x35f7d343	1.8464419e-06
29	0x34559e1a	1.9894688e-07

exp_avg f4 [30]
0	0xba4d750f	-0.00078375725
1	0x369c7be6	4.663586e-06
2	0x39ee4fd6	0.0004545438
3	0xba3659b5	-0.00069561164
4	0x3a562d03	0.00081701594
5	0x3866ee95	5.505847e-05
6	0xb8a41cab	-7.825469e-05
7	0x38d6e152	0.000102462844
8	0x39ba30d3	0.0003551306
9	0xb81a8e24	-3.684884e-05
10	0xba058aaf	-0.0005094213
11	0x3a4c3569	0.0007789941
12	0xba1d9eff	-0.0006012767
13	0xb98a0254	-0.00026323146
14	0xb90261b4	-0.00012434163
15	0xba487709	-0.0007647132
16	0x3a7927bc	0.0009504517
17	0xba8cd80a	-0.0010745537
18	0xba3340e5	-0.0006837978
19	0x3a2f13ec	0.0006678689
20	0x390b3df5	0.00013279154
21	0x3a35178f	0.00069081126
22	0xb9f4dad9	-0.0004670236
23	0xba6d5d23	-0.0009054711
24	0x37d6bb17	2.5597908e-05
25	0x39e514e0	0.00043693837
26	0x3a55cd41	0.00081558904
27	0xba236d7c	-0.0006234271
28	0x380c734d	3.3485983e-05
29	0x381aa17a	3.6866848e-05

exp_avg_sq f4 [30]
0	0x376cf281	1.41231585e-05
1	0x342a08e9	1.5835725e-07
2	0x36536af2	3.15037e-06
3	0x377e6231	1.5162442e-05
4	0x3771d414	1.4414098e-05
5	0x34c0d23c	3.5915753e-07
6	0x35a7aaa0	1.2492128e-06
7	0x363afc5f	2.786306e-06
8	0x36ca7760	6.033966e-06
9	0x35816cb0	9.642881e-07
10	0x366d6474	3.5374223e-06
11	0x376f465b	1.4261891e-05
12	0x3725056c	9.836029e-06
13	0x35dbca6a	1.6375682e-06
14	0x364c6bbb	3.0461076e-06
15	0x375b7497	1.3080563e-05
16	0x37b3f738	2.1453583e-05
17	0x37da275d	2.6005955e-05
18	0x3765d348	1.3698656e-05
19	0x37310834	1.0551932e-05
20	0x360599b9	1.9908023e-06
21	0x36ed807b	7.0781075e-06
22	0x37129a0f	8.738148e-06
23	0x37aedcbb	2.0845202e-05
24	0x3504b9ed	4.944439e-07
25	0x36c346e6	5.8197065e-06
26	0x370c2da8	8.35528e-06
27	0x3740ed4b	1.1499341e-05
28	0x35717e6c	8.9963464e-07
29	0x3405dda8	1.2467228e-07

exp_avg f4 [30, 30]
0	0x3a28ac76	0.000643439
1	0xba4d5ab7	-0.0007833647
2	0xba44c5b4	-0.00075062667
3	0x3a196faf	0.0005853129
4	0xba3392ca	-0.00068501814
5	0xba3e62eb	-0.0007262665
6	0x394bc857	0.00019434221
7	0xb9457a71	-0.00018832997
8	0xba39e5eb	-0.00070914504
9	0x3a49b53c	0.00076945475
10	0x3a23cd77	0.0006248573
11	0xba2526ea	-0.0006300049
12	0x39de5f7a	0.00042414275
13	0x38d13ede	9.9776065e-05
14	0xb90a1753	-0.00013169395
15	0x39ba72b0	0.00035562133
16	0xb9d59360	-0.0004073633
17	0x39a059c7	0.00030584467
18	0x39991224	0.0002919595
19	0xba32b045	-0.00068164273
20	0xb925c309	-0.00015808282
21	0xba47b528	-0.0007618242
22	0x38e5cfd7	0.00010958284
23	0x3a17ee69	0.0005795719
24	0x3a28fe80	0.0006446615
25	0xb9cdbae6	-0.00039239897
26	0xb9ff206c	-0.00048661546
27	0x394f96bb	0.0001979721
28	0xba49e36f	-0.0007701432
29	0xba4a1f4b	-0.00077103515
30	0x36969562	4.487739e-06
31	0x3699ac6f	4.5798292e-06
32	0xb60e7c1c	-2.123189e-06
33	0x3699d95b	4.585059e-06
34	0xb6467df4	-2.9577614e-06
35	0x369de9da	4.7061885e-06
36	0x370bf127	8.341193e-06
37	0xb7088653	-8.1375065e-06
38	0x350c9e58	5.2384485e-07
39	0xb6a1e6e8	-4.825055e-06
40	0x3701ad5d	7.7293635e-06
41	0x3424cd41	1.5348361e-07
42	0x36e3d3db	6.7897904e-06
43	0x36f792df	7.3782717e-06
44	0xb70583dc	-7.958119e-06
45	0x370c56ce	8.364861e-06
46	0xb6f8e514	-7.417644e-06
47	0x36fcf91c	7.5391854e-06
48	0x3701721d	7.715568e-06
49	0xb637234d	-2.7289673e-06
50	0xb70ab21b	-8.266909e-06
51	0xb6aa03b7	-5.0668273e-06
52	0x370b9627	8.320006e-06
53	0x366e0e37	3.5473038e-06
54	0xb7086703	-8.130216e-06
55	0xb6ff5a46	-7.6101014e-06
56	0xb643e337	-2.918952e-06
57	0x370ab6bb	8.267986e-06
58	0x36a51ea7	4.9209516e-06
59	0x369e726e	4.7220883e-06
60	0xb9b39f85	-0.00034260392
61	0x39ee1ea0	0.00045417715
62	0x39da7bfe	0.00041672582
63	0xb99b3be9	-0.0002960854
64	0x39c05f86	0.00036692264
65	0x39dbedf8	0.00041948236
66	0xb6f84ece	-7.40015e-06
67	0x380a0ac5	3.2911794e-05
68	0x39cdde5c	0.00039266318
69	0xb9eacc37	-0.0004478411
70	0xb9aa6eeb	-0.00032507567
71	0x39b453a1	0.00034394584
72	0xb91ef0b9	-0.0001515773
73	0xb70dba2a	-8.4476e-06
74	0xb74ebb7b	-1.2322208e-05
75	0xb93ff3be	-0.0001830598
76	0x395f3f6b	0.00021290562
77	0xb910a7d0	-0.00013795425
78	0xb8ab1442	-8.157689e-05
79	0x39c4de6c	0.0003754975
80	0xb6cfe03f	-6.1951864e-06
81	0x39cfb729	0.00039618582
82	0xb7829c93	-1.5570118e-05
83	0xb99c9261	-0.000298637
84	0xb9ccdf3a	-0.0003907623
85	0x392eb54d	0.00016661473
86	0x39839185	0.00025094688
87	0xb84ab1f0	-4.832627e-05
88	0x39ec026d	0.00045015235
89	0x39eacb87	0.00044783598
90	0x39fce3bf	0.0004823487
91	0xba361d92	-0.00069471553
92	0xba1f2b75	-0.0006071844
93	0x39d3effc	0.00040423858
94	0xba0afa1e	-0.00053015526
95	0xba2ad42a	-0.00065166
96	0xb84aad49	-4.8321937e-05
97	0x372749b0	9.971132e-06
98	0xba1580dd	-0.0005703101
99	0x3a34a42f	0.00068909203
100	0x39e29351	0.00043215838
101	0xba04fd8b	-0.0005073181
102	0x39457c2e	0.00018833645
103	0xb863a389	-5.427332e-05
104	0x388621a6	6.3958854e-05
105	0x3958d14c	0.00020677334
106	0xb98f0a9e	-0.00027282996
107	0x392317a3	0.00015553697
108	0x38497450	4.803046e-05
109	0xba10c2da	-0.0005522199
110	0x38855738	6.35818e-05
111	0xba109922	-0.00055159826
112	0xb83e068f	-4.530564e-05
113	0x39e20ef0	0.00043117208
114	0x3a2df7d5	0.0006636356
115	0xb94c90a1	-0.00019508835
116	0xb9b77e0a	-0.00034998386
117	0xb743a495	-1.16612255e-05
118	0xba362009	-0.00069475226
119	0xba342d91	-0.0006873245
120	0xba1821fa	-0.0005803403
121	0x3a55df07	0.0008158539
122	0x3a3cc9fc	0.0007201729
123	0xba059ef3	-0.00050972326
124	0x3a2559da	0.00063076394
125	0x3a45f084	0.0007550793
126	0xb8256cbe	-3.944034e-05
127	0x388520df	6.348057e-05
128	0x3a361b3f	0.0006946809
129	0xba5340ec	-0.00080586853
130	0xba15c5d4	-0.00057133776
131	0x3a202022	0.0006108304
132	0xb99458be	-0.00028294878
133	0x36146571	2.2112765e-06
134	0xb5cf7dc4	-1.5459304e-06
135	0xb9a1e9be	-0.00030882464
136	0x39ba65c6	0.00035552512
137	0xb96f0448	-0.00022794411
138	0xb9275b1f	-0.00015960306
139	0x3a290444	0.0006447474
140	0x37585d11	1.2896272e-05
141	0x3a368a64	0.0006963371
142	0xb73b6a68	-1.1170843e-05
143	0xba06604f	-0.00051260454
144	0xba3d6504	-0.00072248303
145	0x39950b14	0.00028427748
146	0x39e70261	0.00044061526
147	0xb8affa8b	-8.3913175e-05
148	0x3a5418c1	0.0008090847
149	0x3a5302a6	0.0008049406
150	0xb7969f46	-1.795556e-05
151	0x3865951b	5.473672e-05
152	0x38160abf	3.5772795e-05
153	0xb77504ec	-1.4604284e-05
154	0x37b9ac4a	2.2133947e-05
155	0x38550fb9	5.07978e-05
156	0x359684fc	1.1214574e-06
157	0xb6913cc6	-4.3284117e-06
158	0x381ded17	3.7652524e-05
159	0xb86447d0	-5.4426317e-05
160	0xb7ce3e7e	-2.4586214e-05
161	0x380d7a1a	3.3730736e-05
162	0xb5de84e4	-1.6578965e-06
163	0x372ab2f6	1.0174457e-05
164	0xb6f7ae9a	-7.3815e-06
165	0xb7008816	-7.6610795e-06
166	0x36d91015	6.468976e-06
167	0xb51e5344	-5.8980754e-07
168	0x368c102f	4.174209e-06
169	0x37dc8ef3	2.629261e-05
170	0xb70b1103	-8.2890065e-06
171	0x37fc80aa	3.0100655e-05
172	0x37022c3a	7.758901e-06
173	0xb788b0bc	-1.6294762e-05
174	0xb85161ad	-4.992045e-05
175	0xb42d4259	-1.6136018e-07
176	0x37ab11d4	2.039309e-05
177	0x37160423	8.94166e-06
178	0x385e8c75	5.3059735e-05
179	0x3864c0b8	5.453892e-05
180	0x38b170f2	8.4610554e-05
181	0xb8a4981f	-7.848464e-05
182	0xb89a4669	-7.356407e-05
183	0x38a55495	7.883568e-05
184	0xb8af2b15	-8.352675e-05
185	0xb8b1b599	-8.473843e-05
186	0x389d0133	7.486567e-05
187	0xb88d67d6	-6.742745e-05
188	0xb8a7c6a7	-8.0001824e-05
189	0x38a3da7d	7.813142e-05
190	0x38981fbb	7.253835e-05
191	0xb89f212a	-7.587888e-05
192	0x38e746db	0.00011028136
193	0x3813a938	3.520513e-05
194	0xb8b55bdc	-8.647863e-05
195	0x37bc2f7a	2.2433454e-05
196	0xb86866d0	-5.5408862e-05
197	0x384736f4	4.7496476e-05
198	0x388e7eb2	6.7946865e-05
199	0xb8a8b43a	-8.044434e-05
200	0xb8bc8056	-8.988443e-05
201	0xb8a80aa1	-8.012844e-05
202	0x37ce97ca	2.4627796e-05
203	0x38a983c5	8.083092e-05
204	0x3885763a	6.3639556e-05
205	0xb89947a5	-7.308953e-05
206	0xb87c8b13	-6.0211005e-05
207	0x3835e02b	4.3362536e-05
208	0xb8a13de3	-7.6886055e-05
209	0xb8a35020	-7.78737e-05
210	0xb934eaf1	-0.0001725366
211	0x38d861bb	0.00010317886
212	0x391cce07	0.0001495407
213	0xb9287292	-0.0001606441
214	0x39321914	0.00016984745
215	0x38f5126d	0.000116859424
216	0xb95e6490	-0.00021209032
217	0x395138a5	0.00019952895
218	0x38ffee11	0.00012203691
219	0xb8d86f90	-0.00010320463
220	0xb94ca85a	-0.00019517672
221	0x3908941d	0.00013025147
222	0xb9709378	-0.0002294312
223	0xb8fad0d0	-0.00011959823
224	0x39578ca2	0.00020556388
225	0xb90b3c8f	-0.00013278633
226	0x393cffab	0.00018024321
227	0xb92d2873	-0.00016513634
228	0xb9330787	-0.00017073574
229	0x392bd62b	0.00016387615
230	0x395c1741	0.00020989498
231	0x392d175b	0.00016507266
232	0xb9140646	-0.00014116717
233	0xb93399b9	-0.00017128036
234	0xb8a0d9e1	-7.669978e-05
235	0x394860b2	0.00019109508
236	0x390f22b0	0.00013650465
237	0xb913798b	-0.00014064291
238	0x38d45456	0.000101246565
239	0x38d66413	0.000102229555
240	0xb963ddad	-0.00021730988
241	0x39b9d639	0.00035445558
242	0x3993f7a4	0.00028222532
243	0xb93d54ee	-0.00018056083
244	0x398096c6	0.00024526397
245	0x39af283e	0.00033408584
246	0x3822e60f	3.883807e-05
247	0xb822c090	-3.8803148e-05
248	0x399201ec	0.00027848722
249	0xb9b871d0	-0.00035180012
250	0xb90b2bf7	-0.00013272451
251	0x3980e0c4	0.00024581526
252	0xb8a62b31	-7.923542e-05
253	0x3882c8c2	6.236277e-05
254	0xb86f14f8	-5.700157e-05
255	0xb7c43788	-2.339088e-05

exp_avg_sq f4 [30, 30]
0	0x3711fc7a	8.701458e-06
1	0x376a0af9	1.3950042e-05
2	0x37382b9a	1.0977406e-05
3	0x36e90645	6.944671e-06
4	0x37149ac9	8.857526e-06
5	0x372c7219	1.0278564e-05
6	0x37406183	1.14667955e-05
7	0x3739f246	1.1083268e-05
8	0x37131b5f	8.768256e-06
9	0x375b4e0d	1.307159e-05
10	0x370eccb9	8.511525e-06
11	0x36cab49e	6.0410957e-06
12	0x370b6756	8.309105e-06
13	0x36dd0d7f	6.5878844e-06
14	0x371afdce	9.238209e-06
15	0x37136007	8.784241e-06
16	0x3719c311	9.164928e-06
17	0x371ca390	9.336407e-06
18	0x370af3d0	8.282208e-06
19	0x371a4691	9.195545e-06
20	0x3726e9b5	9.948785e-06
21	0x3727ab9e	9.993933e-06
22	0x372f8208	1.0461088e-05
23	0x3700fabd	7.687774e-06
24	0x3731616c	1.0572705e-05
25	0x37148e04	8.854553e-06
26	0x3689bee8	4.1051426e-06
27	0x3715beca	8.925514e-06
28	0x375ff1d0	1.3348137e-05
29	0x375f4a18	1.3309087e-05
30	0x3371b7ff	5.627953e-08
31	0x340b15f9	1.2953377e-07
32	0x335acb77	5.094213e-08
33	0x339f53de	7.41927e-08
34	0x3349387b	4.6850328e-08
35	0x338bc3c6	6.508303e-08
36	0x33bacab5	8.698172e-08
37	0x33ae2f5a	8.1111196e-08
38	0x33981068	7.081036e-08
39	0x33edf19d	1.1080122e-07
40	0x337c4922	5.8739836e-08
41	0x3312cf60	3.418188e-08
42	0x338eb2a9	6.6448884e-08
43	0x33ad6888	8.0749544e-08
44	0x33c1252f	8.9940265e-08
45	0x33888ce1	6.358619e-08
46	0x33be533f	8.862707e-08
47	0x33a00296	7.451051e-08
48	0x33887126	6.353575e-08
49	0x334d7d87	4.784445e-08
50	0x33bd0ee3	8.803706e-08
51	0x3354d47d	4.9553353e-08
52	0x33c1ad26	9.0187584e-08
53	0x332c235b	4.0079026e-08
54	0x33d15f93	9.749706e-08
55	0x33b2b10d	8.320976e-08
56	0x32ddcc3f	2.5820666e-08
57	0x33941a6f	6.896595e-08
58	0x33fddf2e	1.1821827e-07
59	0x33e773ab	1.07778156e-07
60	0x35f4e290	1.8245355e-06
61	0x364f17ba	3.0859214e-06
62	0x36197c56	2.287115e-06
63	0x35c8e649	1.4968183e-06
64	0x35f78407	1.8441359e-06
65	0x3616679a	2.2412046e-06
66	0x360b7457	2.0780333e-06
67	0x360e3e83	2.1196036e-06
68	0x3602cb6e	1.9489921e-06
69	0x3640a06f	2.8703614e-06
70	0x35f32da2	1.8118192e-06
71	0x35b09f5d	1.3159403e-06
72	0x35dc0e9c	1.6395529e-06
73	0x3599ec23	1.1468113e-06
74	0x35f11262	1.7961249e-06
75	0x35ed45ca	1.7678187e-06
76	0x35fe936d	1.8967381e-06
77	0x35f97065	1.8584657e-06
78	0x35d661ab	1.5972668e-06
79	0x3600a333	1.916848e-06
80	0x35fb5c4c	1.8727819e-06
81	0x360d9774	2.1098795e-06
82	0x36036c44	1.958354e-06
83	0x35d561b6	1.5898174e-06
84	0x360ee8ca	2.129515e-06
85	0x35f44475	1.819934e-06
86	0x356c125b	8.794356e-07
87	0x35e381a3	1.6950547e-06
88	0x36433eb5	2.9093765e-06
89	0x36454c92	2.9399857e-06
90	0x369b7d74	4.6339646e-06
91	0x377ad194	1.4949957e-05
92	0x36f9a876	7.4403897e-06
93	0x366dc3ed	3.5429796e-06
94	0x36a83bc7	5.013749e-06
95	0x37373af5	1.0921377e-05
96	0x36a524f5	4.9216856e-06
97	0x367ed40f	3.7972384e-06
98	0x3708e069	8.158481e-06
99	0x376d4525	1.41424e-05
100	0x36499577	3.0038334e-06
101	0x36a5c709	4.940554e-06
102	0x3670a766	3.5860226e-06
103	0x3680eb79	3.84211e-06
104	0x36830ffb	3.9059646e-06
105	0x361929e1	2.2823153e-06
106	0x3642cbd5	2.9026899e-06
107	0x364a0eed	3.0109034e-06
108	0x3658fb93	3.2332944e-06
109	0x36aa5215	5.0759504e-06
110	0x36922de7	4.356483e-06
111	0x36cb85ed	6.0654625e-06
112	0x368599be	3.981607e-06
113	0x3679affe	3.7206332e-06
114	0x373929ad	1.1036563e-05
115	0x365af887	3.2629193e-06
116	0x35efdaac	1.787053e-06
117	0x3656c1a7	3.2001205e-06
118	0x37721e4d	1.4431379e-05
119	0x37701b81	1.43115185e-05
120	0x36ca866d	6.0357183e-06
121	0x376d78f7	1.4154465e-05
122	0x370a161a	8.230587e-06
123	0x36a597f0	4.935071e-06
124	0x36d13f7b	6.2360755e-06
125	0x372b992c	1.0228057e-05
126	0x36faee5f	7.4783306e-06
127	0x36e54447	6.8326804e-06
128	0x3709f98a	8.223937e-06
129	0x375dd0d3	1.3221247e-05
130	0x36a914df	5.039022e-06
131	0x36af06fb	5.216219e-06
132	0x36b8f065	5.511613e-06
133	0x36a53a31	4.9241576e-06
134	0x36cfe3e9	6.195613e-06
135	0x36a3b0d5	4.8783645e-06
136	0x36b7fa49	5.482962e-06
137	0x36bbcaf4	5.596661e-06
138	0x36b0c1dc	5.267777e-06
139	0x36d5d268	6.372389e-06
140	0x36de61c1	6.6274956e-06
141	0x36f0acb7	7.172664e-06
142	0x36dfb617	6.667116e-06
143	0x36ae4255	5.193326e-06
144	0x372bb55e	1.0234622e-05
145	0x36bd956a	5.650033e-06
146	0x36359ba8	2.7061706e-06
147	0x36b9712c	5.5266046e-06
148	0x3761ef3a	1.3466744e-05
149	0x3761ae5b	1.345164e-05
150	0x3474e013	2.2805789e-07
151	0x349660a2	2.8009987e-07
152	0x3434aaba	1.6825916e-07
153	0x34905010	2.6880343e-07
154	0x34482f8d	1.864375e-07
155	0x34080351	1.2667194e-07
156	0x34abe984	3.2021137e-07
157	0x34a76e38	3.118637e-07
158	0x342e257e	1.6218652e-07
159	0x346eb0cd	2.2229797e-07
160	0x3454fced	1.9836052e-07
161	0x339bdd70	7.258029e-08
162	0x349504da	2.7756943e-07
163	0x3485ea51	2.4943668e-07
164	0x34be4e13	3.5447064e-07
165	0x3486210d	2.4983493e-07
166	0x34bf6d8f	3.5656237e-07
167	0x349f902c	2.9720957e-07
168	0x34894379	2.556733e-07
169	0x345160d4	1.9499868e-07
170	0x34aadd1b	3.1825843e-07
171	0x34370a46	1.704694e-07
172	0x34bd1a25	3.5223016e-07
173	0x3439d784	1.7307872e-07
174	0x344eb1b4	1.9249893e-07
175	0x34b1bf7d	3.3108145e-07
176	0x33e44a66	1.063061e-07
177	0x349336ca	2.7420748e-07
178	0x348576e5	2.4859688e-07
179	0x3471eca5	2.2530965e-07
180	0x35329353	6.652455e-07
181	0x35a34752	1.2165203e-06
182	0x3554ab7c	7.9225697e-07
183	0x3515154c	5.5537816e-07
184	0x35308c3f	6.5769194e-07
185	0x356c0f6e	8.7939304e-07
186	0x358bf504	1.0427616e-06
187	0x358df91d	1.057782e-06
188	0x353e8196	7.096909e-07
189	0x3597d7d0	1.1313186e-06
190	0x354db41c	7.6630545e-07
191	0x34ff5d1b	4.7565194e-07
192	0x35331ca7	6.672439e-07
193	0x3524eabd	6.143635e-07
194	0x35657017	8.547226e-07
195	0x355e1ed1	8.274629e-07
196	0x356215da	8.422336e-07
197	0x355f612d	8.3215383e-07
198	0x35393dbf	6.9007723e-07
199	0x35396eb1	6.907895e-07
200	0x3571364d	8.9858514e-07
201	0x3548aa0e	7.475327e-07
202	0x358031a5	9.551192e-07
203	0x351ee9f0	5.920001e-07
204	0x3577ba4f	9.2285785e-07
205	0x354fc15a	7.739487e-07
206	0x34c1e153	3.6112996e-07
207	0x355650e6	7.9838935e-07
208	0x359a48b9	1.1495059e-06
209	0x359b1d17	1.1556866e-06
210	0x35b65903	1.3585963e-06
211	0x3635fafb	2.7117192e-06
212	0x35e062cd	1.6718055e-06
213	0x3591f78c	1.0875387e-06
214	0x35b490a2	1.3453139e-06
215	0x360001d8	1.907456e-06
216	0x36156f2a	2.2267436e-06
217	0x360cefc8	2.1001197e-06
218	0x35ca20d0	1.5059723e-06
219	0x362c0613	2.5633533e-06
220	0x35bc915e	1.4049399e-06
221	0x35791045	9.2783404e-07
222	0x35c9d8ef	1.5038803e-06
223	0x35c4df55	1.4668136e-06
224	0x35f0daa4	1.7945026e-06
225	0x35d0c376	1.5554094e-06
226	0x35da89f8	1.628242e-06
227	0x35e25d9f	1.686556e-06
228	0x35cfec44	1.5491464e-06
229	0x35bd53fb	1.4106039e-06
230	0x360166e3	1.9282386e-06
231	0x35ca3dba	1.5068138e-06
232	0x3606aa08	2.0066527e-06
233	0x35a1f452	1.2066541e-06
234	0x36110a52	2.161269e-06
235	0x35d83213	1.6107828e-06
236	0x352b7a6a	6.38806e-07
237	0x35e5073d	1.7063936e-06
238	0x3630d28c	2.6348598e-06
239	0x362e1c92	2.594465e-06
240	0x3641623e	2.8816426e-06
241	0x36c7dd1b	5.956402e-06
242	0x36821caf	3.877641e-06
243	0x36188f97	2.2733345e-06
244	0x36472f8d	2.968099e-06
245	0x3691f5df	4.34996e-06
246	0x366320ad	3.3844656e-06
247	0x36535531	3.1491038e-06
248	0x366c82d9	3.5242904e-06
249	0x36bb1a73	5.5761134e-06
250	0x3628f2a2	2.5175182e-06
251	0x361c697c	2.3307211e-06
252	0x36355775	2.7022008e-06
253	0x360faced	2.1409317e-06
254	0x36396cb5	2.7630424e-06
255	0x3620663b	2.3901364e-06

exp_avg f4 [30]
0	0xba4d750f	-0.00078375725
1	0x369c7be6	4.663586e-06
2	0x39ee4fd6	0.0004545438
3	0xba3659b5	-0.00069561164
4	0x3a562d03	0.00081701594
5	0x3866ee95	5.505847e-05
6	0xb8a41cab	-7.825469e-05
7	0x38d6e152	0.000102462844
8	0x39ba30d3	0.0003551306
9	0xb81a8e24	-3.684884e-05
10	0xba058aaf	-0.0005094213
11	0x3a4c3569	0.0007789941
12	0xba1d9eff	-0.0006012767
13	0xb98a0254	-0.00026323146
14	0xb90261b4	-0.00012434163
15	0xba487709	-0.0007647132
16	0x3a7927bc	0.0009504517
17	0xba8cd80a	-0.0010745537
18	0xba3340e5	-0.0006837978
19	0x3a2f13ec	0.0006678689
20	0x390b3df5	0.00013279154
21	0x3a35178f	0.00069081126
22	0xb9f4dad9	-0.0004670236
23	0xba6d5d23	-0.0009054711
24	0x37d6bb17	2.5597908e-05
25	0x39e514e0	0.00043693837
26	0x3a55cd41	0.00081558904
27	0xba236d7c	-0.0006234271
28	0x380c734d	3.3485983e-05
29	0x381aa17a	3.6866848e-05

exp_avg_sq f4 [30]
0	0x376cf281	1.41231585e-05
1	0x342a08e9	1.5835725e-07
2	0x36536af2	3.15037e-06
3	0x377e6231	1.5162442e-05
4	0x3771d414	1.4414098e-05
5	0x34c0d23c	3.5915753e-07
6	0x35a7aaa0	1.2492128e-06
7	0x363afc5f	2.786306e-06
8	0x36ca7760	6.033966e-06
9	0x35816cb0	9.642881e-07
10	0x366d6474	3.5374223e-06
11	0x376f465b	1.4261891e-05
12	0x3725056c	9.836029e-06
13	0x35dbca6a	1.6375682e-06
14	0x364c6bbb	3.0461076e-06
15	0x375b7497	1.3080563e-05
16	0x37b3f738	2.1453583e-05
17	0x37da275d	2.6005955e-05
18	0x3765d348	1.3698656e-05
19	0x37310834	1.0551932e-05
20	0x360599b9	1.9908023e-06
21	0x36ed807b	7.0781075e-06
22	0x37129a0f	8.738148e-06
23	0x37aedcbb	2.0845202e-05
24	0x3504b9ed	4.944439e-07
25	0x36c346e6	5.8197065e-06
26	0x370c2da8	8.35528e-06
27	0x3740ed4b	1.1499341e-05
28	0x35717e6c	8.9963464e-07
29	0x3405dda8	1.2467228e-07

exp_avg f4 [1, 30]
0	0x3a22b79d	0.000620717
1	0xbb072539	-0.0020621552
2	0xba955cd0	-0.0011395458
3	0x39a6fde3	0.00031851148
4	0xba31a134	-0.00067760353
5	0xbafadb95	-0.0019138927
6	0xbb1565fb	-0.002279638
7	0x3b0ad663	0.0021184913
8	0xbac1261e	-0.0014736091
9	0x3b065dd5	0.0020502706
10	0xb94b8368	-0.00019408541
11	0xba8adde3	-0.0010594692
12	0xba5e652c	-0.0008483704
13	0xbac71e33	-0.0015191495
14	0x3af11f42	0.0018396156
15	0xbab48fd0	-0.001377577
16	0x3a9e21ef	0.0012064556
17	0xbab87e4f	-0.0014075729
18	0xbabf7d0e	-0.0014609413
19	0xba695d7f	-0.00089021766
20	0x3afad315	0.0019136394
21	0xba66df78	-0.0008807103
22	0xbb0e33c8	-0.0021698344
23	0x39d30563	0.0004024907
24	0x3b096feb	0.002097125
25	0x3a8b9757	0.0010649961
26	0xb9280bac	-0.00016026077
27	0xbaed3fa8	-0.0018100636
28	0xbb078f9e	-0.0020684968
29	0xbb067ef5	-0.002052245

exp_avg_sq f4 [1, 30]
0	0x37c99496	2.4030258e-05
1	0x38ffd93d	0.00012199811
2	0x38901639	6.8705944e-05
3	0x3803ae77	3.1395317e-05
4	0x380e339d	3.3903507e-05
5	0x3894efe6	7.1018745e-05
6	0x38d04ca4	9.932488e-05
7	0x38bf3994	9.1183145e-05
8	0x387182e7	5.758079e-05
9	0x38bbcbbf	8.9548055e-05
10	0x380123f5	3.0789484e-05
11	0x37ebf5f7	2.812872e-05
12	0x37c7ea7c	2.3831839e-05
13	0x38660d7b	5.4848828e-05
14	0x38526dac	5.017004e-05
15	0x382473e7	3.920859e-05
16	0x37f1e7f8	2.8837458e-05
17	0x3881981f	6.179534e-05
18	0x382c1a26	4.103235e-05
19	0x381ce2b0	3.7404418e-05
20	0x388929e5	6.5404725e-05
21	0x381aac73	3.6877067e-05
22	0x38c5e5f6	9.4365256e-05
23	0x371aa496	9.217436e-06
24	0x38d5b172	0.00010189683
25	0x386f8b37	5.7111694e-05
26	0x36a9f164	5.064694e-06
27	0x387080a8	5.734028e-05
28	0x38c3ca1b	9.33597e-05
29	0x38bf4847	9.1210524e-05

backbone.x.weight f4 [30, 1]
0	0x3f54477e	0.8292159
1	0xbf332312	-0.6997539
2	0xbf834605	-1.0255743
3	0x3f257a24	0.64639497
4	0xbf4fb4ae	-0.8113507
5	0xbd0ecb16	-0.034861647
6	0x3fd2b7b6	1.6462314
7	0xbfb78bd1	-1.4339544
8	0xbec60d96	-0.3868224
9	0xbea66721	-0.32500556
10	0x3f56a376	0.8384317
11	0xbeca5e17	-0.3952491
12	0x3f708cfc	0.93965125
13	0x3f4691da	0.775663
14	0xbf9497e4	-1.1608853
15	0x3f70c59b	0.9405152
16	0xbf80b560	-1.0055351
17	0x3f874436	1.0567691
18	0x3f735128	0.9504571
19	0xbf5804f9	-0.8438259
20	0xbfa9e095	-1.3271662
21	0xbf689d8b	-0.9086539
22	0x3faeb617	1.364932
23	0x3f417a12	0.7557689
24	0xbf49f161	-0.7888394
25	0xbf7ffc79	-0.9999462
26	0xbef51881	-0.47870257
27	0x3f884e88	1.0648966
28	0x3f28b960	0.6590786
29	0x3dfe51df	0.124179594

backbone.x.bias f4 [30]
0	0x3e4c330e	0.19941351
1	0x3f8fc211	1.1231099
2	0x3f4bb3bf	0.79571146
3	0xbf240236	-0.64065874
4	0x3e1cc796	0.15310511
5	0xbf14ff17	-0.58201736
6	0xbe5dd596	-0.21663508
7	0x3efb3238	0.4906175
8	0x3f4fd051	0.8117724
9	0xbf38a45c	-0.7212579
10	0x3e60d3bc	0.2195577
11	0xbd3850ce	-0.044998936
12	0x3f2d718b	0.6775138
13	0x3e06c320	0.13160372
14	0xbf5c17dc	-0.85973907
15	0xbe220e01	-0.15825655
16	0xbf3cbbf9	-0.73724324
17	0x3ebada9e	0.36494917
18	0x3ecec022	0.4038096
19	0xbe95ca5a	-0.29255944
20	0xbee614f6	-0.44937867
21	0x3d5c4bed	0.053783346
22	0xbf44c658	-0.7686515
23	0xbec69fa7	-0.3879368
24	0x3e4bbcf9	0.19896306
25	0x3f2bbce8	0.67085123
26	0xbdd5eff0	-0.10446155
27	0xbde0dcbd	-0.109796025
28	0x3f81a7c3	1.0129322
29	0x3f44356d	0.7664402

backbone.h.weight f4 [30, 30]
0	0x3c60ebee	0.013728125
1	0xbda8e9ea	-0.082477406
2	0x3ce21c76	0.027601462
3	0x3e5b8c2e	0.21440193
4	0x3dc5073d	0.09620521
5	0xbd6fd9f2	-0.05855746
6	0xbcc676df	-0.024226604
7	0x3da2244f	0.079170816
8	0xbe2b0e28	-0.16704619
9	0x3e0be93f	0.13663195
10	0xbdf6fcc6	-0.120599315
11	0xbdc2353d	-0.09482811
12	0xbc0c1a22	-0.008551152
13	0x3d48c469	0.049015436
14	0xbdb2c5bd	-0.08729122
15	0xbd186294	-0.037203386
16	0xbd55bf13	-0.052184176
17	0x3de750f5	0.11294738
18	0xbd8c81fe	-0.068607315
19	0xbd0a85cb	-0.033819
20	0xbdd0bf91	-0.101927884
21	0xbdba8ed3	-0.09109273
22	0x3dff6dff	0.12472152
23	0x3d29abd8	0.04142365
24	0xbc608197	-0.013702772
25	0x3dff8299	0.124760814
26	0xbc83ebbc	-0.016103618
27	0xbe1ec190	-0.15503526
28	0xbe2e5100	-0.17023087
29	0xbde397f5	-0.11112968
30	0x3d223454	0.039600685
31	0x3eb50630	0.35356283
32	0x3e2ac9a7	0.16678487
33	0xbe8f666d	-0.28007832
34	0x3e14c2c5	0.14527424
35	0x3ea4bc83	0.32175073
36	0xbd527659	-0.051382396
37	0x3e1be608	0.15224469
38	0x3e2c9c2d	0.16856451
39	0xbeca6eae	-0.39537567
40	0xbc444cdf	-0.011981218
41	0x3db1b9bc	0.08678004
42	0x3ce10e33	0.027472591
43	0x3e97a584	0.29618466
44	0xbe3f7d94	-0.18700248
45	0xbe59b213	-0.21259336
46	0xbe4661df	-0.19373272
47	0xbe28249e	-0.16420218
48	0xbe513c70	-0.20433211
49	0x3e12f0fe	0.14349744
50	0xbe27115d	-0.16315217
51	0xbcb7f05f	-0.022453485
52	0x3d2cc5bd	0.042180765
53	0x3d18b451	0.037281338
54	0xbe681883	-0.226656
55	0x3e19597f	0.14975546
56	0xbe7ba1dd	-0.24573465
57	0x3bc47b6a	0.0059961574
58	0x3dea5395	0.11441723
59	0x3ec24471	0.37942842
60	0xbe236c92	-0.15959385
61	0x3cd1c856	0.025608223
62	0x3cf21f61	0.029555978
63	0xbdcb0feb	-0.099151455
64	0xbd55d2d5	-0.05220302
65	0xbd11b8b7	-0.03557655
66	0x3e512891	0.20425631
67	0x3d7bb286	0.06144955
68	0x3e2ebf97	0.17065273
69	0x3d8e48ac	0.06947455
70	0x3e31058c	0.17287272
71	0xbc2cf182	-0.010555627
72	0x3dbc84f8	0.09205049
73	0xbadc2ce9	-0.0016798052
74	0x3e27c3c6	0.16383275
75	0xbe1d5e07	-0.153679
76	0x3e410f8f	0.18853591
77	0x3d0ef67d	0.03490304
78	0x3e24f57d	0.16109271
79	0x3d988a8c	0.07448301
80	0xbe07b4d0	-0.13252568
81	0x3e39ead8	0.18155992
82	0x3de3e063	0.11126783
83	0x3d83487c	0.0641031
84	0xbdbe28f6	-0.092851564
85	0xbe578347	-0.21046172
86	0x3e3605fd	0.17775722
87	0xbe13e43a	-0.1444253
88	0x3da5fb74	0.081046015
89	0x3dddf888	0.10838419
90	0xbe1086c0	-0.14113903
91	0x3e1a9ba4	0.15098435
92	0xbe368742	-0.17825034
93	0x3e20dae7	0.15708505
94	0x3e0fc4ab	0.14039867
95	0x3e6f7de0	0.23387861
96	0x3db0885c	0.086197585
97	0x3db97254	0.090550095
98	0x3d8bc2da	0.06824274
99	0x3dba0715	0.09083382
100	0x3c2b17e2	0.010442706
101	0xbe3f50da	-0.18683186
102	0x3d4adfaa	0.04952971
103	0xbb83964d	-0.00401572
104	0x3e02b712	0.12765148
105	0xbd16ab23	-0.036784302
106	0x3e199df2	0.15001658
107	0x3e4e2b74	0.20133764
108	0x3d7a8150	0.06115848
109	0x3ccc6e00	0.024954796
110	0x3df25f7e	0.1183462
111	0x3cade1b6	0.021225791
112	0x3e2ea5c2	0.17055419
113	0x3d82a7f6	0.06379692
114	0xbe01069c	-0.12600178
115	0xbd36732d	-0.044543434
116	0x3df8a151	0.12140144
117	0xbd02fdb2	-0.031980224
118	0xbd91bca3	-0.07116058
119	0xbc819314	-0.015817203
120	0x3d47e732	0.04880447
121	0x3e1415ca	0.14461437
122	0x3e3217de	0.17391917
123	0x3cc18471	0.023622723
124	0x3e41ec8b	0.1893789
125	0xbc3eb85b	-0.011640633
126	0x3e33806a	0.17529455
127	0x3cdd6692	0.027026448
128	0x3cb5b94d	0.022183085
129	0xbe7edab8	-0.24888122
130	0x3d868e26	0.065700814
131	0x3d4d8f27	0.05018535
132	0x3e007c1e	0.12547347
133	0x3dccbab1	0.09996546
134	0xbbdb7301	-0.006697059
135	0x3e04e319	0.12977256
136	0x3e16b7d7	0.14718567
137	0xbe2b0780	-0.1670208
138	0xbd9a4e61	-0.07534481
139	0x3e4055ff	0.18782805
140	0xbe08c210	-0.13355279
141	0xbdf5f7d7	-0.12010162
142	0xbe26ef9a	-0.16302338
143	0xbd6335c9	-0.055471215
144	0x3d907db4	0.07055226
145	0xbd8f8b2e	-0.07008968
146	0xbd699ab4	-0.057032302
147	0xbda76f44	-0.08175519
148	0xbc9bb778	-0.019008383
149	0x3d83da51	0.06438125
150	0x3dbacdde	0.09121297
151	0x3e900f78	0.28136802
152	0x3dc138c9	0.09434659
153	0xbe6eb3b0	-0.23310733
154	0x3e23913b	0.1597337
155	0x3e4e8493	0.2016776
156	0x3d5621ca	0.052278318
157	0xbd0a5a0e	-0.03377729
158	0xbc3f417f	-0.01167333
159	0xbe9b3711	-0.3031545
160	0xbbb833af	-0.0056213955
161	0x3d7a6fb8	0.0611417
162	0xbcdcf048	-0.026970044
163	0x3d59fe16	0.05322083
164	0xbdb35ab2	-0.08757533
165	0xbe2e6b91	-0.17033221
166	0xbe137f17	-0.1440395
167	0xbc9845c4	-0.018587954
168	0xbe4c5bc8	-0.19956887
169	0xbd481e1f	-0.04885685
170	0x3cf8ac64	0.03035564
171	0xbd635619	-0.05550203
172	0x3cb527bf	0.022113679
173	0xbe016e43	-0.12639718
174	0xbe955cfd	-0.29172507
175	0xbc4f5129	-0.012653627
176	0x3d1057da	0.03524003
177	0x3c675228	0.014118709
178	0x3e78537d	0.24250598
179	0x3e8d554e	0.27604145
180	0xbd0ca522	-0.03433717
181	0x3e4d4867	0.2004715
182	0x3b84fea2	0.004058675
183	0xbe5a5a02	-0.21323398
184	0x3cd7d4d3	0.0263466
185	0xbd930bf9	-0.07180018
186	0xbe1eb338	-0.15498054
187	0xbd683756	-0.056693397
188	0x3e0c433f	0.13697527
189	0xbe1b3cc3	-0.15159898
190	0xbde65a4b	-0.11247691
191	0x3dce2880	0.100663185
192	0x3e1236b9	0.14278688
193	0x3e41f781	0.18942071
194	0x3daeaa93	0.08528628
195	0x3dc5ca7f	0.09657764
196	0xbd52ff13	-0.05151279
197	0x3c6e2a67	0.014536477
198	0x3e0481ac	0.12940091
199	0x3e2e148e	0.17000028
200	0x3c476fc5	0.012172644
201	0x3e01ea8a	0.12687126
202	0xbdf0d410	-0.11759198
203	0xbce82370	-0.02833721
204	0xbdb7dd59	-0.089777656
205	0xbe133c30	-0.14378428
206	0xbd827e97	-0.06371801
207	0x3e22c16e	0.158941
208	0xbd6826e5	-0.056677718
209	0xbdbf0b5e	-0.0932834
210	0xbe3c7771	-0.18404938
211	0xbb4edf30	-0.0031566136
212	0x3d1b7afb	0.03795908
213	0x3e427d25	0.18993051
214	0xbdf2fe67	-0.1186493
215	0xbe502dec	-0.20330018
216	0x3d36d12a	0.04463307
217	0x3be8abf4	0.0071005765
218	0x3c95869b	0.018252661
219	0xbd909b9e	-0.070609316
220	0xbcec073e	-0.028812047
221	0xbe820af1	-0.25398973
222	0xbdf3112e	-0.11868511
223	0xbe36dcf6	-0.17857727
224	0x3e220a63	0.15824275
225	0xbdffbcce	-0.124871835
226	0xbdace74b	-0.08442553
227	0x3e0f2d56	0.13982138
228	0x3db63db3	0.08898487
229	0xbc88f454	-0.016718067
230	0xbd5e8297	-0.05432376
231	0xbdb6ec39	-0.08931775
232	0xbc8e8bcc	-0.017400645
233	0xbdf002a3	-0.11719253
234	0x3d8b344b	0.067970835
235	0xbe1452df	-0.14484738
236	0x3d90d6bd	0.07072208
237	0x3d21cf1c	0.039504156
238	0xbd6577cf	-0.05602246
239	0xbe7c0d0f	-0.24614356
240	0x3df7eb21	0.12105394
241	0x3e51996a	0.20468679
242	0xbcdd0b46	-0.026982915
243	0xbe35cd21	-0.17754032
244	0x3d8a1134	0.067415625
245	0x3e182992	0.14859608
246	0xbd03ebd0	-0.03220731
247	0x3c3f4fb8	0.011676721
248	0xbddf37cf	-0.108993165
249	0xbe6b493f	-0.2297716
250	0x3defa3a6	0.11701135
251	0x3cdccbfc	0.026952736
252	0xbdd92b2e	-0.10603939
253	0xbd9bc905	-0.07606701
254	0xbe36ff69	-0.17870869
255	0x3db6caa0	0.089253664

backbone.h.bias f4 [30]
0	0xbe9bce43	-0.30430803
1	0x3e98d5ce	0.2985062
2	0x3d582335	0.05276795
3	0xbe507a66	-0.20359191
4	0x3de65134	0.11245957
5	0x3e5e5fc2	0.21716216
6	0x3d953cb6	0.0728697
7	0xbe5e42da	-0.2170519
8	0x3d20be01	0.0392437
9	0xbea2a325	-0.31765094
10	0x3d625c3f	0.055263754
11	0x3dbdfe5b	0.0927703
12	0xbde476d6	-0.11155479
13	0x3cb47a1f	0.022030888
14	0x3e89a897	0.26886436
15	0x3d90574e	0.07047902
16	0x3e52b0a1	0.20575191
17	0xbe53b8d9	-0.20675983
18	0xbe1cc151	-0.1530812
19	0x3dbcd241	0.0921979
20	0x3d8ed1b3	0.06973591
21	0x3e15d9c7	0.14633857
22	0x3e423ebb	0.18969242
23	0x3d87b4d8	0.0662629
24	0xbe4c8a65	-0.19974668
25	0x3e24d104	0.16095358
26	0x3cf32eee	0.029685464
27	0x3dc826b1	0.09773005
28	0x3e05920b	0.13043992
29	0x3e26dd1d	0.16295286

backbone.out.weight f4 [1, 30]
0	0x3f15754f	0.58382124
1	0xbc6e6d47	-0.014552421
2	0xbeb8144a	-0.3595298
3	0x3e68d5c1	0.2273779
4	0xbef48b70	-0.47762632
5	0xbda65c0f	-0.081230275
6	0x3eb6df0a	0.3571704
7	0xbec63505	-0.38712326
8	0xbe63f72d	-0.22262259
9	0x3df9dbd8	0.12200135
10	0x3e936cd7	0.28793976
11	0xbec154de	-0.3776006
12	0x3ef9a06d	0.48755208
13	0x3e1bbe87	0.15209399
14	0xbf1bcf76	-0.60863435
15	0x3eded345	0.4352056
16	0xbf0a15fa	-0.53939784
17	0x3ee969b9	0.45588472
18	0x3ecc72ae	0.39931244
19	0xbf01bc3a	-0.50677836
20	0xbec3489c	-0.38141334
21	0xbf0b0005	-0.54296905
22	0x3eac511d	0.33655635
23	0x3f1a0226	0.6015953
24	0x3d04b480	0.0323987
25	0xbe7219a6	-0.23642597
26	0xbef6d378	-0.48208213
27	0x3edf424f	0.43605277
28	0xbe22659a	-0.1585907
29	0xbd02f532	-0.031972118

weight f4 [30, 1]
0	0x3f54477e	0.8292159
1	0xbf332312	-0.6997539
2	0xbf834605	-1.0255743
3	0x3f257a24	0.64639497
4	0xbf4fb4ae	-0.8113507
5	0xbd0ecb16	-0.034861647
6	0x3fd2b7b6	1.6462314
7	0xbfb78bd1	-1.4339544
8	0xbec60d96	-0.3868224
9	0xbea66721	-0.32500556
10	0x3f56a376	0.8384317
11	0xbeca5e17	-0.3952491
12	0x3f708cfc	0.93965125
13	0x3f4691da	0.775663
14	0xbf9497e4	-1.1608853
15	0x3f70c59b	0.9405152
16	0xbf80b560	-1.0055351
17	0x3f874436	1.0567691
18	0x3f735128	0.9504571
19	0xbf5804f9	-0.8438259
20	0xbfa9e095	-1.3271662
21	0xbf689d8b	-0.9086539
22	0x3faeb617	1.364932
23	0x3f417a12	0.7557689
24	0xbf49f161	-0.7888394
25	0xbf7ffc79	-0.9999462
26	0xbef51881	-0.47870257
27	0x3f884e88	1.0648966
28	0x3f28b960	0.6590786
29	0x3dfe51df	0.124179594

bias f4 [30]
0	0x3e4c330e	0.19941351
1	0x3f8fc211	1.1231099
2	0x3f4bb3bf	0.79571146
3	0xbf240236	-0.64065874
4	0x3e1cc796	0.15310511
5	0xbf14ff17	-0.58201736
6	0xbe5dd596	-0.21663508
7	0x3efb3238	0.4906175
8	0x3f4fd051	0.8117724
9	0xbf38a45c	-0.7212579
10	0x3e60d3bc	0.2195577
11	0xbd3850ce	-0.044998936
12	0x3f2d718b	0.6775138
13	0x3e06c320	0.13160372
14	0xbf5c17dc	-0.85973907
15	0xbe220e01	-0.15825655
16	0xbf3cbbf9	-0.73724324
17	0x3ebada9e	0.36494917
18	0x3ecec022	0.4038096
19	0xbe95ca5a	-0.29255944
20	0xbee614f6	-0.44937867
21	0x3d5c4bed	0.053783346
22	0xbf44c658	-0.7686515
23	0xbec69fa7	-0.3879368
24	0x3e4bbcf9	0.19896306
25	0x3f2bbce8	0.67085123
26	0xbdd5eff0	-0.10446155
27	0xbde0dcbd	-0.109796025
28	0x3f81a7c3	1.0129322
29	0x3f44356d	0.7664402

weight f4 [30, 30]
0	0x3c60ebee	0.013728125
1	0xbda8e9ea	-0.082477406
2	0x3ce21c76	0.027601462
3	0x3e5b8c2e	0.21440193
4	0x3dc5073d	0.09620521
5	0xbd6fd9f2	-0.05855746
6	0xbcc676df	-0.024226604
7	0x3da2244f	0.079170816
8	0xbe2b0e28	-0.16704619
9	0x3e0be93f	0.13663195
10	0xbdf6fcc6	-0.120599315
11	0xbdc2353d	-0.09482811
12	0xbc0c1a22	-0.008551152
13	0x3d48c469	0.049015436
14	0xbdb2c5bd	-0.08729122
15	0xbd186294	-0.037203386
16	0xbd55bf13	-0.052184176
17	0x3de750f5	0.11294738
18	0xbd8c81fe	-0.068607315
19	0xbd0a85cb	-0.033819
20	0xbdd0bf91	-0.101927884
21	0xbdba8ed3	-0.09109273
22	0x3dff6dff	0.12472152
23	0x3d29abd8	0.04142365
24	0xbc608197	-0.013702772
25	0x3dff8299	0.124760814
26	0xbc83ebbc	-0.016103618
27	0xbe1ec190	-0.15503526
28	0xbe2e5100	-0.17023087
29	0xbde397f5	-0.11112968
30	0x3d223454	0.039600685
31	0x3eb50630	0.35356283
32	0x3e2ac9a7	0.16678487
33	0xbe8f666d	-0.28007832
34	0x3e14c2c5	0.14527424
35	0x3ea4bc83	0.32175073
36	0xbd527659	-0.051382396
37	0x3e1be608	0.15224469
38	0x3e2c9c2d	0.16856451
39	0xbeca6eae	-0.39537567
40	0xbc444cdf	-0.011981218
41	0x3db1b9bc	0.08678004
42	0x3ce10e33	0.027472591
43	0x3e97a584	0.29618466
44	0xbe3f7d94	-0.18700248
45	0xbe59b213	-0.21259336
46	0xbe4661df	-0.19373272
47	0xbe28249e	-0.16420218
48	0xbe513c70	-0.20433211
49	0x3e12f0fe	0.14349744
50	0xbe27115d	-0.16315217
51	0xbcb7f05f	-0.022453485
52	0x3d2cc5bd	0.042180765
53	0x3d18b451	0.037281338
54	0xbe681883	-0.226656
55	0x3e19597f	0.14975546
56	0xbe7ba1dd	-0.24573465
57	0x3bc47b6a	0.0059961574
58	0x3dea5395	0.11441723
59	0x3ec24471	0.37942842
60	0xbe236c92	-0.15959385
61	0x3cd1c856	0.025608223
62	0x3cf21f61	0.029555978
63	0xbdcb0feb	-0.099151455
64	0xbd55d2d5	-0.05220302
65	0xbd11b8b7	-0.03557655
66	0x3e512891	0.20425631
67	0x3d7bb286	0.06144955
68	0x3e2ebf97	0.17065273
69	0x3d8e48ac	0.06947455
70	0x3e31058c	0.17287272
71	0xbc2cf182	-0.010555627
72	0x3dbc84f8	0.09205049
73	0xbadc2ce9	-0.0016798052
74	0x3e27c3c6	0.16383275
75	0xbe1d5e07	-0.153679
76	0x3e410f8f	0.18853591
77	0x3d0ef67d	0.03490304
78	0x3e24f57d	0.16109271
79	0x3d988a8c	0.07448301
80	0xbe07b4d0	-0.13252568
81	0x3e39ead8	0.18155992
82	0x3de3e063	0.11126783
83	0x3d83487c	0.0641031
84	0xbdbe28f6	-0.092851564
85	0xbe578347	-0.21046172
86	0x3e3605fd	0.17775722
87	0xbe13e43a	-0.1444253
88	0x3da5fb74	0.081046015
89	0x3dddf888	0.10838419
90	0xbe1086c0	-0.14113903
91	0x3e1a9ba4	0.15098435
92	0xbe368742	-0.17825034
93	0x3e20dae7	0.15708505
94	0x3e0fc4ab	0.14039867
95	0x3e6f7de0	0.23387861
96	0x3db0885c	0.086197585
97	0x3db97254	0.090550095
98	0x3d8bc2da	0.06824274
99	0x3dba0715	0.09083382
100	0x3c2b17e2	0.010442706
101	0xbe3f50da	-0.18683186
102	0x3d4adfaa	0.04952971
103	0xbb83964d	-0.00401572
104	0x3e02b712	0.12765148
105	0xbd16ab23	-0.036784302
106	0x3e199df2	0.15001658
107	0x3e4e2b74	0.20133764
108	0x3d7a8150	0.06115848
109	0x3ccc6e00	0.024954796
110	0x3df25f7e	0.1183462
111	0x3cade1b6	0.021225791
112	0x3e2ea5c2	0.17055419
113	0x3d82a7f6	0.06379692
114	0xbe01069c	-0.12600178
115	0xbd36732d	-0.044543434
116	0x3df8a151	0.12140144
117	0xbd02fdb2	-0.031980224
118	0xbd91bca3	-0.07116058
119	0xbc819314	-0.015817203
120	0x3d47e732	0.04880447
121	0x3e1415ca	0.14461437
122	0x3e3217de	0.17391917
123	0x3cc18471	0.023622723
124	0x3e41ec8b	0.1893789
125	0xbc3eb85b	-0.011640633
126	0x3e33806a	0.17529455
127	0x3cdd6692	0.027026448
128	0x3cb5b94d	0.022183085
129	0xbe7edab8	-0.24888122
130	0x3d868e26	0.065700814
131	0x3d4d8f27	0.05018535
132	0x3e007c1e	0.12547347
133	0x3dccbab1	0.09996546
134	0xbbdb7301	-0.006697059
135	0x3e04e319	0.12977256
136	0x3e16b7d7	0.14718567
137	0xbe2b0780	-0.1670208
138	0xbd9a4e61	-0.07534481
139	0x3e4055ff	0.18782805
140	0xbe08c210	-0.13355279
141	0xbdf5f7d7	-0.12010162
142	0xbe26ef9a	-0.16302338
143	0xbd6335c9	-0.055471215
144	0x3d907db4	0.07055226
145	0xbd8f8b2e	-0.07008968
146	0xbd699ab4	-0.057032302
147	0xbda76f44	-0.08175519
148	0xbc9bb778	-0.019008383
149	0x3d83da51	0.06438125
150	0x3dbacdde	0.09121297
151	0x3e900f78	0.28136802
152	0x3dc138c9	0.09434659
153	0xbe6eb3b0	-0.23310733
154	0x3e23913b	0.1597337
155	0x3e4e8493	0.2016776
156	0x3d5621ca	0.052278318
157	0xbd0a5a0e	-0.03377729
158	0xbc3f417f	-0.01167333
159	0xbe9b3711	-0.3031545
160	0xbbb833af	-0.0056213955
161	0x3d7a6fb8	0.0611417
162	0xbcdcf048	-0.026970044
163	0x3d59fe16	0.05322083
164	0xbdb35ab2	-0.08757533
165	0xbe2e6b91	-0.17033221
166	0xbe137f17	-0.1440395
167	0xbc9845c4	-0.018587954
168	0xbe4c5bc8	-0.19956887
169	0xbd481e1f	-0.04885685
170	0x3cf8ac64	0.03035564
171	0xbd635619	-0.05550203
172	0x3cb527bf	0.022113679
173	0xbe016e43	-0.12639718
174	0xbe955cfd	-0.29172507
175	0xbc4f5129	-0.012653627
176	0x3d1057da	0.03524003
177	0x3c675228	0.014118709
178	0x3e78537d	0.24250598
179	0x3e8d554e	0.27604145
180	0xbd0ca522	-0.03433717
181	0x3e4d4867	0.2004715
182	0x3b84fea2	0.004058675
183	0xbe5a5a02	-0.21323398
184	0x3cd7d4d3	0.0263466
185	0xbd930bf9	-0.07180018
186	0xbe1eb338	-0.15498054
187	0xbd683756	-0.056693397
188	0x3e0c433f	0.13697527
189	0xbe1b3cc3	-0.15159898
190	0xbde65a4b	-0.11247691
191	0x3dce2880	0.100663185
192	0x3e1236b9	0.14278688
193	0x3e41f781	0.18942071
194	0x3daeaa93	0.08528628
195	0x3dc5ca7f	0.09657764
196	0xbd52ff13	-0.05151279
197	0x3c6e2a67	0.014536477
198	0x3e0481ac	0.12940091
199	0x3e2e148e	0.17000028
200	0x3c476fc5	0.012172644
201	0x3e01ea8a	0.12687126
202	0xbdf0d410	-0.11759198
203	0xbce82370	-0.02833721
204	0xbdb7dd59	-0.089777656
205	0xbe133c30	-0.14378428
206	0xbd827e97	-0.06371801
207	0x3e22c16e	0.158941
208	0xbd6826e5	-0.056677718
209	0xbdbf0b5e	-0.0932834
210	0xbe3c7771	-0.18404938
211	0xbb4edf30	-0.0031566136
212	0x3d1b7afb	0.03795908
213	0x3e427d25	0.18993051
214	0xbdf2fe67	-0.1186493
215	0xbe502dec	-0.20330018
216	0x3d36d12a	0.04463307
217	0x3be8abf4	0.0071005765
218	0x3c95869b	0.018252661
219	0xbd909b9e	-0.070609316
220	0xbcec073e	-0.028812047
221	0xbe820af1	-0.25398973
222	0xbdf3112e	-0.11868511
223	0xbe36dcf6	-0.17857727
224	0x3e220a63	0.15824275
225	0xbdffbcce	-0.124871835
226	0xbdace74b	-0.08442553
227	0x3e0f2d56	0.13982138
228	0x3db63db3	0.08898487
229	0xbc88f454	-0.016718067
230	0xbd5e8297	-0.05432376
231	0xbdb6ec39	-0.08931775
232	0xbc8e8bcc	-0.017400645
233	0xbdf002a3	-0.11719253
234	0x3d8b344b	0.067970835
235	0xbe1452df	-0.14484738
236	0x3d90d6bd	0.07072208
237	0x3d21cf1c	0.039504156
238	0xbd6577cf	-0.05602246
239	0xbe7c0d0f	-0.24614356
240	0x3df7eb21	0.12105394
241	0x3e51996a	0.20468679
242	0xbcdd0b46	-0.026982915
243	0xbe35cd21	-0.17754032
244	0x3d8a1134	0.067415625
245	0x3e182992	0.14859608
246	0xbd03ebd0	-0.03220731
247	0x3c3f4fb8	0.011676721
248	0xbddf37cf	-0.108993165
249	0xbe6b493f	-0.2297716
250	0x3defa3a6	0.11701135
251	0x3cdccbfc	0.026952736
252	0xbdd92b2e	-0.10603939
253	0xbd9bc905	-0.07606701
254	0xbe36ff69	-0.17870869
255	0x3db6caa0	0.089253664

bias f4 [30]
0	0xbe9bce43	-0.30430803
1	0x3e98d5ce	0.2985062
2	0x3d582335	0.05276795
3	0xbe507a66	-0.20359191
4	0x3de65134	0.11245957
5	0x3e5e5fc2	0.21716216
6	0x3d953cb6	0.0728697
7	0xbe5e42da	-0.2170519
8	0x3d20be01	0.0392437
9	0xbea2a325	-0.31765094
10	0x3d625c3f	0.055263754
11	0x3dbdfe5b	0.0927703
12	0xbde476d6	-0.11155479
13	0x3cb47a1f	0.022030888
14	0x3e89a897	0.26886436
15	0x3d90574e	0.07047902
16	0x3e52b0a1	0.20575191
17	0xbe53b8d9	-0.20675983
18	0xbe1cc151	-0.1530812
19	0x3dbcd241	0.0921979
20	0x3d8ed1b3	0.06973591
21	0x3e15d9c7	0.14633857
22	0x3e423ebb	0.18969242
23	0x3d87b4d8	0.0662629
24	0xbe4c8a65	-0.19974668
25	0x3e24d104	0.16095358
26	0x3cf32eee	0.029685464
27	0x3dc826b1	0.09773005
28	0x3e05920b	0.13043992
29	0x3e26dd1d	0.16295286

weight f4 [1, 30]
0	0x3f15754f	0.58382124
1	0xbc6e6d47	-0.014552421
2	0xbeb8144a	-0.3595298
3	0x3e68d5c1	0.2273779
4	0xbef48b70	-0.47762632
5	0xbda65c0f	-0.081230275
6	0x3eb6df0a	0.3571704
7	0xbec63505	-0.38712326
8	0xbe63f72d	-0.22262259
9	0x3df9dbd8	0.12200135
10	0x3e936cd7	0.28793976
11	0xbec154de	-0.3776006
12	0x3ef9a06d	0.48755208
13	0x3e1bbe87	0.15209399
14	0xbf1bcf76	-0.60863435
15	0x3eded345	0.4352056
16	0xbf0a15fa	-0.53939784
17	0x3ee969b9	0.45588472
18	0x3ecc72ae	0.39931244
19	0xbf01bc3a	-0.50677836
20	0xbec3489c	-0.38141334
21	0xbf0b0005	-0.54296905
22	0x3eac511d	0.33655635
23	0x3f1a0226	0.6015953
24	0x3d04b480	0.0323987
25	0xbe7219a6	-0.23642597
26	0xbef6d378	-0.48208213
27	0x3edf424f	0.43605277
28	0xbe22659a	-0.1585907
29	0xbd02f532	-0.031972118
