tme4/lightning_logs/version_24/checkpoints/epoch=0-step=5202.ckpt (torch, 20753 bytes, 20 tensors)

exp_avg f4 [30, 1]
000000 4a 84 87 b9 80 3a 61 b9 81 29 24 ba cc 2f 82 ba
       -0.0002584777 -0.00021479465 -0.0006262288 -0.0009932457
000010 55 57 8c b9 e4 4f b0 38 af b6 92 b6 09 3c 9c 3a
       -0.00026767948 8.407215e-05 -4.3724062e-06 0.0011919747
000020 74 8b 37 38 c6 9f aa b6 3c 35 3c ba 60 55 60 39
       4.3760476e-05 -5.084995e-06 -0.00071795634 0.0002139411
000030 34 41 31 ba f3 29 51 39 de 54 30 3a ce b0 f3 b6
       -0.000676173 0.0001994742 0.00067265134 -7.262547e-06
000040 a4 d1 82 39 7f fe 4d ba 4c 5e 29 ba c0 66 6d 37
       0.00024951727 -0.0007858052 -0.00064608897 1.4150224e-05
000050 cf cf 39 ba f2 34 fd b9 64 d6 63 3a bc 85 9c b6
       -0.0007088156 -0.00048295368 0.00086913095 -4.664731e-06
000060 c4 5b 34 3a d2 69 eb 38 35 68 07 36 a6 a1 b3 b9
       0.0006880129 0.00011225384 2.0177224e-06 -0.00034261978
000070 af 4b b1 b7 67 98 18 b6
       -2.1135287e-05 -2.2738475e-06

exp_avg_sq f4 [30, 1]
000000 45 98 c3 35 f1 d0 a4 35 66 16 d0 36 2d a0 6e 37
       1.4572948e-06 1.2279762e-06 6.2014906e-06 1.4223199e-05
000010 81 cb f7 35 f4 2d 78 35 ed 32 41 35 ab de 82 37
       1.8462162e-06 9.245407e-07 7.197221e-07 1.5600895e-05
000020 4f bd 6d 35 0f 45 f3 33 22 e9 ea 36 cc 20 d8 35
       8.856486e-07 1.1328131e-07 7.0008837e-06 1.6102799e-06
000030 97 c4 0f 37 34 b4 2e 35 3b a4 0d 37 f9 15 66 34
       8.569236e-06 6.508228e-07 8.442493e-06 2.1428413e-07
000040 ce 2a c2 35 f6 08 1d 37 21 9c 5b 37 71 86 89 35
       1.4466584e-06 9.360016e-06 1.3089769e-05 1.0246423e-06
000050 9e 0b d0 36 38 2f 92 36 5e c7 61 37 1f 21 ef 33
       6.2002355e-06 4.356636e-06 1.3457464e-05 1.11353295e-07
000060 3e ae 81 36 77 6a a8 34 ca a4 34 34 2c 3d 3e 36
       3.864784e-06 3.1369902e-07 1.6823756e-07 2.8347813e-06
000070 9e 56 05 34 ef 6d 6c 35
       1.2418101e-07 8.8076825e-07

exp_avg f4 [30]
000000 d7 a9 ad b9 72 79 83 b9 91 e4 11 ba ab ea 94 ba
       -0.00033123672 -0.0002507675 -0.000556537 -0.001136144
000010 cb 70 d6 38 7a 4a e5 b6 02 86 4c b7 18 7d 9c 3a
       0.000102253245 -6.833402e-06 -1.2190549e-05 0.0011939136
000020 bc 86 ad 38 25 98 93 b7 f6 17 45 ba 33 1b 41 39
       8.274379e-05 -1.7594613e-05 -0.0007518524 0.00018416047
000030 72 4a 5d ba f5 11 23 38 cc a6 62 3a cf 46 03 b8
       -0.0008441574 3.8878952e-05 0.00086460705 -3.129878e-05
000040 44 7f 2e 38 7d 0e 83 ba 46 78 31 b8 4b 23 eb 37
       4.1603358e-05 -0.0009998825 -4.2312102e-05 2.8030618e-05
000050 b6 3b 28 ba 6e 47 45 ba 25 cc 5a 3a 22 65 46 b7
       -0.0006417589 -0.00075255975 0.000834646 -1.18252665e-05
000060 b2 36 21 3a 13 64 63 38 7b 65 d1 36 59 55 ca b9
       0.0006149813 5.421422e-05 6.2404993e-06 -0.0003859203
000070 e4 d3 2f b8 f9 ac 75 b6
       -4.192059e-05 -3.6608528e-06

exp_avg_sq f4 [30]
000000 51 8e a4 36 54 6d 6f 36 37 eb 9a 37 77 02 37 38
       4.9041487e-06 3.5677413e-06 1.8467761e-05 4.3632896e-05
000010 ea b5 6c 36 8f df 36 35 50 1a c7 33 50 ff 16 38
       3.5272628e-06 6.8125604e-07 9.271446e-08 3.6000565e-05
000020 e7 bd 14 35 25 a4 89 33 68 71 a9 37 ad 89 0c 37
       5.541064e-07 6.409417e-08 2.0199179e-05 8.376705e-06
000030 88 db c3 37 66 18 9e 36 ab 1e b6 37 3b 0d 4b 34
       2.3348039e-05 4.7116073e-06 2.1710372e-05 1.8910661e-07
000040 c6 0b 8a 36 2b ab f2 37 10 49 f5 36 01 a5 64 35
       4.114091e-06 2.8928354e-05 7.3100746e-06 8.517673e-07
000050 b6 4f 38 37 a8 e2 af 37 c6 f6 e3 37 6d 6b 82 33
       1.0985814e-05 2.096717e-05 2.7175422e-05 6.0731374e-08
000060 08 e2 05 37 83 34 1a 36 5c 20 e9 32 6f 9c 32 37
       7.980045e-06 2.2978354e-06 2.7139485e-08 1.0646049e-05
000070 0b ac 6d 33 59 87 51 34
       5.5337335e-08 1.9513881e-07

exp_avg f4 [30, 30]
000000 02 ee 01 38 8e a0 6f 38 77 8c 37 39 36 05 21 39
       3.097766e-05 5.713157e-05 0.00017504567 0.00015356098
000010 ff 07 a6 b9 e3 7e f8 37 52 f1 ab 39 56 f9 fb b8
       -0.00031667945 2.962299e-05 0.0003279546 -0.00012015055
000020 51 e9 9e b9 e4 43 ab 39 da 89 6b 38 dd 4d b4 39
       -0.00030309943 0.00032666244 5.615675e-05 0.00034390288
000030 7c 79 f5 38 fb fc ae 39 3d f7 58 b9 86 47 ab 39
       0.000117051386 0.0003337635 -0.00020691469 0.0003266895
000040 ba 01 8b 39 bc 04 da 38 4d e0 36 38 e6 33 a8 b9
       0.00026513432 0.00010395932 4.3601078e-05 -0.00032082124
000050 b3 75 44 39 7f fe dd b8 87 32 49 37 b6 7d ac 39
       0.00018735863 -0.00010585505 1.1992298e-05 0.00032900058
000060 b2 1f 73 b9 e1 56 b7 39 a6 3b ac b9 26 45 cb b8
       -0.00023186093 0.0003496921 -0.00032850838 -9.692674e-05
000070 a7 a3 a1 39 1b ee 97 39 e3 fc d5 38 c1 c7 c2 38
       0.00030830243 0.00028978367 0.00010203735 9.287848e-05
000080 0a 72 43 39 94 88 34 39 35 e1 93 b8 1d 74 ad b7
       0.00018639132 0.00017217017 -7.051454e-05 -2.0677277e-05
000090 2f 94 82 39 80 aa 08 b9 61 65 71 b9 b2 d4 81 39
       0.00024905938 -0.00013033487 -0.00023021318 0.00024763268
0000a0 4e 68 e3 38 f1 fd d9 38 28 b6 13 39 73 87 9b 38
       0.00010843632 0.000103946666 0.00014086871 7.416205e-05
0000b0 49 30 45 b9 50 5c 81 39 96 60 3e 38 b4 7e 07 39
       -0.00018805372 0.00024673576 4.5389483e-05 0.00012921804
0000c0 17 18 e9 38 c9 76 78 b9 0a be 39 39 7c f3 11 38
       0.00011114793 -0.00023695374 0.0001771377 3.4797456e-05
0000d0 50 a2 72 b8 2d 78 82 39 59 b4 56 b9 5a 97 b2 38
       -5.784846e-05 0.0002488507 -0.00020475815 8.515893e-05
0000e0 d8 c1 82 b9 30 84 ac 36 58 58 77 39 51 16 69 39
       -0.00024939957 5.141388e-06 0.00023588666 0.00022228925
0000f0 50 99 0f 39 37 67 f6 38 95 52 a5 39 9a 72 a4 39
       0.00013694656 0.00011749419 0.0003153278 0.00031365902
000100 a8 26 e1 b9 f3 ba 61 37 62 c5 10 3a a9 f8 79 b9
       -0.00042944145 1.3454573e-05 0.00055225764 -0.00023839124
000110 6d 89 05 ba 14 ce 0f 3a 95 77 31 39 b6 0b 00 3a
       -0.00050940254 0.0005485725 0.00016924583 0.00048845576
000120 26 f4 87 39 1a b4 f6 39 a8 13 cf b9 ae 8e 0f 3a
       0.0002593111 0.00047054962 -0.00039496762 0.0005476278
000130 dd 0f c8 39 58 7a 68 39 4e b5 fb 38 2b a4 0b ba
       0.00038158792 0.00022170821 0.00012002383 -0.0005326892
000140 8f 43 c0 39 e0 4e a4 b8 e3 0d 52 b8 c3 c4 10 3a
       0.0003667143 -7.834821e-05 -5.0080835e-05 0.0005522484
000150 0d fd e4 b9 97 e0 fb 39 c7 0b 11 ba a7 8e fb b8
       -0.00043676086 0.00048041783 -0.0005533066 -0.00011995184
000160 1a 89 08 3a 56 d8 fe 39 5a 20 0a 39 3c 1f da 38
       0.0005208418 0.00048607838 0.00013172757 0.00010400868
000170 fe c6 0e 3a cb e4 02 3a ae 0a 78 ba 45 1e 0d 39
       0.0005446522 0.0004993199 -0.00094620406 0.00013458084
000180 4e 9b 93 3a 0e 15 d3 b9 f9 83 89 ba 96 fa 92 3a
       0.0011261494 -0.00040260743 -0.0010491601 0.0011213596
000190 f2 64 7e 39 c7 5f 87 3a 27 c1 df 39 af 3c 85 3a
       0.00024260933 0.0010328226 0.00042677784 0.001016518
0001a0 9f 1b 37 ba b9 d9 92 3a a0 eb 58 3a 18 10 b6 39
       -0.0006985012 0.0011203802 0.0008274857 0.00034725736
0001b0 56 73 1a 39 94 1a 90 ba 40 12 27 3a b8 3b 9e b9
       0.0001472955 -0.0010994249 0.0006373264 -0.00030180602
0001c0 f3 56 8c b7 aa ef 93 3a 55 cc 4c ba d2 f1 88 3a
       -1.672979e-05 0.0011286635 -0.000781243 0.0010448045
0001d0 08 d8 93 ba 9d 11 b2 b9 80 b6 8b 3a 97 d7 84 3a
       -0.0011279592 -0.0003396393 0.0010659248 0.0010135052
0001e0 b3 59 05 39 74 a7 ed 38 13 a4 fe 37 41 d0 c4 38
       0.00012717284 0.00011332231 3.0355563e-05 9.3847986e-05
0001f0 c0 ec bd 38 1b 16 f3 b8 37 7b d1 b8 84 68 6a b8
       9.0563204e-05 -0.000115912604 -9.988847e-05 -5.5887285e-05
000200 90 f1 d8 38 2c 2e d8 b8 42 95 a8 38 14 67 8b b8
       0.00010344677 -0.00010308283 8.038666e-05 -6.647236e-05
000210 de 2d 9b 38 dd da 96 b8 9d 47 8c b8 eb 90 d9 b8
       7.3995194e-05 -7.193324e-05 -6.689059e-05 -0.000103743594
000220 93 ed 52 b8 21 63 a1 38 6a bb 82 38 57 09 e3 38
       -5.028916e-05 7.6955424e-05 6.233792e-05 0.00010825943
000230 e5 14 9a 38 5f f1 0f 39 3f e3 ac b8 e8 e4 d7 b8
       7.347184e-05 0.0001372746 -8.243927e-05 -0.00010294636
000240 01 d9 73 b8 74 b0 bb b8 c7 e3 d0 38 67 a5 e4 38
       -5.8137815e-05 -8.949722e-05 9.96064e-05 0.00010902696
000250 0f fd cf b8 2a 0d f6 b8 6d f1 44 38 51 a4 8e 37
       -9.917665e-05 -0.00011732646 4.6954887e-05 1.7004235e-05
000260 8c 4d 90 36 c7 5d c3 37 64 f1 6e 38 33 09 29 b7
       4.300562e-06 2.328948e-05 5.6968434e-05 -1.0075327e-05
000270 17 7e fa 36 1b 1b 20 b8 0a 32 01 b7 a7 0d d0 36
       7.4652594e-06 -3.8172217e-05 -7.70065e-06 6.2004724e-06
000280 ab 85 5b 38 3f f8 6e b8 1d ff 42 38 fd 40 5d b8
       5.2338157e-05 -5.697482e-05 4.6490797e-05 -5.275103e-05
000290 03 73 24 b8 1a 16 cd 36 56 50 34 b8 84 6a 11 38
       -3.920776e-05 6.112049e-06 -4.2990163e-05 3.4669894e-05
0002a0 41 6e 87 37 a4 a9 ae b6 fc 86 39 38 2e b6 4d 38
       1.6144595e-05 -5.205353e-06 4.423315e-05 4.9045477e-05
0002b0 23 47 5e b8 57 c2 da 36 f5 53 13 b8 7b 14 7c b8
       -5.2995176e-05 6.5195304e-06 -3.5125722e-05 -6.0100556e-05
0002c0 c7 5d fd b6 39 3b 68 38 0c 96 0f 37 2e b9 d3 36
       -7.5509047e-06 5.5368266e-05 8.5584e-06 6.309848e-06
0002d0 bc f4 99 b6 9f 5f a2 b6 af e6 31 36 77 50 20 b4
       -4.588246e-06 -4.839108e-06 2.650933e-06 -1.4930434e-07
0002e0 00 61 83 b7 01 40 c3 36 59 25 4a 37 f8 67 59 b5
       -1.5661586e-05 5.818904e-06 1.2048834e-05 -8.0990094e-07
0002f0 3a 84 43 b7 e3 00 4b 37 a9 d2 e3 b5 eb f3 82 37
       -1.1653692e-05 1.2099949e-05 -1.6974128e-06 1.561079e-05
000300 52 bb d0 34 a9 81 89 37 47 83 6a b6 e6 a9 4b 37
       3.8879313e-07 1.639205e-05 -3.494513e-06 1.21393e-05
000310 40 95 67 37 2e 43 61 b5 81 5c 35 b6 c8 8d 50 b7
       1.3803423e-05 -8.391679e-07 -2.7024946e-06 -1.2430777e-05
000320 16 b4 2f 36 4d 49 20 b7 33 07 88 36 8c 1a 4c 37
       2.6181856e-06 -9.55381e-06 4.053954e-06 1.21655285e-05
000330 55 08 9a b6 05 e1 8d 37 40 f6 49 b7 55 46 11 b7
       -4.5905276e-06 1.6913293e-05 -1.2037868e-05 -8.659049e-06
000340 77 da 40 37 96 bc 43 37 38 d9 4f b9 48 8a 36 b9
       1.1494957e-05 1.1666814e-05 -0.00019821979 -0.00017408386
000350 aa 03 19 ba fc 85 15 ba ca 35 6a 3a 61 45 c3 b8
       -0.0005837033 -0.0005703864 0.0008934407 -9.3112474e-05
000360 47 24 9b ba 2a a2 ec 39 ac f6 8f 3a dc 46 9a ba
       -0.0011836373 0.0004513425 0.0010983548 -0.0011770385
000370 76 60 9d b9 7b ef 81 ba e3 fe fb b9 69 47 7d ba
       -0.00030017243 -0.000991329 -0.00048064356 -0.0009661825
000380 82 da 46 3a cd 12 9a ba 7c cb 4d ba 75 ed d2 b9
       0.0007585661 -0.0011754871 -0.0007850451 -0.0004023124
000390 62 38 42 b9 6f 21 96 3a 8f 8d 37 ba 4f eb 74 39
       -0.00018522286 0.0011454056 -0.000700199 0.00023357313
0003a0 2a e1 93 38 64 58 9b ba 31 54 5e 3a 13 79 81 ba
       7.051446e-05 -0.0011851904 0.00084811734 -0.0009878002
0003b0 5c 73 9b 3a 58 a1 96 39 82 ed 92 ba af 48 8a ba
       0.0011859941 0.0002873044 -0.0011209699 -0.0010550226
0003c0 9c 9e 91 37 37 d4 8f 37 7c a8 d7 b7 42 f2 38 b7
       1.7359205e-05 1.7145749e-05 -2.5708454e-05 -1.102366e-05
0003d0 50 25 b2 38 95 2f e8 b7 25 5b ab b8 f5 6f 7a 37
       8.4946514e-05 -2.7678712e-05 -8.1708924e-05 1.4927228e-05
0003e0 d6 99 a3 38 f4 d9 ab b8 28 e9 8b 36 5d 5f b4 b8
       7.8011e-05 -8.194512e-05 4.1696658e-06 -8.600832e-05
0003f0 8f 24 39 b7 2a 5f b7 b8 4b de f9 37 16 4c ac b8
       -1.1035371e-05 -8.743846e-05 2.9786626e-05 -8.215771e-05

exp_avg_sq f4 [30, 30]
000000 86 b4 ea 35 35 56 a4 35 54 ef d7 35 75 3a d8 35
       1.7486898e-06 1.2244042e-06 1.6088402e-06 1.6110267e-06
000010 ab bf 25 36 3d a9 53 35 f4 27 9f 36 a8 b4 df 35
       2.4698481e-06 7.88499e-07 4.7432204e-06 1.6667373e-06
000020 a9 02 8d 36 9d ee 9b 36 bc 68 e7 35 49 ba 16 36
       4.202437e-06 4.647138e-06 1.7241323e-06 2.2460174e-06
000030 f7 95 02 36 81 7a 33 36 81 53 1f 36 d1 85 9b 36
       1.94588e-06 2.6744385e-06 2.3741452e-06 4.6349383e-06
000040 b2 6e 19 36 12 6b cd 35 66 ef 9f 35 a0 f5 8b 36
       2.286321e-06 1.5304852e-06 1.1916097e-06 4.1711173e-06
000050 62 f6 1e 36 9a 55 f4 35 92 78 a9 35 47 b6 a0 36
       2.3687248e-06 1.820433e-06 1.2626572e-06 4.7895915e-06
000060 99 e6 29 36 d5 d7 34 36 d0 4b a1 36 e3 1c ee 35
       2.5317188e-06 2.694772e-06 4.8069996e-06 1.7740789e-06
000070 38 96 92 36 cf e8 7e 36 24 95 d0 35 be 7b 9a 35
       4.368627e-06 3.7984462e-06 1.5540613e-06 1.1509908e-06
000080 a6 81 bb 35 35 65 c2 35 db f5 f4 35 6b eb 31 35
       1.3970318e-06 1.4483581e-06 1.825097e-06 6.6280217e-07
000090 02 9f 68 36 95 9b c6 35 98 12 4c 36 83 94 63 36
       3.4663249e-06 1.479743e-06 3.0409192e-06 3.391208e-06
0000a0 59 e2 cb 35 a3 d3 d9 35 66 35 e3 35 dd 5a 06 36
       1.5190554e-06 1.6229354e-06 1.6928359e-06 2.0020445e-06
0000b0 33 c3 09 36 58 9a 62 36 0d a8 e8 35 25 3a b8 35
       2.0528212e-06 3.3766464e-06 1.7334256e-06 1.3725991e-06
0000c0 9b b0 84 35 02 6e 47 36 aa 98 09 36 e7 ba d0 35
       9.886165e-07 2.9717344e-06 2.0503453e-06 1.5551603e-06
0000d0 52 4c 96 35 08 e4 69 36 49 48 11 36 77 e7 06 36
       1.1198083e-06 3.4852437e-06 2.164876e-06 2.0102286e-06
0000e0 ff 62 6b 36 0b 84 cf 35 ff d5 55 36 7d 4a 36 36
       3.5075352e-06 1.5461131e-06 3.1864035e-06 2.7163471e-06
0000f0 92 c8 f4 36 e5 79 b2 36 3e da d5 36 67 ca df 36
       7.295116e-06 5.319004e-06 6.3733014e-06 6.6694806e-06
000100 d2 49 1b 37 68 20 4e 36 46 1f 96 37 63 c9 e5 36
       9.255908e-06 3.0715255e-06 1.7895956e-05 6.8481763e-06
000110 c2 59 84 37 9a e5 92 37 74 05 eb 36 10 b4 0c 37
       1.5777423e-05 1.7511473e-05 7.0041806e-06 8.386574e-06
000120 19 f6 03 37 90 65 29 37 8e d4 1e 37 64 77 92 37
       7.8655075e-06 1.0096832e-05 9.467023e-06 1.7460152e-05
000130 73 f2 14 37 3d b4 d7 36 50 1a 9e 36 3e 17 82 37
       8.877937e-06 6.428482e-06 4.71183e-06 1.550803e-05
000140 d2 42 1f 37 07 b6 f4 36 b4 6f ac 36 73 39 97 37
       9.492696e-06 7.2929574e-06 5.1390034e-06 1.8027355e-05
000150 5b 0e 27 37 00 ad 2a 37 8d 1f 98 37 59 1e f6 36
       9.957318e-06 1.0173069e-05 1.8134504e-05 7.3349042e-06
000160 cd 47 8a 37 52 ec 6d 37 ca d0 7a 37 3f 34 32 37
       1.6484317e-05 1.4181323e-05 1.4949774e-05 1.0621791e-05
000170 84 72 69 37 5b ed 6e 37 78 81 a5 37 98 d6 d8 36
       1.3914545e-05 1.4241169e-05 1.9729821e-05 6.4622836e-06
000180 d2 77 31 38 d1 d4 78 37 12 ab 1c 38 65 d3 2d 38
       4.231168e-05 1.4831502e-05 3.735262e-05 4.144329e-05
000190 63 3f 79 37 63 9e 95 37 1e b3 8e 37 f5 4f b4 37
       1.4856315e-05 1.7835939e-05 1.7011127e-05 2.1494905e-05
0001a0 ee 4d ae 37 85 3f 2d 38 b4 bd 99 37 74 43 64 37
       2.0778705e-05 4.130557e-05 1.8327359e-05 1.3605564e-05
0001b0 de dc 26 37 8b df 1a 38 74 5a ae 37 f6 cf 7a 37
       9.945796e-06 3.692465e-05 2.0784537e-05 1.4949581e-05
0001c0 15 c4 34 37 3a cf 32 38 ff de bb 37 9b 82 b5 37
       1.077449e-05 4.2631502e-05 2.2395978e-05 2.16377e-05
0001d0 12 b9 33 38 2b 9a 74 37 21 3c 23 38 71 47 0c 38
       4.2849286e-05 1.4579428e-05 3.8918228e-05 3.3445136e-05
0001e0 6c 5a 37 36 b9 58 16 36 ca 62 e8 35 ad b3 00 36
       2.7321757e-06 2.2403385e-06 1.7314098e-06 1.9178071e-06
0001f0 11 cb 86 36 54 f6 db 35 2e 10 61 36 65 35 f2 35
       4.0171512e-06 1.6388462e-06 3.353703e-06 1.8045945e-06
000200 d1 48 4a 36 67 10 5e 36 f3 b0 12 36 20 c7 73 36
       3.014273e-06 3.3090125e-06 2.1858693e-06 3.6325728e-06
000210 f0 94 16 36 fa 8a 92 36 92 bd 27 36 24 86 5d 36
       2.2438435e-06 4.367318e-06 2.4995284e-06 3.3009646e-06
000220 32 26 88 36 24 b5 00 36 bc ec dc 35 db b2 44 36
       4.0575624e-06 1.9178924e-06 1.6460176e-06 2.9310384e-06
000230 ad b0 2b 36 0c ea 46 36 58 67 ea 35 2f 4b 66 36
       2.5583824e-06 2.9640532e-06 1.7464436e-06 3.4316433e-06
000240 42 62 19 36 6a 2e 93 36 30 48 65 36 60 2c 5c 36
       2.285597e-06 4.3863447e-06 3.4165678e-06 3.2808384e-06
000250 20 ea 4f 36 b4 9b 3f 36 b2 06 a6 34 9d 75 69 34
       3.0981682e-06 2.855185e-06 3.092478e-07 2.1742603e-07
000260 d7 da 86 34 c7 dd 81 34 88 bc dc 34 2a 6a 0e 34
       2.5118672e-07 2.4189487e-07 4.1115368e-07 1.3263403e-07
000270 0b 3a 2f 35 db d3 84 34 34 aa 13 35 44 5f 23 35
       6.5277044e-07 2.474106e-07 5.5009446e-07 6.086086e-07
000280 07 ba 92 34 b1 f3 cf 34 9a b8 a5 34 8f 8d e6 34
       2.7329972e-07 3.8734063e-07 3.086796e-07 4.2943836e-07
000290 30 4a cf 34 e7 5b 24 35 a6 9b cf 34 2e 65 82 34
       3.8610733e-07 6.1228496e-07 3.8670004e-07 2.4288005e-07
0002a0 9f 0b 52 34 e1 e5 16 35 88 78 bc 34 a1 0f a6 34
       1.9562002e-07 5.621387e-07 3.5105427e-07 3.093128e-07
0002b0 76 9f 57 34 0c 6b 2e 35 72 93 c8 34 a9 97 fc 34
       2.0081447e-07 6.4975825e-07 3.7360184e-07 4.7049005e-07
0002c0 be 3a 33 35 fe 91 ab 34 e9 47 1a 35 69 17 08 35
       6.676818e-07 3.1957455e-07 5.7474114e-07 5.0698014e-07
0002d0 f9 77 33 33 0f bb 56 33 70 a1 ff 32 cd 3a 94 32
       4.17858e-08 4.9995887e-08 2.975932e-08 1.7256207e-08
0002e0 0e 26 62 33 66 1e ea 32 88 56 7f 33 e6 e2 48 32
       5.2654336e-08 2.7255009e-08 5.9450514e-08 1.1693123e-08
0002f0 19 e2 49 33 3d 1a 70 33 bf 35 f7 32 3c d4 6b 33
       4.7004594e-08 5.5903218e-08 2.8779025e-08 5.4908227e-08
000300 63 12 fc 32 d8 f1 70 33 18 63 54 33 76 f3 7f 33
       2.9345022e-08 5.609931e-08 4.945022e-08 5.959324e-08
000310 0f 4c 65 33 2e 55 06 33 dc 4a 99 32 33 be 69 33
       5.3387392e-08 3.1276777e-08 1.7845586e-08 5.4422525e-08
000320 dd bd d1 32 bd 8d 04 33 30 fc 88 32 9e 22 aa 33
       2.4417142e-08 3.0862555e-08 1.5947165e-08 7.922539e-08
000330 89 ff b1 32 ea 00 8c 33 da 90 ad 33 51 ae 4d 33
       2.0721716e-08 6.519424e-08 8.0822886e-08 4.7888822e-08
000340 90 08 56 33 75 fa 48 33 e7 b2 90 37 e4 12 59 37
       4.9833545e-08 4.6793918e-08 1.7249446e-05 1.2938606e-05
000350 eb a7 74 37 b6 44 81 37 8a 00 ba 37 ff 61 fb 36
       1.458263e-05 1.5409994e-05 2.2173179e-05 7.491791e-06
000360 d8 2e 13 38 50 e3 82 37 c4 4e 01 38 95 db 0f 38
       3.5091158e-05 1.5603058e-05 3.0829353e-05 3.429836e-05
000370 f7 a9 87 37 6e 70 a7 37 96 af 96 37 ee 5d cb 37
       1.61724e-05 1.9960306e-05 1.7963157e-05 2.4243225e-05
000380 14 11 b5 37 c5 4b 0f 38 4c 0b b2 37 3e 78 78 37
       2.1584834e-05 3.4164423e-05 2.1224514e-05 1.4809948e-05
000390 88 20 35 37 cf fb fe 37 08 d2 b5 37 16 ef 91 37
       1.0796015e-05 3.0396417e-05 2.1674685e-05 1.739668e-05
0003a0 1c 1b 49 37 9b a7 13 38 5b eb bb 37 77 e7 cc 37
       1.19868455e-05 3.5203626e-05 2.2401733e-05 2.442648e-05
0003b0 8c a3 14 38 eb 53 95 37 a2 3c 07 38 53 3f e8 37
       3.5438265e-05 1.7801261e-05 3.2242977e-05 2.7686043e-05
0003c0 9b eb 34 34 05 af 66 34 19 e1 d6 33 c9 76 86 33
       1.6849519e-07 2.1484091e-07 1.00060966e-07 6.261468e-08
0003d0 ed 49 7a 34 77 d0 cd 33 c9 b9 b3 34 d2 e4 85 33
       2.3309958e-07 9.583976e-08 3.3476525e-07 6.234917e-08
0003e0 8d 7c 8d 34 ab 3c 9e 34 41 bf bf 33 ee 4e 71 34
       2.635392e-07 2.9473935e-07 8.9289195e-08 2.2473589e-07
0003f0 21 3d 03 34 51 75 94 34 5a aa 8e 34 b7 72 c0 34
       1.2222564e-07 2.7652507e-07 2.6573508e-07 3.5846253e-07

exp_avg f4 [30]
000000 d7 a9 ad b9 72 79 83 b9 91 e4 11 ba ab ea 94 ba
       -0.00033123672 -0.0002507675 -0.000556537 -0.001136144
000010 cb 70 d6 38 7a 4a e5 b6 02 86 4c b7 18 7d 9c 3a
       0.000102253245 -6.833402e-06 -1.2190549e-05 0.0011939136
000020 bc 86 ad 38 25 98 93 b7 f6 17 45 ba 33 1b 41 39
       8.274379e-05 -1.7594613e-05 -0.0007518524 0.00018416047
000030 72 4a 5d ba f5 11 23 38 cc a6 62 3a cf 46 03 b8
       -0.0008441574 3.8878952e-05 0.00086460705 -3.129878e-05
000040 44 7f 2e 38 7d 0e 83 ba 46 78 31 b8 4b 23 eb 37
       4.1603358e-05 -0.0009998825 -4.2312102e-05 2.8030618e-05
000050 b6 3b 28 ba 6e 47 45 ba 25 cc 5a 3a 22 65 46 b7
       -0.0006417589 -0.00075255975 0.000834646 -1.18252665e-05
000060 b2 36 21 3a 13 64 63 38 7b 65 d1 36 59 55 ca b9
       0.0006149813 5.421422e-05 6.2404993e-06 -0.0003859203
000070 e4 d3 2f b8 f9 ac 75 b6
       -4.192059e-05 -3.6608528e-06

exp_avg_sq f4 [30]
000000 51 8e a4 36 54 6d 6f 36 37 eb 9a 37 77 02 37 38
       4.9041487e-06 3.5677413e-06 1.8467761e-05 4.3632896e-05
000010 ea b5 6c 36 8f df 36 35 50 1a c7 33 50 ff 16 38
       3.5272628e-06 6.8125604e-07 9.271446e-08 3.6000565e-05
000020 e7 bd 14 35 25 a4 89 33 68 71 a9 37 ad 89 0c 37
       5.541064e-07 6.409417e-08 2.0199179e-05 8.376705e-06
000030 88 db c3 37 66 18 9e 36 ab 1e b6 37 3b 0d 4b 34
       2.3348039e-05 4.7116073e-06 2.1710372e-05 1.8910661e-07
000040 c6 0b 8a 36 2b ab f2 37 10 49 f5 36 01 a5 64 35
       4.114091e-06 2.8928354e-05 7.3100746e-06 8.517673e-07
000050 b6 4f 38 37 a8 e2 af 37 c6 f6 e3 37 6d 6b 82 33
       1.0985814e-05 2.096717e-05 2.7175422e-05 6.0731374e-08
000060 08 e2 05 37 83 34 1a 36 5c 20 e9 32 6f 9c 32 37
       7.980045e-06 2.2978354e-06 2.7139485e-08 1.0646049e-05
000070 0b ac 6d 33 59 87 51 34
       5.5337335e-08 1.9513881e-07

exp_avg f4 [1, 30]
000000 96 f7 39 ba 15 48 0a ba 1b 69 6a 39 c8 a9 72 b8
       -0.0007094083 -0.0005275023 0.00022355134 -5.7855417e-05
000010 a0 4c eb ba 14 ff 2b 3a f2 04 bd 3a 70 ed 10 39
       -0.0017951913 0.0006561142 0.001442103 0.00013821363
000020 46 82 b7 ba 0d e8 bd 3a b8 a6 c1 b9 cc 04 e0 3a
       -0.0014000617 0.0014488712 -0.00036936044 0.0017091273
000030 b2 87 3c b9 7f e0 f8 3a be f0 25 b9 77 80 be 3a
       -0.00017979628 0.0018987803 -0.0001582531 0.0014534135
000040 f5 d4 d6 3a 03 cf 5c b9 59 e1 b3 b9 d7 3f c0 ba
       0.001639037 -0.00021057953 -0.00034309438 -0.0014667463
000050 c6 6d 2c 38 ab 26 96 ba 32 d3 16 3a 15 0a bf 3a
       4.111023e-05 -0.0011455616 0.00057535165 0.0014575148
000060 f8 d2 cb b9 8c 6a f8 3a ba 7f bd ba b2 42 a6 ba
       -0.0003887636 0.0018952652 -0.0014457621 -0.0012684672
000070 6d 35 b6 3a 9a e7 b7 3a
       0.001390142 0.0014030815

exp_avg_sq f4 [1, 30]
000000 bc fd 31 38 6f 1b 9a 37 2d 99 33 37 8f 0c 03 37
       4.2436397e-05 1.8371005e-05 1.0704895e-05 7.8111325e-06
000010 75 80 be 38 e3 2a f7 37 1e 0c eb 38 72 8f 1e 37
       9.083833e-05 2.9464665e-05 0.0001120793 9.450932e-06
000020 fb 4d b2 38 c3 cc bf 38 b4 8f 4b 37 d0 67 d1 38
       8.5022264e-05 9.1457296e-05 1.2133201e-05 9.985233e-05
000030 dd cd e9 37 c2 21 9f 38 7f 54 49 38 be 65 c2 38
       2.7871627e-05 7.587999e-05 4.8000828e-05 9.269592e-05
000040 42 28 a9 38 72 b5 66 37 a9 ef f6 36 5e 3c ce 38
       8.0660466e-05 1.3751314e-05 7.3592714e-06 9.83409e-05
000050 11 dd fb 37 c3 3a f6 37 27 29 f7 36 dd fc d3 38
       3.0024474e-05 2.9352848e-05 7.3659644e-06 0.000101083635
000060 3b dd 11 38 0e 4c 02 39 72 45 ee 38 9a bc 4a 38
       3.477673e-05 0.00012426099 0.000113616596 4.8336202e-05
000070 3b d6 b4 38 cb f4 b7 38
       8.6229724e-05 8.771716e-05

backbone.x.weight f4 [30, 1]
000000 95 a7 57 3f 76 6c 19 3f fb b6 21 3f 64 42 29 3f
       0.84240085 0.59931123 0.6316983 0.6611693
000010 55 55 c0 3f 05 a9 b9 be 0f 7e ae 3e 0b a2 22 bf
       1.5026041 -0.36261764 0.3408055 -0.6352851
000020 88 c8 0f 3e 7a ec 4e bd 4d 4f 3f 3f b7 a0 a4 bf
       0.1404134 -0.05051849 0.7473038 -1.2861546
000030 0f 06 47 3f 9d ad e5 bf 3d d4 5e bf cf 1e 04 be
       0.7774362 -1.7943608 -0.870426 -0.12902378
000040 ae 29 b2 bf 25 ac 20 3f d1 61 1e 3f aa 2e 06 3f
       -1.391897 0.6276267 0.61868006 0.52414954
000050 c9 89 66 3f 1a 52 75 3f c0 8d 1b bf 3f b3 2f be
       0.90053993 0.958284 -0.6076317 -0.1715822
000060 99 92 58 bf 5c 10 e2 bf 46 0a d4 be ab de 73 3f
       -0.8459869 -1.7661242 -0.41414088 0.9526164
000070 56 d5 d4 3a 4b 58 27 be
       0.0016237895 -0.16342275

backbone.x.bias f4 [30]
000000 2e bb e5 be 98 dc 00 bf f1 7c 61 3e 2b 9b aa 3d
       -0.4486937 -0.503366 0.22020318 0.08330377
000010 52 1e 28 3f 50 04 51 3e 2b 51 c0 be ee 62 99 bc
       0.65671265 0.20411801 -0.37561926 -0.018723931
000020 b3 0c 91 be 35 89 08 bf d2 16 0c be 2b 6e b5 3c
       -0.2833 -0.5333436 -0.1368058 0.022147259
000030 31 59 a2 bd 6d ba 48 bf f0 8e a7 3e ba f2 c9 be
       -0.07927168 -0.78409463 0.3272624 -0.39442998
000040 3e 8c 0d bf 2e 26 dd be ac 6b 30 3f a4 a7 38 3e
       -0.5529212 -0.4319319 0.68914294 0.180327
000050 71 ad 33 3f 2f 43 42 3d a0 12 c9 3e 50 5c 84 bf
       0.70186526 0.047427353 0.39272022 -1.0340672
000060 d5 87 6f bd 74 db 35 3f 4d 80 5a 3f 0e 81 1c bf
       -0.05847915 0.71037984 0.8535202 -0.6113442
000070 cf 81 c6 be c8 42 18 3f
       -0.3877091 0.594769

backbone.h.weight f4 [30, 30]
000000 6c bb 47 be ad fd c3 3c 33 0b 26 3d 4e 1e 1a bd
       -0.1950509 0.023924673 0.040538024 -0.037626557
000010 58 98 a0 3d c3 f6 09 3e f2 83 cc 3d a2 39 aa bd
       0.07841557 0.13473038 0.09986104 -0.08311774
000020 8e f0 36 3d 0a 86 42 be 58 6c a4 3d f0 fb 41 bd
       0.044663005 -0.18996444 0.080284774 -0.047359407
000030 a4 31 a3 3d 95 59 99 bd 5c ef 37 3e b1 4d a8 3c
       0.079684526 -0.074877895 0.17962402 0.020544859
000040 83 08 3a bd ef d6 0d 3d f8 9e 14 bc 7f 52 4e 3d
       -0.045418274 0.034628805 -0.009071104 0.050371643
000050 8c 61 27 3e 50 3a 09 3e 0b df 23 3d af 8f 20 3e
       0.16345805 0.1340115 0.040007632 0.15679811
000060 53 3b 0d 3e a3 73 b5 3d 50 75 81 bd 58 4b d8 bd
       0.13792162 0.088599466 -0.06321204 -0.10561246
000070 d0 2b 95 ba c6 77 82 3d 59 f8 0d bd e8 b3 7e 3d
       -0.0011380855 0.06370501 -0.03466067 0.06218329
000080 a5 db 1b 3e 2d ee bf bd b5 8f 4d 3d c9 94 78 3e
       0.15220506 -0.093716 0.050185878 0.24275507
000090 68 51 e4 bd 65 65 04 3e 39 af 36 3b d0 5e 6c bd
       -0.111483395 0.12929304 0.0027875437 -0.057707608
0000a0 35 77 27 be 82 1b 88 3d d1 b9 31 3d 8d 37 c0 bd
       -0.16354068 0.06645872 0.0433901 -0.093855955
0000b0 4c e9 0e bd 86 28 11 3e d9 b8 2c 3e c8 a2 e3 3d
       -0.034890458 0.14175615 0.16867389 0.111150324
0000c0 93 5a de bd e5 76 1d 3e bb b8 9a bd 08 51 12 bd
       -0.108571194 0.15377386 -0.07554766 -0.03572181
0000d0 38 50 16 3e 15 61 0b bd 1d a8 b6 3d 42 1f b6 bd
       0.14679039 -0.03402813 0.08918784 -0.08892681
0000e0 1e e5 33 be 91 f0 6c 3d 8a ea 41 3b 6a 85 30 be
       -0.1756787 0.05784661 0.002958926 -0.17238393
0000f0 c2 17 36 3e bd 5a 52 3e 17 bb ea 3d aa 99 03 3d
       0.177825 0.20542426 0.11461466 0.032128967
000100 9d c5 a5 bd 21 9a 95 bd 00 14 8a bd 6a 6d 81 3c
       -0.08094332 -0.073047884 -0.06742096 0.015799243
000110 28 ac 19 3e cd 1d 59 3e 10 30 1d 3e 25 cc ae 3d
       0.15007079 0.21202774 0.15350366 0.08535031
000120 c1 35 9a 3d 98 4f 49 3e 61 ef 09 bd 7d 6c 27 bd
       0.07529784 0.19659269 -0.033675555 -0.040874947
000130 fc a4 1a 3e 13 a5 df 3d 29 cc c0 bd e4 7c dd bd
       0.15101999 0.10920157 -0.094139405 -0.108148366
000140 5d a8 9d bc 45 fa 61 bc 5c c1 91 3d 79 94 a7 3c
       -0.01924532 -0.013792579 0.071169585 0.02045654
000150 6d 3f e1 bc 9f 58 1a 3d 57 08 94 3c 19 2e bc 3d
       -0.027496064 0.037682172 0.018070383 0.0918848
000160 8d 65 1e 3e 68 25 b6 3c e2 91 fc bd de a1 25 bd
       0.15468426 0.022234634 -0.123325124 -0.04043757
000170 6b a9 ea 3d f2 97 16 be 7e e5 1b bc 31 c8 90 3d
       0.11458095 -0.147064 -0.009515164 0.070694335
000180 95 2e 48 3e a6 dd 01 3e 6a 89 cf bc 36 70 13 3d
       0.1954902 0.12682208 -0.025334079 0.035995685
000190 83 46 54 3c 3d 4f 58 3d b4 a2 98 bc 6b 17 c8 ba
       0.012956264 0.052809943 -0.01863227 -0.0015265768
0001a0 a0 61 37 be 00 23 1d 3e 0c b4 ee bd 55 12 60 3e
       -0.17908335 0.15345383 -0.11655435 0.21881993
0001b0 1c 2d 2d bd fa 33 c2 3c e6 f8 f2 3d e7 25 d3 bc
       -0.042279348 0.023706425 0.1186388 -0.02577491
0001c0 b7 5d a6 3d 52 ef 97 3d e0 78 d9 3d f3 96 8b bc
       0.081233434 0.074186936 0.10618758 -0.017039752
0001d0 d8 9a 24 be 94 c0 c5 bc 6f eb dd bd cf e9 9a bd
       -0.16074693 -0.02413968 -0.10835921 -0.07564127
0001e0 24 af c0 3c 43 69 26 3e 7f 1a af bd 61 45 c3 bd
       0.023521014 0.16251092 -0.085499756 -0.09534717
0001f0 18 e1 32 be e5 16 1e 3d 37 dd 1d 3d 15 da 10 3e
       -0.17468679 0.038596053 0.038541045 0.14145692
000200 c3 76 e5 3d fa 29 81 3c 87 09 0f 3e 54 97 38 be
       0.112042926 0.015767086 0.13968478 -0.18026477
000210 1f 0a 29 be 9c a8 69 3d f4 16 c1 3d 86 c0 fe bc
       -0.16507767 0.057045564 0.09428206 -0.031097662
000220 58 19 16 be e0 fc 8c bd 52 4f ff 3d a2 a8 93 bd
       -0.14658105 -0.068841696 0.12466301 -0.072098985
000230 2e c6 b1 3d 2c 08 1d be 97 46 a6 bd 2c b7 33 3e
       0.08680378 -0.15335149 -0.08118933 0.17550343
000240 12 ba d7 3d 2e d3 7e bd ad af 53 be 6f 94 1d 3e
       0.10533537 -0.062213115 -0.20672484 0.15388654
000250 a9 e3 5e bc 1c fb a2 bc 96 0c 85 3d 94 9e ee 3d
       -0.013604083 -0.019895129 0.06496541 0.1165134
000260 61 e4 8e 3d 1f 46 0a be 8a e2 5c 3d ea 36 ed bc
       0.069771536 -0.13503312 0.053926982 -0.02895685
000270 55 1b d7 3d 5e 5a 05 3e fe 98 c3 3d 40 77 c9 bd
       0.1050326 0.13022754 0.09550665 -0.09837198
000280 17 c5 2e 3d 05 11 81 3d 1c 70 ae 3c 51 f7 62 bc
       0.04266843 0.06302074 0.021293692 -0.01385291
000290 ac 31 cf bc c8 6a a3 bd 69 f1 23 3e 6c d8 b2 bd
       -0.02529224 -0.07979351 0.1601006 -0.087326854
0002a0 f6 53 2a 3e 36 6c ca 3d 4c cc a2 3c a3 f2 29 3e
       0.16633591 0.09883921 0.019872807 0.16596465
0002b0 2c 44 12 be d5 75 11 3e 49 19 ad bd 47 ec ac bc
       -0.14283818 0.14205106 -0.084520884 -0.02110876
0002c0 06 92 75 bc bc 3e 33 be 4a 50 7a 3e 1d 1c fa bd
       -0.014988428 -0.175044 0.2444469 -0.122123934
0002d0 99 87 5e bd d3 4c 46 3e 0b d7 2e bc 7e a1 ae bd
       -0.054328535 0.19365244 -0.010671387 -0.08526896
0002e0 d6 8a 7a 3d 38 1e 45 3d c2 1f 2c 3d f2 dc 0e be
       0.06116756 0.048124522 0.042022474 -0.13951471
0002f0 95 78 ba be 56 7a ba 3e 24 6f c0 3d e5 c4 16 3e
       -0.36420122 0.3642146 0.093961984 0.14723547
000300 ab ec d7 3c 1b a2 6e 3d 4d 62 14 be 19 c1 ab 3e
       0.02635797 0.058260065 -0.14490624 0.3354576
000310 cd 8e 68 bd 34 8e 74 3e e4 fb 46 bd 82 94 b8 be
       -0.05677681 0.23882371 -0.048580065 -0.36050802
000320 67 57 ba bd fa 9c a8 bb b0 31 99 3d 6d da 84 3e
       -0.09098702 -0.005145666 0.0748018 0.25947896
000330 4a de 12 be 85 40 ea 3d 22 32 87 3b f2 45 f2 3d
       -0.14342609 0.114380874 0.0041258493 0.11829747
000340 10 75 cd 3d 48 99 15 3e a1 e7 02 3d c3 9e ff 3d
       0.100320935 0.14609253 0.03195918 0.12481453
000350 47 4c a9 3d 4b a1 ac 3c 7e 39 74 3c a6 f2 94 3b
       0.08266502 0.021073004 0.014906285 0.0045455275
000360 aa dd 0e bc 9b fa 4b bd 23 84 b2 3b 84 88 71 be
       -0.008719841 -0.049799543 0.005447881 -0.23587233
000370 27 8a 6a bc 02 1e 22 3e 50 c0 31 3e e5 29 06 3d
       -0.014315165 0.1583176 0.17358518 0.032754797
000380 57 b0 13 3e f8 06 28 3c cf 20 d8 3c 99 10 bd bd
       0.14422737 0.010255568 0.026382832 -0.092316814
000390 85 eb 1f 3e 08 6f 5b bd 16 36 e2 3d 3f 6f b7 bd
       0.15617187 -0.053572685 0.11045472 -0.089567654
0003a0 4a 27 03 3e 00 d4 01 be 1e 5a 1e 3e a6 4c 9e bd
       0.12807956 -0.12678528 0.15464064 -0.07729463
0003b0 09 a3 c3 bd b4 b2 c4 3d c4 61 21 be 3e a5 32 be
       -0.09552581 0.096043974 -0.15759951 -0.17445847
0003c0 05 7a ae 3d 83 ea 88 be 12 e1 c5 bb 56 e2 af bd
       0.08519367 -0.26741418 -0.0060387934 -0.08588092
0003d0 fd 85 ae 3c 58 75 ce 3d ba 35 80 be 6a c0 e9 bd
       0.021304125 0.10080975 -0.2504099 -0.11413653
0003e0 91 98 ad 3e c7 f8 8d be c5 f2 3b be 02 76 1f 3e
       0.3390546 -0.27728865 -0.18354328 0.1557236
0003f0 b9 d0 05 3e 70 77 bf bd e8 30 1a 3e 26 65 d6 bd
       0.13067903 -0.09348953 0.15057719 -0.10468511

backbone.h.bias f4 [30]
000000 16 b5 78 3d 2f 86 75 bd 0f 70 f4 bd ad f9 55 be
       0.060719572 -0.05994242 -0.11935436 -0.20896025
000010 8d f4 ff bd f8 41 ec bd fa c4 5e be 77 90 24 3e
       -0.12497816 -0.1153602 -0.21754828 0.16070734
000020 5d 62 8b 3e 73 27 3e be 4c 36 43 be ca 18 b1 3d
       0.27223483 -0.18569736 -0.19063681 0.08647306
000030 45 96 19 be 87 9c ac bc c1 31 6a 3e 86 57 10 be
       -0.1499873 -0.021070732 0.22870542 -0.14095888
000040 3c 39 63 bd ec 7a 99 bd 08 0c 5c be 20 39 15 3e
       -0.055474505 -0.074941486 -0.21488965 0.14572573
000050 b8 9a 64 be 23 22 6c 3d f6 a0 7a bd 14 93 80 be
       -0.22324646 0.057649743 -0.06118866 -0.25112212
000060 b0 26 3a 3e 89 b1 6f be 79 c0 5b 3e 8f fa ef bd
       0.1817882 -0.23407568 0.21460141 -0.11717712
000070 ab 8d e7 bd b3 0e 1c be
       -0.11306318 -0.15239982

backbone.out.weight f4 [1, 30]
000000 e8 4b 73 3e 08 e9 61 3e a3 75 f3 3e ce b2 32 3f
       0.23759425 0.2206155 0.47550687 0.69804084
000010 54 84 0b 3f 08 db af bd 8b 22 2b bd 05 19 4a bf
       0.5449879 -0.08586699 -0.04178099 -0.78944427
000020 0d 83 d7 bd 96 9d e8 3d f7 44 05 3f 3b ba fc be
       -0.10523043 0.11358182 0.52058357 -0.49360833
000030 06 05 00 3f d0 81 1b bf 88 0c e8 be 15 3d 48 3d
       0.50007665 -0.60744953 -0.4532206 0.048886377
000040 47 5c 00 bf 7c 6b f3 3e 4e 6d 1d 3f bc 51 04 bd
       -0.50140804 0.47542942 0.6149491 -0.03230451
000050 b7 e8 15 3f e0 a3 e4 3e bf 2b 25 bf b9 78 1d 3e
       0.5855822 0.44656277 -0.64519876 0.15378083
000060 f6 8a 04 bf 81 59 c8 be 6f 33 4a 3c 61 d7 c6 3e
       -0.5177454 -0.39130786 0.012341364 0.38836196
000070 cd e2 d3 3d 16 4b c6 3d
       0.10345993 0.0968229

weight f4 [30, 1]
000000 95 a7 57 3f 76 6c 19 3f fb b6 21 3f 64 42 29 3f
       0.84240085 0.59931123 0.6316983 0.6611693
000010 55 55 c0 3f 05 a9 b9 be 0f 7e ae 3e 0b a2 22 bf
       1.5026041 -0.36261764 0.3408055 -0.6352851
000020 88 c8 0f 3e 7a ec 4e bd 4d 4f 3f 3f b7 a0 a4 bf
       0.1404134 -0.05051849 0.7473038 -1.2861546
000030 0f 06 47 3f 9d ad e5 bf 3d d4 5e bf cf 1e 04 be
       0.7774362 -1.7943608 -0.870426 -0.12902378
000040 ae 29 b2 bf 25 ac 20 3f d1 61 1e 3f aa 2e 06 3f
       -1.391897 0.6276267 0.61868006 0.52414954
000050 c9 89 66 3f 1a 52 75 3f c0 8d 1b bf 3f b3 2f be
       0.90053993 0.958284 -0.6076317 -0.1715822
000060 99 92 58 bf 5c 10 e2 bf 46 0a d4 be ab de 73 3f
       -0.8459869 -1.7661242 -0.41414088 0.9526164
000070 56 d5 d4 3a 4b 58 27 be
       0.0016237895 -0.16342275

bias f4 [30]
000000 2e bb e5 be 98 dc 00 bf f1 7c 61 3e 2b 9b aa 3d
       -0.4486937 -0.503366 0.22020318 0.08330377
000010 52 1e 28 3f 50 04 51 3e 2b 51 c0 be ee 62 99 bc
       0.65671265 0.20411801 -0.37561926 -0.018723931
000020 b3 0c 91 be 35 89 08 bf d2 16 0c be 2b 6e b5 3c
       -0.2833 -0.5333436 -0.1368058 0.022147259
000030 31 59 a2 bd 6d ba 48 bf f0 8e a7 3e ba f2 c9 be
       -0.07927168 -0.78409463 0.3272624 -0.39442998
000040 3e 8c 0d bf 2e 26 dd be ac 6b 30 3f a4 a7 38 3e
       -0.5529212 -0.4319319 0.68914294 0.180327
000050 71 ad 33 3f 2f 43 42 3d a0 12 c9 3e 50 5c 84 bf
       0.70186526 0.047427353 0.39272022 -1.0340672
000060 d5 87 6f bd 74 db 35 3f 4d 80 5a 3f 0e 81 1c bf
       -0.05847915 0.71037984 0.8535202 -0.6113442
000070 cf 81 c6 be c8 42 18 3f
       -0.3877091 0.594769

weight f4 [30, 30]
000000 6c bb 47 be ad fd c3 3c 33 0b 26 3d 4e 1e 1a bd
       -0.1950509 0.023924673 0.040538024 -0.037626557
000010 58 98 a0 3d c3 f6 09 3e f2 83 cc 3d a2 39 aa bd
       0.07841557 0.13473038 0.09986104 -0.08311774
000020 8e f0 36 3d 0a 86 42 be 58 6c a4 3d f0 fb 41 bd
       0.044663005 -0.18996444 0.080284774 -0.047359407
000030 a4 31 a3 3d 95 59 99 bd 5c ef 37 3e b1 4d a8 3c
       0.079684526 -0.074877895 0.17962402 0.020544859
000040 83 08 3a bd ef d6 0d 3d f8 9e 14 bc 7f 52 4e 3d
       -0.045418274 0.034628805 -0.009071104 0.050371643
000050 8c 61 27 3e 50 3a 09 3e 0b df 23 3d af 8f 20 3e
       0.16345805 0.1340115 0.040007632 0.15679811
000060 53 3b 0d 3e a3 73 b5 3d 50 75 81 bd 58 4b d8 bd
       0.13792162 0.088599466 -0.06321204 -0.10561246
000070 d0 2b 95 ba c6 77 82 3d 59 f8 0d bd e8 b3 7e 3d
       -0.0011380855 0.06370501 -0.03466067 0.06218329
000080 a5 db 1b 3e 2d ee bf bd b5 8f 4d 3d c9 94 78 3e
       0.15220506 -0.093716 0.050185878 0.24275507
000090 68 51 e4 bd 65 65 04 3e 39 af 36 3b d0 5e 6c bd
       -0.111483395 0.12929304 0.0027875437 -0.057707608
0000a0 35 77 27 be 82 1b 88 3d d1 b9 31 3d 8d 37 c0 bd
       -0.16354068 0.06645872 0.0433901 -0.093855955
0000b0 4c e9 0e bd 86 28 11 3e d9 b8 2c 3e c8 a2 e3 3d
       -0.034890458 0.14175615 0.16867389 0.111150324
0000c0 93 5a de bd e5 76 1d 3e bb b8 9a bd 08 51 12 bd
       -0.108571194 0.15377386 -0.07554766 -0.03572181
0000d0 38 50 16 3e 15 61 0b bd 1d a8 b6 3d 42 1f b6 bd
       0.14679039 -0.03402813 0.08918784 -0.08892681
0000e0 1e e5 33 be 91 f0 6c 3d 8a ea 41 3b 6a 85 30 be
       -0.1756787 0.05784661 0.002958926 -0.17238393
0000f0 c2 17 36 3e bd 5a 52 3e 17 bb ea 3d aa 99 03 3d
       0.177825 0.20542426 0.11461466 0.032128967
000100 9d c5 a5 bd 21 9a 95 bd 00 14 8a bd 6a 6d 81 3c
       -0.08094332 -0.073047884 -0.06742096 0.015799243
000110 28 ac 19 3e cd 1d 59 3e 10 30 1d 3e 25 cc ae 3d
       0.15007079 0.21202774 0.15350366 0.08535031
000120 c1 35 9a 3d 98 4f 49 3e 61 ef 09 bd 7d 6c 27 bd
       0.07529784 0.19659269 -0.033675555 -0.040874947
000130 fc a4 1a 3e 13 a5 df 3d 29 cc c0 bd e4 7c dd bd
       0.15101999 0.10920157 -0.094139405 -0.108148366
000140 5d a8 9d bc 45 fa 61 bc 5c c1 91 3d 79 94 a7 3c
       -0.01924532 -0.013792579 0.071169585 0.02045654
000150 6d 3f e1 bc 9f 58 1a 3d 57 08 94 3c 19 2e bc 3d
       -0.027496064 0.037682172 0.018070383 0.0918848
000160 8d 65 1e 3e 68 25 b6 3c e2 91 fc bd de a1 25 bd
       0.15468426 0.022234634 -0.123325124 -0.04043757
000170 6b a9 ea 3d f2 97 16 be 7e e5 1b bc 31 c8 90 3d
       0.11458095 -0.147064 -0.009515164 0.070694335
000180 95 2e 48 3e a6 dd 01 3e 6a 89 cf bc 36 70 13 3d
       0.1954902 0.12682208 -0.025334079 0.035995685
000190 83 46 54 3c 3d 4f 58 3d b4 a2 98 bc 6b 17 c8 ba
       0.012956264 0.052809943 -0.01863227 -0.0015265768
0001a0 a0 61 37 be 00 23 1d 3e 0c b4 ee bd 55 12 60 3e
       -0.17908335 0.15345383 -0.11655435 0.21881993
0001b0 1c 2d 2d bd fa 33 c2 3c e6 f8 f2 3d e7 25 d3 bc
       -0.042279348 0.023706425 0.1186388 -0.02577491
0001c0 b7 5d a6 3d 52 ef 97 3d e0 78 d9 3d f3 96 8b bc
       0.081233434 0.074186936 0.10618758 -0.017039752
0001d0 d8 9a 24 be 94 c0 c5 bc 6f eb dd bd cf e9 9a bd
       -0.16074693 -0.02413968 -0.10835921 -0.07564127
0001e0 24 af c0 3c 43 69 26 3e 7f 1a af bd 61 45 c3 bd
       0.023521014 0.16251092 -0.085499756 -0.09534717
0001f0 18 e1 32 be e5 16 1e 3d 37 dd 1d 3d 15 da 10 3e
       -0.17468679 0.038596053 0.038541045 0.14145692
000200 c3 76 e5 3d fa 29 81 3c 87 09 0f 3e 54 97 38 be
       0.112042926 0.015767086 0.13968478 -0.18026477
000210 1f 0a 29 be 9c a8 69 3d f4 16 c1 3d 86 c0 fe bc
       -0.16507767 0.057045564 0.09428206 -0.031097662
000220 58 19 16 be e0 fc 8c bd 52 4f ff 3d a2 a8 93 bd
       -0.14658105 -0.068841696 0.12466301 -0.072098985
000230 2e c6 b1 3d 2c 08 1d be 97 46 a6 bd 2c b7 33 3e
       0.08680378 -0.15335149 -0.08118933 0.17550343
000240 12 ba d7 3d 2e d3 7e bd ad af 53 be 6f 94 1d 3e
       0.10533537 -0.062213115 -0.20672484 0.15388654
000250 a9 e3 5e bc 1c fb a2 bc 96 0c 85 3d 94 9e ee 3d
       -0.013604083 -0.019895129 0.06496541 0.1165134
000260 61 e4 8e 3d 1f 46 0a be 8a e2 5c 3d ea 36 ed bc
       0.069771536 -0.13503312 0.053926982 -0.02895685
000270 55 1b d7 3d 5e 5a 05 3e fe 98 c3 3d 40 77 c9 bd
       0.1050326 0.13022754 0.09550665 -0.09837198
000280 17 c5 2e 3d 05 11 81 3d 1c 70 ae 3c 51 f7 62 bc
       0.04266843 0.06302074 0.021293692 -0.01385291
000290 ac 31 cf bc c8 6a a3 bd 69 f1 23 3e 6c d8 b2 bd
       -0.02529224 -0.07979351 0.1601006 -0.087326854
0002a0 f6 53 2a 3e 36 6c ca 3d 4c cc a2 3c a3 f2 29 3e
       0.16633591 0.09883921 0.019872807 0.16596465
0002b0 2c 44 12 be d5 75 11 3e 49 19 ad bd 47 ec ac bc
       -0.14283818 0.14205106 -0.084520884 -0.02110876
0002c0 06 92 75 bc bc 3e 33 be 4a 50 7a 3e 1d 1c fa bd
       -0.014988428 -0.175044 0.2444469 -0.122123934
0002d0 99 87 5e bd d3 4c 46 3e 0b d7 2e bc 7e a1 ae bd
       -0.054328535 0.19365244 -0.010671387 -0.08526896
0002e0 d6 8a 7a 3d 38 1e 45 3d c2 1f 2c 3d f2 dc 0e be
       0.06116756 0.048124522 0.042022474 -0.13951471
0002f0 95 78 ba be 56 7a ba 3e 24 6f c0 3d e5 c4 16 3e
       -0.36420122 0.3642146 0.093961984 0.14723547
000300 ab ec d7 3c 1b a2 6e 3d 4d 62 14 be 19 c1 ab 3e
       0.02635797 0.058260065 -0.14490624 0.3354576
000310 cd 8e 68 bd 34 8e 74 3e e4 fb 46 bd 82 94 b8 be
       -0.05677681 0.23882371 -0.048580065 -0.36050802
000320 67 57 ba bd fa 9c a8 bb b0 31 99 3d 6d da 84 3e
       -0.09098702 -0.005145666 0.0748018 0.25947896
000330 4a de 12 be 85 40 ea 3d 22 32 87 3b f2 45 f2 3d
       -0.14342609 0.114380874 0.0041258493 0.11829747
000340 10 75 cd 3d 48 99 15 3e a1 e7 02 3d c3 9e ff 3d
       0.100320935 0.14609253 0.03195918 0.12481453
000350 47 4c a9 3d 4b a1 ac 3c 7e 39 74 3c a6 f2 94 3b
       0.08266502 0.021073004 0.014906285 0.0045455275
000360 aa dd 0e bc 9b fa 4b bd 23 84 b2 3b 84 88 71 be
       -0.008719841 -0.049799543 0.005447881 -0.23587233
000370 27 8a 6a bc 02 1e 22 3e 50 c0 31 3e e5 29 06 3d
       -0.014315165 0.1583176 0.17358518 0.032754797
000380 57 b0 13 3e f8 06 28 3c cf 20 d8 3c 99 10 bd bd
       0.14422737 0.010255568 0.026382832 -0.092316814
000390 85 eb 1f 3e 08 6f 5b bd 16 36 e2 3d 3f 6f b7 bd
       0.15617187 -0.053572685 0.11045472 -0.089567654
0003a0 4a 27 03 3e 00 d4 01 be 1e 5a 1e 3e a6 4c 9e bd
       0.12807956 -0.12678528 0.15464064 -0.07729463
0003b0 09 a3 c3 bd b4 b2 c4 3d c4 61 21 be 3e a5 32 be
       -0.09552581 0.096043974 -0.15759951 -0.17445847
0003c0 05 7a ae 3d 83 ea 88 be 12 e1 c5 bb 56 e2 af bd
       0.08519367 -0.26741418 -0.0060387934 -0.08588092
0003d0 fd 85 ae 3c 58 75 ce 3d ba 35 80 be 6a c0 e9 bd
       0.021304125 0.10080975 -0.2504099 -0.11413653
0003e0 91 98 ad 3e c7 f8 8d be c5 f2 3b be 02 76 1f 3e
       0.3390546 -0.27728865 -0.18354328 0.1557236
0003f0 b9 d0 05 3e 70 77 bf bd e8 30 1a 3e 26 65 d6 bd
       0.13067903 -0.09348953 0.15057719 -0.10468511

bias f4 [30]
000000 16 b5 78 3d 2f 86 75 bd 0f 70 f4 bd ad f9 55 be
       0.060719572 -0.05994242 -0.11935436 -0.20896025
000010 8d f4 ff bd f8 41 ec bd fa c4 5e be 77 90 24 3e
       -0.12497816 -0.1153602 -0.21754828 0.16070734
000020 5d 62 8b 3e 73 27 3e be 4c 36 43 be ca 18 b1 3d
       0.27223483 -0.18569736 -0.19063681 0.08647306
000030 45 96 19 be 87 9c ac bc c1 31 6a 3e 86 57 10 be
       -0.1499873 -0.021070732 0.22870542 -0.14095888
000040 3c 39 63 bd ec 7a 99 bd 08 0c 5c be 20 39 15 3e
       -0.055474505 -0.074941486 -0.21488965 0.14572573
000050 b8 9a 64 be 23 22 6c 3d f6 a0 7a bd 14 93 80 be
       -0.22324646 0.057649743 -0.06118866 -0.25112212
000060 b0 26 3a 3e 89 b1 6f be 79 c0 5b 3e 8f fa ef bd
       0.1817882 -0.23407568 0.21460141 -0.11717712
000070 ab 8d e7 bd b3 0e 1c be
       -0.11306318 -0.15239982

weight f4 [1, 30]
000000 e8 4b 73 3e 08 e9 61 3e a3 75 f3 3e ce b2 32 3f
       0.23759425 0.2206155 0.47550687 0.69804084
000010 54 84 0b 3f 08 db af bd 8b 22 2b bd 05 19 4a bf
       0.5449879 -0.08586699 -0.04178099 -0.78944427
000020 0d 83 d7 bd 96 9d e8 3d f7 44 05 3f 3b ba fc be
       -0.10523043 0.11358182 0.52058357 -0.49360833
000030 06 05 00 3f d0 81 1b bf 88 0c e8 be 15 3d 48 3d
       0.50007665 -0.60744953 -0.4532206 0.048886377
000040 47 5c 00 bf 7c 6b f3 3e 4e 6d 1d 3f bc 51 04 bd
       -0.50140804 0.47542942 0.6149491 -0.03230451
000050 b7 e8 15 3f e0 a3 e4 3e bf 2b 25 bf b9 78 1d 3e
       0.5855822 0.44656277 -0.64519876 0.15378083
000060 f6 8a 04 bf 81 59 c8 be 6f 33 4a 3c 61 d7 c6 3e
       -0.5177454 -0.39130786 0.012341364 0.38836196
000070 cd e2 d3 3d 16 4b c6 3d
       0.10345993 0.0968229
