tme4/lightning_logs/version_26/checkpoints/epoch=2-step=15611.ckpt (torch, 22618 bytes, 24 tensors)

exp_avg f4 [30, 1]
0	0x36c77892	5.9446984e-06
1	0x3b9b9569	0.0047480357
2	0xb9f1da82	-0.00046129903
3	0x3aafc95e	0.0013411453
4	0xbb6f0635	-0.0036472206
5	0xbc9aa02e	-0.018875208
6	0xba59137b	-0.0008280796
7	0x3c0e6a68	0.008692361
8	0x3c1aa998	0.009439848
9	0x3b1a7498	0.002356803
10	0xbbf23c8a	-0.0073924707
11	0xbb46ee55	-0.003035446
12	0x3b572ce1	0.0032833146
13	0xbb046cc2	-0.0020206426
14	0xbb39ba2d	-0.002833973
15	0x3bb3af40	0.005483538
16	0xb992123f	-0.00027860884
17	0xbc30afb3	-0.010784077
18	0xbc95f2da	-0.018304277
19	0xbc460bb2	-0.012087749
20	0xbbcedc0b	-0.0063128523
21	0xbace5d8a	-0.001574443
22	0xbcc74dc9	-0.024329083
23	0xbba83ea5	-0.005134421
24	0x3910131d	0.0001374003
25	0xbb1c4987	-0.0023847537
26	0x3adfa7c4	0.0017063548
27	0x3b473824	0.0030398453
28	0xbb6f327f	-0.0036498604
29	0x3b30b03b	0.002696051

exp_avg_sq f4 [30, 1]
0	0x39c79eb4	0.0003807448
1	0x3a925307	0.001116366
2	0x393e12f6	0.00018126876
3	0x3a05d717	0.0005105598
4	0x3b202362	0.0024435152
5	0x3afdbd06	0.0019358702
6	0x399591df	0.00028528177
7	0x3a8b2b2c	0.0010617725
8	0x3bb24936	0.0054408563
9	0x3a1b9ae2	0.000593586
10	0x3a19e8ae	0.0005871159
11	0x3a8da5ea	0.0010806893
12	0x3a021a22	0.00049630005
13	0x3ac2f0e0	0.0014872812
14	0x39ccd0b6	0.00039065414
15	0x3a59e591	0.0008312101
16	0x38b53aa8	8.641678e-05
17	0x3b940b79	0.004517969
18	0x3aba6833	0.0014221728
19	0x3afce724	0.001929496
20	0x3af8c61e	0.0018979942
21	0x39f44fec	0.00046598853
22	0x3b7aed09	0.0038288257
23	0x3a80c82e	0.0009825283
24	0x3a38c83a	0.0007048879
25	0x39aaefc8	0.00032603578
26	0x3ad590ef	0.0016293804
27	0x3a4ee635	0.000789258
28	0x3a87a723	0.0010349493
29	0x3a29f2c4	0.0006483013

exp_avg f4 [30]
0	0x3a1eaec6	0.0006053265
1	0x3b0ca4fa	0.0021460638
2	0x3b8d4e47	0.00431231
3	0x3ad2592a	0.0016048301
4	0xbaa40641	-0.0012514071
5	0xbc1a6af6	-0.009424916
6	0x3a9e95ce	0.0012099089
7	0xb9df71e8	-0.0004261874
8	0xbc89a94c	-0.01680436
9	0xbb842323	-0.004032509
10	0xbc145a46	-0.009054726
11	0x3bad2a03	0.005284549
12	0x3c34ab12	0.0110271145
13	0xba6e4756	-0.00090896094
14	0xbbb1b162	-0.005422757
15	0x3bc9afed	0.006155005
16	0x3a8bdde1	0.0010670983
17	0xbae017a5	-0.001709689
18	0xba94d4da	-0.0011354939
19	0x3be95665	0.0071208947
20	0x39d29639	0.00040166246
21	0x3bb0aa33	0.005391383
22	0xbb8fba3c	-0.0043862145
23	0x3b6753fc	0.0035297861
24	0xbb2f71af	-0.0026770642
25	0xb8fda9a8	-0.00012095581
26	0xbbd1ffc1	-0.006408662
27	0xbb623c57	-0.0034520829
28	0x3b9c5f20	0.004772082
29	0x3be6e2ce	0.00704608

exp_avg_sq f4 [30]
0	0x3b1451bd	0.0022631728
1	0x3acdd049	0.0015702333
2	0x3a02e990	0.000499391
3	0x3b144461	0.0022623765
4	0x3b90463d	0.0044029043
5	0x3b73617d	0.0037136965
6	0x3abbf07c	0.0014338638
7	0x3b47979a	0.0030455352
8	0x3c17eff4	0.009273518
9	0x3a279109	0.00063921564
10	0x3a091d70	0.0005230522
11	0x3ad839dd	0.0016496737
12	0x3a96cf06	0.001150579
13	0x3ac39a3c	0.0014923285
14	0x39d1ca1b	0.00040014167
15	0x3a90574a	0.0011012342
16	0x3a0992f7	0.0005248035
17	0x3c326f3c	0.010890778
18	0x3b1b3caa	0.0023687282
19	0x3b18e5e8	0.0023330394
20	0x3baaa607	0.0052077803
21	0x3a923dd0	0.0011157338
22	0x3c227517	0.009915612
23	0x3b4de2ed	0.0031415776
24	0x3a92bbd0	0.0011194889
25	0x3a5f2ec1	0.0008513742
26	0x3c5a0502	0.013306858
27	0x3aa3f228	0.0012508081
28	0x3b5359c0	0.003224954
29	0x3bc1c440	0.0059132874

exp_avg f4 [30, 30]
0	0x3b017b81	0.0019757452
1	0xba41c8fb	-0.0007392314
2	0x3a621464	0.0008624254
3	0x3a4321c1	0.00074436894
4	0xb83a23d9	-4.437924e-05
5	0xb9e47163	-0.00043572029
6	0x3aa0041a	0.0012208254
7	0xbb0000bf	-0.0019531695
8	0x39d1e435	0.00040033614
9	0xbabd906b	-0.0014462596
10	0xbb078f8f	-0.0020684933
11	0x38feffa3	0.0001215928
12	0xbaaf49de	-0.0013373455
13	0xba6f6f00	-0.0009133667
14	0x3a670b31	0.00088136183
15	0x38b404b4	8.583945e-05
16	0x3975b8a3	0.00023433803
17	0xba25efe9	-0.000633
18	0x3aff27a8	0.0019466775
19	0x3aa7c594	0.0012799972
20	0x3aafac79	0.0013402841
21	0x3b111260	0.0022136196
22	0x3b0dd46c	0.0021641506
23	0xbaba379a	-0.0014207244
24	0xbaf67c13	-0.0018805288
25	0xb7349b48	-1.076499e-05
26	0xb906bd48	-0.00012849749
27	0xbb372478	-0.002794532
28	0x399b2da1	0.000295979
29	0xb82db189	-4.1411757e-05
30	0xbb6ad3b9	-0.0035831763
31	0x3a3162b5	0.00067667227
32	0xbb08c102	-0.0020866995
33	0x3b1e3ecf	0.0024146324
34	0x3b30e4cd	0.0026991845
35	0xb936c96a	-0.00017431905
36	0xbb8f3e14	-0.004371414
37	0xbbbb4841	-0.0057154004
38	0x3b5a8cff	0.00333482
39	0x3bac5479	0.0052590934
40	0x3ad7c011	0.0016460438
41	0xbbf276fc	-0.007399438
42	0xbbab4a67	-0.0052273753
43	0x3a5e3bb9	0.00084775273
44	0x3bd47ffb	0.006484983
45	0x3aa1fee0	0.0012359284
46	0x3ba51c45	0.0050387704
47	0xbb746f7d	-0.0037297898
48	0xbb35b3d6	-0.0027725599
49	0xbb8dc90f	-0.0043269466
50	0x3bd3d146	0.0064641563
51	0xbb0a4ebe	-0.0021104063
52	0x3b0fa550	0.0021918602
53	0xbbbdae8b	-0.0057886294
54	0x3af80658	0.0018922789
55	0xbb407884	-0.0029368708
56	0xbb844b28	-0.0040372796
57	0x3b3d0238	0.0028840434
58	0xbaa02544	-0.0012218137
59	0xbbe2dc01	-0.006923199
60	0x3a8dfb03	0.0010832254
61	0x39fd35dd	0.00048296052
62	0xba673f36	-0.000882137
63	0x399c4f54	0.00029813743
64	0x3ad38516	0.0016137685
65	0x3ad39904	0.0016143625
66	0x3add2625	0.001687233
67	0x3a645a7f	0.0008710995
68	0xbb124137	-0.0022316703
69	0x3a1d82a7	0.00060085434
70	0xbb0ab2b2	-0.002116364
71	0xb9b0b6db	-0.00033705574
72	0xba95e010	-0.0011434574
73	0x3a8275f2	0.0009953363
74	0x3ac67996	0.0015142437
75	0x3b20cbc1	0.002453551
76	0xba8a9dba	-0.0010575571
77	0x3ae18d78	0.0017208299
78	0x3a479d40	0.00076146796
79	0x3adabcf2	0.001668839
80	0xbaf774ce	-0.0018879415
81	0x3a31ffcc	0.0006790131
82	0xba18c9e1	-0.0005828422
83	0x3a8c1bba	0.0010689416
84	0xb9a156fc	-0.0003077312
85	0xb9948025	-0.00028324235
86	0x3abe61fa	0.0014525049
87	0xbae4a955	-0.0017445484
88	0x3b01a652	0.0019782973
89	0x3b15abd2	0.0022838009
90	0x3a8ab161	0.0010581427
91	0x3b16e1b2	0.0023022708
92	0x39fa4df9	0.0004774181
93	0x3a842699	0.0010082304
94	0x3b419fe6	0.002954477
95	0x3af36efb	0.0018572503
96	0x3adc5d0c	0.0016812398
97	0xbb36c265	-0.0027886864
98	0xbb5917dc	-0.0033125794
99	0x39ec2036	0.00045037427
100	0xbb2a3004	-0.002596856
101	0x3a81e625	0.0009910507
102	0xbb0bb51b	-0.0021317664
103	0x3aabc4e0	0.0013104938
104	0x3ae0931c	0.0017133686
105	0x3bd64e20	0.006540075
106	0xbb3195bd	-0.0027097308
107	0x3b5d83d9	0.003380051
108	0x3b5df9e8	0.003387088
109	0x3b6f8d50	0.0036552735
110	0x3b155e9f	0.0022791994
111	0x3a5fc720	0.0008536447
112	0x3b15ae55	0.0022839506
113	0x398a7bd8	0.00026413682
114	0xba72497c	-0.00092425174
115	0xba97f18a	-0.001159237
116	0x3b59e6ae	0.0033249068
117	0xbb028e17	-0.0019921118
118	0x3b5975e2	0.0033181836
119	0x3b507807	0.0031809823
120	0xbb84f53c	-0.0040575545
121	0xbc4a3488	-0.012341626
122	0xbb47ce2e	-0.0030487883
123	0xbc386612	-0.011254804
124	0xba287f28	-0.0006427639
125	0xbb4ac606	-0.0030940785
126	0xbb81a714	-0.003956685
127	0xbb72de41	-0.0037058743
128	0x3c1231ae	0.008922977
129	0x3b54b2a4	0.003245511
130	0x3b89eb55	0.004208962
131	0xbb2681b8	-0.0025406908
132	0x3b622ae7	0.0034510435
133	0xbae73844	-0.001764067
134	0xbb8bd588	-0.0042673983
135	0xbc59ac2b	-0.013285677
136	0x3b64a376	0.003488747
137	0xbc0ef7ae	-0.008726044
138	0xbb4cdc35	-0.0031259183
139	0xbb7432af	-0.0037261655
140	0x3bd8c728	0.006615538
141	0xbb5c1546	-0.0033582016
142	0xb90392e4	-0.00012547855
143	0xbbab5f1a	-0.005229843
144	0x3b5c693d	0.0033632063
145	0x3c1887f3	0.009309757
146	0xbbb72e7d	-0.0055902586
147	0x3ad65f00	0.0016355217
148	0xbc252e51	-0.0100818435
149	0xbbafca49	-0.0053646904
150	0x3bfc23da	0.0076947035
151	0xbc414285	-0.011795645
152	0x3c020a68	0.007937051
153	0xbc3b59c8	-0.01143498
154	0xbb94b090	-0.0045376495
155	0x3a1748ad	0.00057710224
156	0x3bf64914	0.007516036
157	0x3bcb052f	0.0061956863
158	0x3b928dac	0.004472455
159	0xbbf3a70e	-0.007435686
160	0xbb99ab28	-0.004689593
161	0x3c1cacbd	0.009562668
162	0x3bef70c3	0.0073071434
163	0xbbc663f4	-0.006054396
164	0xbc12154b	-0.008916209
165	0xbc267d3a	-0.010161692
166	0xbc015452	-0.007893639
167	0xba996a2b	-0.0011704614
168	0x3b182491	0.0023215155
169	0x3bfef05d	0.0077801184
170	0xbbb11dc8	-0.0054051615
171	0x3bf78d9e	0.007554724
172	0xbba94f2b	-0.0051669083
173	0x3b9af58f	0.00472898
174	0xbbfbf16d	-0.0076886923
175	0x3c3430eb	0.010997991
176	0x3bd9d567	0.006647754
177	0xbc1d2486	-0.009591227
178	0xbbbb507d	-0.005716382
179	0x3bd295d5	0.006426553
180	0x38c5c91f	9.431154e-05
181	0xbb2f4c24	-0.0026748264
182	0x397c4b3a	0.00024060617
183	0xba970e45	-0.0011524638
184	0x3920e37a	0.0001534353
185	0x38e29ec1	0.0001080609
186	0xb8549ce0	-5.069084e-05
187	0xbad78821	-0.0016443768
188	0x39bd7973	0.00036139376
189	0xbb01625e	-0.001974247
190	0xba989688	-0.0011641541
191	0x3b00ebe9	0.0019671863
192	0x39930f5c	0.00028049469
193	0xba0bdf75	-0.0005335727
194	0xba8cd12d	-0.0010743492
195	0xbabe1faf	-0.0014505292
196	0x3aa7e624	0.0012809676
197	0xbb2a5b64	-0.0025994414
198	0x3b26f7f7	0.0025477388
199	0x3aee2f63	0.0018172081
200	0x3a79fcc4	0.0009536261
201	0x3acc4c5d	0.0015586723
202	0x3b06b222	0.0020552953
203	0xbb30be68	-0.002696896
204	0xbab99c7c	-0.0014161016
205	0x3b087a9b	0.0020825032
206	0xbb221238	-0.0024730098
207	0xbb10fece	-0.0022124532
208	0xb9c21e48	-0.00037025125
209	0x3a575eb5	0.00082157116
210	0xbb71e2c8	-0.0036908854
211	0x3bb05a3a	0.0053818496
212	0xbb1e62ac	-0.00241677
213	0x3b78effd	0.003798484
214	0x3addd851	0.0016925429
215	0x39ca6d4b	0.00038609872
216	0xbb8ee17b	-0.0043603755
217	0xbb0296e1	-0.0019926357
218	0x3b1af156	0.0023642383
219	0x3c0d7909	0.008634814
220	0x3b969c17	0.004596244
221	0xbc01aba0	-0.007914454
222	0xbb91a86d	-0.0044451267
223	0x3aae2f56	0.0013289254
224	0x3baed6d2	0.005335667
225	0x3a10074a	0.000549425
226	0x3b89b27c	0.004202185
227	0x3804bac0	3.1645177e-05
228	0xbbe115f5	-0.0068690726
229	0xbbf301a4	-0.007415967
230	0x3b942de2	0.004522071
231	0xbb568711	-0.0032734314
232	0xbb1b2453	-0.0023672774
233	0xb9e2ece1	-0.00043282568
234	0x3b3ce321	0.0028821903
235	0xbbabd1a0	-0.005243495
236	0xbb80330d	-0.0039123357
237	0x3bc26d9a	0.0059334757
238	0xbb262975	-0.00253543
239	0xbc280904	-0.010256056
240	0x3c658ce1	0.014010639
241	0x3c2b4b01	0.010454894
242	0x3c68bb74	0.014204849
243	0x3c59dfad	0.013297957
244	0xbc59e72c	-0.013299745
245	0xbc2e2f44	-0.010631386
246	0x3c64673b	0.013940628
247	0xbbfd3ab3	-0.0077279448
248	0x3b10d790	0.0022101142
249	0xbc0d8945	-0.008638685
250	0xbc235dab	-0.009971063
251	0xbba1fe2d	-0.00494363
252	0xbba5e121	-0.005062238
253	0xbc567297	-0.013088844
254	0x3bc78abe	0.0060895374
255	0x3c091e98	0.0083691105

exp_avg_sq f4 [30, 30]
0	0x39208b7f	0.00015310755
1	0x3960c04c	0.00021433941
2	0x39a21ddb	0.00030921292
3	0x388ac677	6.61732e-05
4	0x39223c28	0.00015471934
5	0x39559041	0.00020367002
6	0x38a3f86d	7.8187186e-05
7	0x3a013909	0.00049294584
8	0x39a28fca	0.0003100618
9	0x39f9c81f	0.00047642083
10	0x384e9fea	4.926316e-05
11	0x3966ca88	0.00022009958
12	0x3840f7ba	4.600708e-05
13	0x39c78249	0.00038053308
14	0x38c14a86	9.216838e-05
15	0x39a9b85b	0.00032371547
16	0x3921b56e	0.00015421744
17	0x3983e228	0.00025154767
18	0x398fefdd	0.00027453798
19	0x38647171	5.4465087e-05
20	0x3a4c4d1a	0.00077934714
21	0x399de4cc	0.0003011584
22	0x3a2e1d6e	0.00066419586
23	0x3985e81f	0.0002554068
24	0x39b1b2fe	0.0003389343
25	0x39400c7f	0.00018315202
26	0x393ffd37	0.0001830951
27	0x398a92f3	0.00026430897
28	0x391ee2c5	0.00015152532
29	0x39839a82	0.00025101384
30	0x3a532f25	0.00080560363
31	0x39905905	0.00027532145
32	0x3a43bf2f	0.0007467148
33	0x399f9ef5	0.00030445275
34	0x39be80aa	0.00036335486
35	0x3a00b154	0.00049092364
36	0x3a4dd9de	0.0007852594
37	0x3a0f5a18	0.0005468442
38	0x39f23399	0.0004619628
39	0x3a394068	0.0007066787
40	0x39fd162c	0.0004827244
41	0x3a2c73c7	0.00065785315
42	0x39ae548e	0.00033250864
43	0x39541403	0.0002022535
44	0x3a0dcc73	0.00054091885
45	0x399c72de	0.0002984022
46	0x3a50effe	0.0007970332
47	0x3a24365c	0.00062642037
48	0x39eeef6b	0.00045573278
49	0x3a0dfecc	0.0005416691
50	0x3a28396b	0.00064172474
51	0x3a3eafbf	0.0007274113
52	0x39b38612	0.0003424143
53	0x3a30063a	0.0006714795
54	0x3a3eca06	0.00072780286
55	0x39e5a11b	0.00043798317
56	0x3a47b657	0.00076184183
57	0x3a33a432	0.0006852775
58	0x3a14b619	0.00056728866
59	0x3a479a55	0.0007614245
60	0x38ded464	0.00010625346
61	0x39037c00	0.00012539327
62	0x386905b1	5.555683e-05
63	0x38b5ef79	8.675358e-05
64	0x38b548b0	8.644292e-05
65	0x38f2f7bc	0.00011585603
66	0x388a64c6	6.599123e-05
67	0x392bf99e	0.0001640082
68	0x3901f498	0.00012393517
69	0x3921c1f7	0.00015426414
70	0x3876f4f8	5.8879115e-05
71	0x39007c69	0.00012253378
72	0x3841d5ca	4.6213892e-05
73	0x39088f46	0.00013023344
74	0x3893522a	7.0248105e-05
75	0x390353e1	0.00012524381
76	0x3915ca13	0.00014285026
77	0x390d629c	0.00013483543
78	0x3918349f	0.00014515452
79	0x38404d92	4.584861e-05
80	0x394c53ed	0.00019486221
81	0x3874813f	5.8294503e-05
82	0x394780f9	0.00019026165
83	0x392863ca	0.00016058903
84	0x38b7f7bc	8.772264e-05
85	0x38c3134e	9.30192e-05
86	0x390f7e73	0.00013684649
87	0x38cfc894	9.90789e-05
88	0x38de2eab	0.000105944775
89	0x390b6f23	0.00013297475
90	0x39c5ce77	0.00037728596
91	0x3a1001e9	0.00054934487
92	0x39f97a58	0.00047584134
93	0x3934b854	0.00017234805
94	0x39aab9c3	0.0003256333
95	0x39ac5fa0	0.00032877643
96	0x39c9d662	0.00038497435
97	0x3a18490d	0.0005809225
98	0x3975d53a	0.00023444454
99	0x3a538413	0.0008068692
100	0x39b8de0b	0.0003526065
101	0x3a0102da	0.00049213844
102	0x38c829de	9.5445415e-05
103	0x39d866eb	0.0004127541
104	0x398bae60	0.00026642065
105	0x39c24964	0.00037057244
106	0x39b528cd	0.0003455341
107	0x397b4ec8	0.00023966574
108	0x3a003aa4	0.00048915506
109	0x39566b13	0.00020448519
110	0x3a4e7465	0.00078756205
111	0x39f4bc6c	0.00046679692
112	0x3a4b525d	0.00077561085
113	0x397e8a74	0.00024274905
114	0x3a005e1a	0.0004896835
115	0x39becfe6	0.0003639452
116	0x39c44983	0.00037438804
117	0x3a10affd	0.00055193884
118	0x39e43455	0.0004352654
119	0x39aecac1	0.0003333893
120	0x3a769fa8	0.0009407946
121	0x3aa8e949	0.0012886907
122	0x3a755e83	0.00093600916
123	0x3a7edc20	0.0009722132
124	0x398af984	0.00026507315
125	0x39cfbcd4	0.00039622805
126	0x3a70cb1f	0.0009185541
127	0x3a5e65f3	0.00084838195
128	0x3a1deb56	0.00060241425
129	0x3aaa6dc0	0.0013002679
130	0x3a1faa35	0.00060907315
131	0x3a5d5429	0.0008443022
132	0x3a414c58	0.0007373742
133	0x398cd0a7	0.0002685834
134	0x3a4a6311	0.00077204505
135	0x3aa183d4	0.0012322613
136	0x3a82147a	0.0009924315
137	0x3a2a6692	0.00065002695
138	0x3a363d98	0.0006951927
139	0x39c75d16	0.00038025592
140	0x3aa004df	0.0012208483
141	0x3a60c98a	0.00085749535
142	0x3a8f8fdc	0.0010952908
143	0x3a4cfec3	0.0007819945
144	0x3a66e474	0.0008807846
145	0x3a9d1386	0.0011983968
146	0x3a6fd6a8	0.0009149113
147	0x3a718c82	0.00092143577
148	0x3a9d0613	0.001197996
149	0x3a78fc0d	0.0009498008
150	0x3a4a3163	0.00077130477
151	0x3a6a2258	0.0008931509
152	0x3a47e736	0.00076257007
153	0x3a2204a3	0.00061805005
154	0x39896e97	0.00026213072
155	0x394460e5	0.00018728113
156	0x3a3e2779	0.00072538067
157	0x3a1274ae	0.00055868446
158	0x398f07ca	0.0002728089
159	0x3a889be3	0.0010422434
160	0x39a8ca34	0.0003219411
161	0x3a32c976	0.0006820181
162	0x3a1a7de8	0.0005893395
163	0x39b49497	0.00034442983
164	0x3a3d7d7f	0.0007228478
165	0x3a430e2e	0.00074407726
166	0x3a4e40d0	0.0007867934
167	0x398e5b80	0.00027152523
168	0x39e44c9b	0.00043544624
169	0x394e38d7	0.00019666865
170	0x3a60a4b3	0.0008569464
171	0x3a30357d	0.00067218376
172	0x3a488644	0.00076494017
173	0x3a000337	0.00048832915
174	0x3a397997	0.0007075308
175	0x3a504986	0.0007945526
176	0x3a334094	0.0006837931
177	0x3a38cc00	0.00070494413
178	0x3a494b20	0.0007678736
179	0x3a3be35c	0.0007167363
180	0x39748cd0	0.0002332211
181	0x39160419	0.00014306641
182	0x39a5ed94	0.00031648262
183	0x390cd0f3	0.0001342928
184	0x395f8353	0.0002131586
185	0x39599744	0.00020751084
186	0x38e272da	0.000107979125
187	0x39c29145	0.00037110798
188	0x396b972e	0.00022467665
189	0x3995537f	0.00028481704
190	0x3889d60b	6.572538e-05
191	0x39199c09	0.00014649345
192	0x38d29399	0.000100410725
193	0x39ac7c34	0.00032898935
194	0x38aff38f	8.3900166e-05
195	0x3944e472	0.00018777119
196	0x3917c8ff	0.00014475359
197	0x392c5aca	0.0001643702
198	0x394879ba	0.00019118833
199	0x3842dd9c	4.6459594e-05
200	0x3a12e8b7	0.0005604135
201	0x398b99e0	0.00026626792
202	0x39f9004d	0.00047493205
203	0x3949d35d	0.00019247593
204	0x399676cf	0.0002869875
205	0x39547749	0.00020262333
206	0x3923310c	0.00015563163
207	0x395fad53	0.00021331506
208	0x38cd8258	9.79944e-05
209	0x396ff814	0.00022885232
210	0x3a90aab7	0.0011037205
211	0x39d697ef	0.0004093046
212	0x3a87110f	0.0010304766
213	0x3a2de383	0.0006633328
214	0x39f793dd	0.00047221678
215	0x39c4a2b6	0.00037505262
216	0x3a804edc	0.0009789127
217	0x391b3b43	0.00014804029
218	0x39bb6fae	0.00035750627
219	0x3a78283c	0.00094664446
220	0x39e74d96	0.0004411756
221	0x3a7989ac	0.0009519111
222	0x3a241639	0.0006259415
223	0x3a204834	0.0006114275
224	0x3a5f3a26	0.00085154397
225	0x3a452313	0.000752018
226	0x3a7cbac6	0.00096408685
227	0x39f78fec	0.0004721874
228	0x39cd5b16	0.0003916851
229	0x39b90498	0.00035289372
230	0x39e4fa57	0.00043674067
231	0x3a8096b8	0.0009810543
232	0x392bfd88	0.00016402279
233	0x39f993f3	0.00047603212
234	0x3a7944f7	0.0009508873
235	0x3a1d8e8f	0.00060103176
236	0x3a617011	0.0008599768
237	0x3a40f590	0.00073608104
238	0x3991201a	0.00027680473
239	0x3a707a64	0.0009173511
240	0x3b9e16c5	0.0048244917
241	0x3af648e7	0.0018790037
242	0x3b9f505f	0.004861876
243	0x3b1fa03c	0.0024356982
244	0x3b37a270	0.0028020404
245	0x3b29ce80	0.0025910437
246	0x3b93cc38	0.0045104288
247	0x3b4e9c95	0.0031526436
248	0x3a53ec7d	0.0008084251
249	0x3b833d13	0.0040050833
250	0x3b1eb4db	0.0024216685
251	0x3b221ee4	0.002473765
252	0x3b385d62	0.0028131832
253	0x3b6b7283	0.0035926409
254	0x3b38b635	0.0028184776
255	0x3b27ad70	0.0025585555

exp_avg f4 [30]
0	0x3a1eaec6	0.0006053265
1	0x3b0ca4fa	0.0021460638
2	0x3b8d4e47	0.00431231
3	0x3ad2592a	0.0016048301
4	0xbaa40641	-0.0012514071
5	0xbc1a6af6	-0.009424916
6	0x3a9e95ce	0.0012099089
7	0xb9df71e8	-0.0004261874
8	0xbc89a94c	-0.01680436
9	0xbb842323	-0.004032509
10	0xbc145a46	-0.009054726
11	0x3bad2a03	0.005284549
12	0x3c34ab12	0.0110271145
13	0xba6e4756	-0.00090896094
14	0xbbb1b162	-0.005422757
15	0x3bc9afed	0.006155005
16	0x3a8bdde1	0.0010670983
17	0xbae017a5	-0.001709689
18	0xba94d4da	-0.0011354939
19	0x3be95665	0.0071208947
20	0x39d29639	0.00040166246
21	0x3bb0aa33	0.005391383
22	0xbb8fba3c	-0.0043862145
23	0x3b6753fc	0.0035297861
24	0xbb2f71af	-0.0026770642
25	0xb8fda9a8	-0.00012095581
26	0xbbd1ffc1	-0.006408662
27	0xbb623c57	-0.0034520829
28	0x3b9c5f20	0.004772082
29	0x3be6e2ce	0.00704608

exp_avg_sq f4 [30]
0	0x3b1451bd	0.0022631728
1	0x3acdd049	0.0015702333
2	0x3a02e990	0.000499391
3	0x3b144461	0.0022623765
4	0x3b90463d	0.0044029043
5	0x3b73617d	0.0037136965
6	0x3abbf07c	0.0014338638
7	0x3b47979a	0.0030455352
8	0x3c17eff4	0.009273518
9	0x3a279109	0.00063921564
10	0x3a091d70	0.0005230522
11	0x3ad839dd	0.0016496737
12	0x3a96cf06	0.001150579
13	0x3ac39a3c	0.0014923285
14	0x39d1ca1b	0.00040014167
15	0x3a90574a	0.0011012342
16	0x3a0992f7	0.0005248035
17	0x3c326f3c	0.010890778
18	0x3b1b3caa	0.0023687282
19	0x3b18e5e8	0.0023330394
20	0x3baaa607	0.0052077803
21	0x3a923dd0	0.0011157338
22	0x3c227517	0.009915612
23	0x3b4de2ed	0.0031415776
24	0x3a92bbd0	0.0011194889
25	0x3a5f2ec1	0.0008513742
26	0x3c5a0502	0.013306858
27	0x3aa3f228	0.0012508081
28	0x3b5359c0	0.003224954
29	0x3bc1c440	0.0059132874

exp_avg f4 [5, 30]
0	0x3b469057	0.0030298436
1	0x3a55f4ae	0.0008161765
2	0x3b5c05fd	0.0033572905
3	0xbb024856	-0.0019879541
4	0x3b523946	0.0032077595
5	0x3b743403	0.0037262447
6	0x3b67163f	0.0035261062
7	0x3aab2f9a	0.0013060451
8	0xbb2f7682	-0.0026773517
9	0xbbad3360	-0.0052856654
10	0xbb378f8f	-0.0028009152
11	0x3bac93c0	0.0052666366
12	0x3b1d2705	0.0023979556
13	0x39c211fb	0.0003701596
14	0xbb687fb8	-0.0035476517
15	0x3b176317	0.0023099834
16	0xbb1c757e	-0.0023873742
17	0x3b4bee5c	0.0031117415
18	0x3bd0264e	0.0063522225
19	0x3b6d015c	0.003616414
20	0xbadef7c4	-0.0017011096
21	0x3b8dafb7	0.0043239254
22	0xb88cca52	-6.713405e-05
23	0x3ae160b8	0.0017194962
24	0xbb78b150	-0.0037947483
25	0x3b43d3f9	0.0029880984
26	0x3b349723	0.0027555905
27	0xbb9ec0fb	-0.0048447824
28	0x3b3cb7f4	0.0028796168
29	0x3b3ff8ce	0.0029292586
30	0x3a066dfa	0.0005128082
31	0x38588d19	5.162982e-05
32	0x39ee5c7e	0.0004546381
33	0xbae294a7	-0.0017286733
34	0x3b1a6d1d	0.0023563572
35	0x3b1e6ca8	0.002417365
36	0x38b80fe2	8.776762e-05
37	0x3b62fffb	0.003463744
38	0x391afe3d	0.00014781296
39	0xbae322fd	-0.0017329153
40	0x3b84ba49	0.0040505272
41	0x3a76e650	0.00094184745
42	0x3b92dc8b	0.004481857
43	0x3ae7bc82	0.0017680081
44	0xbb370090	-0.002792392
45	0xbb5d9b91	-0.0033814649
46	0xbb13171c	-0.0022444194
47	0x39f3c9ae	0.00046498835
48	0xbb840071	-0.004028373
49	0xb9df72a1	-0.0004261928
50	0xbb53ec90	-0.0032337047
51	0xba5a8e29	-0.00083372236
52	0xbb667283	-0.003516347
53	0x3b401803	0.0029311187
54	0xb93512ac	-0.00017268461
55	0x3ac6d802	0.0015170577
56	0x3aa50864	0.0012591002
57	0x3a4f72df	0.00079135405
58	0x39d1a410	0.00039985823
59	0x3b140f27	0.002259204
60	0x3b6ab2f3	0.0035812228
61	0x3c0cf732	0.008603858
62	0xb9b90686	-0.0003529081
63	0x3c218371	0.009857998
64	0xbb01b160	-0.0019789562
65	0xba83c344	-0.00100527
66	0xb7819841	-1.5448897e-05
67	0x3bd624af	0.0065351347
68	0xbbb05828	-0.005381603
69	0x3ba585ca	0.0050513493
70	0xbb9820a5	-0.0046425634
71	0xbb86d892	-0.0041151727
72	0xbbfde3aa	-0.007748087
73	0x3a824e58	0.0009941561
74	0x3c0d0279	0.008606547
75	0x3c0351a6	0.008015072
76	0xbb8918f2	-0.004183882
77	0x3bf3f62d	0.007445118
78	0xbbe2a5d2	-0.00691674
79	0x35b46199	1.343945e-06
80	0xbc138e99	-0.009006166
81	0xbb6a4fe3	-0.0035753183
82	0xbb4d3e84	-0.003131778
83	0x3bfca018	0.0077095143
84	0x3b78c86f	0.0037961265
85	0xbc301265	-0.010746573
86	0x3c09aa27	0.008402384
87	0x3afa3d34	0.0019091726
88	0x3bb3fe60	0.0054929703
89	0x3955f4cf	0.00020404461
90	0xbb52d3d2	-0.0032169712
91	0xbb1c1e6f	-0.002382185
92	0xbb6a3a53	-0.003574033
93	0x3b287669	0.0025705344
94	0xbba19b06	-0.0049318103
95	0xbb96d58f	-0.004603095
96	0xbb3096fe	-0.0026945467
97	0xbb8c5cfd	-0.004283546
98	0x3b085506	0.002080263
99	0x3bb1749b	0.005415512
100	0xbaa433e4	-0.0012527672
101	0xbb931485	-0.00448853
102	0xbbc04fea	-0.0058689015
103	0xbaff4236	-0.0019474688
104	0x3baa0754	0.005188862
105	0x3a6b65fa	0.0008979734
106	0x3b898c5f	0.0041976417
107	0xbb282a57	-0.0025660002
108	0xbaaea4e7	-0.0013324291
109	0xbae7b7a6	-0.0017678633
110	0x3b94fd70	0.0045468137
111	0xbb1f0a39	-0.0024267568
112	0x3b4b457c	0.0031016758
113	0xbb8cc4cd	-0.0042959214
114	0x3b3bad0f	0.0028637087
115	0xbb50e46d	-0.0031874434
116	0xbb72b4c4	-0.0037034014
117	0x3b2fbe0e	0.0026816162
118	0xbb3f21f9	-0.0029164536
119	0xbb8c589a	-0.004283023
120	0xbb800583	-0.003906907
121	0xbbe84ee0	-0.0070894808
122	0x38f132dd	0.000115012495
123	0xbc0ebc60	-0.008711904
124	0x3ab08205	0.0013466483
125	0xba0c4fdb	-0.00053524756
126	0xba6cf25e	-0.0009038801
127	0xbbe6139a	-0.0070213797
128	0x3bbf10f4	0.0058308784
129	0xbb61fc86	-0.003448279
130	0x3b983b20	0.00464572
131	0x3b1cf91d	0.0023952194
132	0x3bdcc386	0.0067371754
133	0xba9b4d1b	-0.0011848541
134	0xbbf44c21	-0.0074553643
135	0xbc0079e6	-0.007841563
136	0x3b9752e5	0.004618036
137	0xbc0a8a68	-0.00845585
138	0x3bc2292a	0.0059253173
139	0xbaba9b87	-0.0014237025
140	0x3c19e9fe	0.009394167
141	0x3b249e32	0.0025118706
142	0x3b6cd1e0	0.0036135837
143	0xbc041fbd	-0.008064208
144	0xbb3072fa	-0.0026924
145	0x3c1a7b80	0.009428859
146	0xbc0ec3cc	-0.008713674
147	0xba0cdd6b	-0.000537357
148	0xbbbfe39f	-0.005855992
149	0xba916c3a	-0.0011094876

exp_avg_sq f4 [5, 30]
0	0x399a068e	0.00029378053
1	0x39726dc4	0.0002311981
2	0x3988e02c	0.00026106962
3	0x39822ff7	0.0002483127
4	0x3954ecb4	0.00020306074
5	0x39568c29	0.00020460844
6	0x39851d33	0.00025389492
7	0x399bbfa7	0.00029706696
8	0x3923ff79	0.00015640062
9	0x398db9fc	0.00027032185
10	0x39814473	0.00024655796
11	0x39882108	0.00025964552
12	0x3925597e	0.00015768965
13	0x38c6fea2	9.488805e-05
14	0x3984f98a	0.00025362923
15	0x39815917	0.00024671174
16	0x3994b47a	0.00028363225
17	0x39944ce2	0.00028286042
18	0x397bae26	0.000240021
19	0x3913155c	0.0001402697
20	0x39a712ea	0.00031866814
21	0x39770d12	0.00023560625
22	0x39893627	0.00026171023
23	0x3993280b	0.0002806786
24	0x395b7071	0.00020927355
25	0x394f0481	0.00019742736
26	0x399fcd29	0.000304797
27	0x39382a89	0.00017563453
28	0x393ba9f4	0.00017897022
29	0x3980a2ac	0.00024535262
30	0x393f4ec5	0.00018244523
31	0x392bee81	0.0001639668
32	0x3926584a	0.00015863884
33	0x3926f89d	0.0001592361
34	0x38f02699	0.00011451281
35	0x390515fc	0.00012692058
36	0x392214b8	0.00015457242
37	0x39470de3	0.00018983292
38	0x38b65507	8.694274e-05
39	0x3933e877	0.0001715737
40	0x39237c08	0.00015591097
41	0x391ca8ca	0.00014940198
42	0x38eedb61	0.00011389587
43	0x386ccaa6	5.6455516e-05
44	0x391c6e3d	0.00014918386
45	0x3931b7ab	0.00016948457
46	0x393ebc50	0.00018189964
47	0x392f289a	0.00016704426
48	0x39133890	0.00014040084
49	0x38a7475a	7.976471e-05
50	0x39574f7c	0.00020533608
51	0x3911c487	0.0001390149
52	0x39354775	0.00017288125
53	0x393a47d2	0.00017765097
54	0x39037d95	0.00012539916
55	0x390a1b5d	0.00013170899
56	0x394adf3c	0.00019347382
57	0x38e25d47	0.00010793894
58	0x38e41849	0.00010876411
59	0x3927c6ab	0.0001600037
60	0x39c6e1ec	0.00037933828
61	0x39d30684	0.0004024991
62	0x39c7936b	0.00038066073
63	0x39bbb868	0.00035804813
64	0x39b679e9	0.00034804575
65	0x39a99903	0.00032348195
66	0x39abbe19	0.00032757295
67	0x39a47b95	0.00031372593
68	0x3941a334	0.00018466712
69	0x399cd8d4	0.00029916188
70	0x39968450	0.0002870881
71	0x399da5c9	0.00030068893
72	0x3999ae53	0.00029312316
73	0x39a23d3f	0.0003094468
74	0x39a4e642	0.00031452073
75	0x39a72aae	0.0003188452
76	0x39a5e49d	0.00031641583
77	0x399cda44	0.0002991726
78	0x398d4292	0.00026943214
79	0x39507a46	0.00019881976
80	0x39be29fe	0.0003627091
81	0x39afb04c	0.00033509952
82	0x399d1ec9	0.0002996831
83	0x39924c93	0.00027904342
84	0x39a9158b	0.00032250243
85	0x39c853f7	0.0003820953
86	0x39d3f51f	0.00040427686
87	0x398cfc1b	0.00026890714
88	0x3982c1a6	0.00024939812
89	0x39a65b07	0.00031729808
90	0x3989533b	0.00026192688
91	0x3957d5d2	0.00020583652
92	0x3975dc2e	0.00023447044
93	0x3961b2b8	0.0002152425
94	0x392ae405	0.00016297407
95	0x393cbc20	0.00017999159
96	0x397144b4	0.00023009145
97	0x398a6bd6	0.00026401755
98	0x390bdfb2	0.00013339406
99	0x398052b3	0.00024475678
100	0x3958361d	0.00020619524
101	0x396467c2	0.00021782427
102	0x3918c923	0.00014570779
103	0x389af31b	7.388574e-05
104	0x3957db1b	0.00020585621
105	0x3960c7f1	0.00021436789
106	0x398611ba	0.0002557168
107	0x397b4201	0.00023961814
108	0x39545c1d	0.0002025221
109	0x3904f3db	0.00012679344
110	0x399518e1	0.0002843803
111	0x395b187e	0.00020894592
112	0x3974c06f	0.0002334134
113	0x3983b6c5	0.0002512244
114	0x3948f665	0.00019165275
115	0x3939cab0	0.00017718482
116	0x398e56e5	0.00027149092
117	0x393641a6	0.00017381329
118	0x392ae4c9	0.00016297692
119	0x396fecd2	0.00022881039
120	0x39b44c1d	0.00034388984
121	0x39c1d609	0.00036971297
122	0x39b875cf	0.0003518299
123	0x39a9dd9d	0.00032399307
124	0x39aeb69e	0.00033323927
125	0x39a05be2	0.00030586036
126	0x399de07b	0.00030112625
127	0x399302dd	0.00028040158
128	0x3936d14e	0.00017434845
129	0x398e1172	0.00027097348
130	0x3987eab2	0.00025924068
131	0x3992dc88	0.000280116
132	0x398d7811	0.00026983072
133	0x399e2811	0.0003016596
134	0x399796bc	0.0002891327
135	0x399abd9f	0.00029514448
136	0x399595f6	0.00028531224
137	0x3992f0d4	0.0002802672
138	0x3981a407	0.00024727007
139	0x3943714d	0.00018638857
140	0x39acd85f	0.00032967606
141	0x39a46f20	0.00031363312
142	0x398ad31f	0.0002647871
143	0x39847e46	0.00025271083
144	0x399d680e	0.000300229
145	0x39b745e9	0.00034956567
146	0x39bfd6fc	0.00036590535
147	0x39834ec1	0.00025044943
148	0x397abaf6	0.00023911506
149	0x399a3233	0.0002941057

exp_avg f4 [5]
0	0xbb7fe2ce	-0.0039045098
1	0xbb2e3484	-0.0026581595
2	0x3b274f78	0.0025529545
3	0x3bc889dd	0.00611995
4	0xbb0a4bd5	-0.0021102328

exp_avg_sq f4 [5]
0	0x39a4b5b7	0.00031415906
1	0x395de396	0.00021160985
2	0x39e2f26e	0.00043286703
3	0x398f8b6e	0.0002737897
4	0x39d64aec	0.00040873082

backbone.x.weight f4 [30, 1]
0	0xbf6ee002	-0.9331056
1	0xbe012dec	-0.12615174
2	0xbf04deb8	-0.5190234
3	0x3f2afd8c	0.6679313
4	0xbf23078a	-0.6368338
5	0xbe95cf2d	-0.29259625
6	0xbf0a94a9	-0.5413309
7	0xbf1c4777	-0.61046547
8	0xbf3ea045	-0.744633
9	0xbe203e81	-0.15648843
10	0xbeaef730	-0.34172964
11	0xbeaeeb31	-0.34163812
12	0xbf8c9a45	-1.0984579
13	0xbdced38b	-0.10098942
14	0x3f0c1666	0.5472168
15	0x3ed33511	0.41251424
16	0x3db6bf48	0.08923203
17	0x3f20b617	0.6277785
18	0x3eccf1af	0.4002814
19	0x3f1c3c4b	0.610295
20	0x3f35937b	0.7092816
21	0xbf64c18e	-0.8935784
22	0x3f9e82e1	1.2383691
23	0x3e4d2ed0	0.20037389
24	0x3f7a3885	0.9774249
25	0xbf97a3e8	-1.1846895
26	0xbf4d3798	-0.80162954
27	0x3eabcaca	0.33553153
28	0x3e7170b6	0.23578152
29	0xbfa9d4ba	-1.3268044

backbone.x.bias f4 [30]
0	0xbf5e4f2a	-0.86839545
1	0xbf5cd9f4	-0.8627007
2	0xbee8992e	-0.45429367
3	0x3ceaae99	0.028647708
4	0x3cbb93de	0.022897657
5	0xbe3323d3	-0.17494135
6	0xbf026a4a	-0.50943434
7	0x3e907d48	0.28220582
8	0xbe4ce3b0	-0.20008731
9	0x3f0fdb9f	0.5619449
10	0xbf07240d	-0.52789384
11	0xbf26395f	-0.6493129
12	0x3e18092d	0.1484725
13	0x3e7fca45	0.24979503
14	0x3f4bfe70	0.79685116
15	0x3f6e88a2	0.93177235
16	0x3f49c5a8	0.78817225
17	0x3ec20042	0.37890822
18	0xbe26b9da	-0.16281834
19	0x3e5a2e90	0.21306825
20	0xbf50ef45	-0.81615096
21	0xbec5af1f	-0.3861017
22	0xbf264e5f	-0.64963335
23	0xbf382f32	-0.71947014
24	0x3ea5b037	0.32361004
25	0x3f1f9b9a	0.62346804
26	0xbd1eeff4	-0.038803056
27	0x3e4a8ab2	0.1977947
28	0xbede752c	-0.4344877
29	0x3e1f4441	0.1555338

backbone.h.weight f4 [30, 30]
0	0x3e8c238c	0.2737087
1	0xbdd33fa9	-0.103148766
2	0x3e59fdce	0.21288225
3	0xbdc308f3	-0.09523191
4	0xbd31748a	-0.04332403
5	0xbd638f31	-0.05555648
6	0x3e41d425	0.18928583
7	0x3dce2791	0.100661404
8	0xbdf2afad	-0.11849914
9	0x3e045e5f	0.12926625
10	0xbe836e3f	-0.2567005
11	0xbc1cd424	-0.009572063
12	0x3dfd71e9	0.12375242
13	0xbe9ce230	-0.30641317
14	0xbd039ef0	-0.032133996
15	0x3e133340	0.14375019
16	0xbe0fc659	-0.14040507
17	0x3e8c5903	0.2741166
18	0x3d6b2a4c	0.057413384
19	0xbe5046b0	-0.20339465
20	0x3c59f46c	0.013302904
21	0x3e4612a1	0.19343044
22	0x3d4ed102	0.050492294
23	0x3e60a4e8	0.21937907
24	0xbe81c1c5	-0.25343147
25	0x3e82a59c	0.25516975
26	0x3f0580db	0.5214974
27	0xbea9df1d	-0.33178034
28	0x3e8b57bd	0.27215376
29	0x3e9b117b	0.30286774
30	0xbe17035d	-0.14747377
31	0x3f3dc2e3	0.741255
32	0xbe25597c	-0.16147417
33	0x3e9255e1	0.28581145
34	0xbe462e76	-0.19353661
35	0xbdfccc1a	-0.12343617
36	0x3d87cc7e	0.06630801
37	0xbd7c7536	-0.06163522
38	0xbed47321	-0.41494086
39	0x3e1b4c2b	0.15165775
40	0xbd7f38ea	-0.062310137
41	0xbd996eef	-0.07491862
42	0xbecf239d	-0.40456858
43	0x3e793261	0.24335624
44	0x3ea35379	0.31899622
45	0x3ec836e4	0.39104378
46	0xbcb66659	-0.0222656
47	0x3ea3caa0	0.31990528
48	0xbd5254af	-0.05135029
49	0x3e2548e3	0.16141085
50	0xbe8f093e	-0.2793674
51	0x3d2a8968	0.041634947
52	0xbdae560a	-0.085125044
53	0xbb839481	-0.004015506
54	0x3e95506c	0.2916292
55	0xbee8e597	-0.45487663
56	0x3e69b3fb	0.22822563
57	0x3dc50515	0.0962011
58	0x3e2092b0	0.15680957
59	0xbe359b2e	-0.17734978
60	0x3eace66d	0.3376955
61	0xbcc203f0	-0.023683518
62	0x3e96c1e9	0.29444817
63	0xbeaee533	-0.3415924
64	0xbe2c8d82	-0.16850856
65	0xbdffc5f3	-0.12488928
66	0x3e716ce0	0.23576689
67	0xbe1a0221	-0.15039875
68	0xbd9b41e1	-0.07580925
69	0xbc45f4b2	-0.012082266
70	0xbe4b8445	-0.19874676
71	0xbc7581ab	-0.0149845285
72	0x3eb2564c	0.34831464
73	0xbe8c0de1	-0.2735434
74	0xbd8bda55	-0.06828753
75	0x3daccca4	0.084374696
76	0x3d34217f	0.043977257
77	0x3db9ee3c	0.09078643
78	0xbe17a800	-0.1481018
79	0xbe453c8d	-0.1926138
80	0xbd705154	-0.05867131
81	0x3ebbc8fb	0.36676773
82	0x3dd683cb	0.10474356
83	0x3e4ccb41	0.1999941
84	0xbeb1795f	-0.3466291
85	0x3de5b943	0.112169765
86	0x3e437858	0.19088876
87	0xbe6bc146	-0.23022947
88	0xbdfc2ded	-0.12313447
89	0x3e6b8866	0.2300125
90	0x3e0ef9bd	0.13962455
91	0xbcb59ded	-0.022170031
92	0x3d71b4fc	0.05901049
93	0x3ea3e1d3	0.32008228
94	0xbf263b53	-0.6493427
95	0xbe082b32	-0.13297728
96	0x3dd80c90	0.10549271
97	0x3db0b4e5	0.08628253
98	0xbeb6f9a7	-0.35737345
99	0x3e2f779d	0.17135473
100	0xbe95ed4c	-0.29282606
101	0xbe8fe924	-0.2810756
102	0xbe2e6311	-0.17029978
103	0xbe9cf54c	-0.30655897
104	0x3e5ef4b2	0.21773031
105	0x3e5efd04	0.21776205
106	0x3d3cf87f	0.04613542
107	0x3d009b2a	0.031397976
108	0xbe9df35e	-0.30849737
109	0x3e94f57e	0.29093546
110	0xbe579481	-0.21052743
111	0x3ead5160	0.33851147
112	0x3e4194a5	0.1890436
113	0x3e61f2ff	0.22065352
114	0xbda705f3	-0.081554316
115	0xbe3022c8	-0.17200768
116	0xbe8605b3	-0.26176223
117	0xbe481269	-0.19538273
118	0x3d7d0b52	0.061778374
119	0xbe38de33	-0.18053512
120	0xbe26165f	-0.16219471
121	0x3eddefe8	0.43347096
122	0xbe89a2ef	-0.2688212
123	0xbe224eb6	-0.15850338
124	0x3e846e3d	0.25865355
125	0x3e79f3b4	0.24409372
126	0xbe994713	-0.29937038
127	0x3d668410	0.05627829
128	0xbe3c2038	-0.18371665
129	0xbe518b4a	-0.20463291
130	0x3eb1fc1b	0.34762654
131	0x3db13e58	0.08654469
132	0x3e4922a8	0.19642127
133	0x3ecda6df	0.40166375
134	0xbe8b6b37	-0.27230236
135	0xbd6547e6	-0.05597677
136	0x3d0f7645	0.0350249
137	0x3e6571a8	0.22406638
138	0x3de01999	0.10942382
139	0xbcbbbadb	-0.022916248
140	0x3ba8cb34	0.005151177
141	0xbeeb98fa	-0.4601515
142	0xbe8e0fa1	-0.277463
143	0x3e396e3c	0.18108457
144	0x3eea8b51	0.45809415
145	0xbe9daa81	-0.30794147
146	0x3d3c0d53	0.045911144
147	0x3c5cd49f	0.013478427
148	0x3ecfafe7	0.4056389
149	0xbe17d930	-0.14828944
150	0xbd9fa8d7	-0.077958755
151	0x3e89c97c	0.26911533
152	0xbe3f779e	-0.18697974
153	0xbc7c2bee	-0.015391333
154	0x3f23e400	0.64019775
155	0x3e9e6134	0.30933535
156	0xbe03d967	-0.12875901
157	0x3ed4574c	0.41472852
158	0xbc095e10	-0.008384243
159	0xbe85365e	-0.2601804
160	0x3e026d31	0.12736966
161	0x3e4129f0	0.18863654
162	0xbbcfa7cd	-0.006337142
163	0x3f0a2f50	0.53978443
164	0xbd9861db	-0.074405394
165	0xbdb02a51	-0.08601821
166	0x3d829781	0.06376553
167	0x3db0df9d	0.08636401
168	0xbe0a4c29	-0.13505615
169	0x3e2f0a3b	0.17093746
170	0xbec5172f	-0.3849425
171	0xbf004c89	-0.50116783
172	0xbe7e604b	-0.2484142
173	0x3e121102	0.142643
174	0x3e654347	0.22388946
175	0xbe0eecf4	-0.13957578
176	0x3e70a31a	0.23499718
177	0x3ea11338	0.31459975
178	0x3ea3da1c	0.32002342
179	0x3d092c70	0.033489645
180	0x3e7ce029	0.24694885
181	0xbd65124f	-0.055925664
182	0xbdb775ac	-0.08957991
183	0xbec1a290	-0.37819338
184	0x3e65851c	0.22414058
185	0xbc095718	-0.008382581
186	0x3e15f4e0	0.14644194
187	0xbdc56d7a	-0.096400216
188	0xbe780a50	-0.24222684
189	0x3d896dcc	0.06710395
190	0xbe46e307	-0.19422542
191	0xbdc0a3bc	-0.0940623
192	0x3e87d8bc	0.26532543
193	0xbe606dff	-0.2191696
194	0x3e305e0f	0.1722338
195	0x3c3c5fba	0.011497432
196	0xbe40902c	-0.18804997
197	0x3e9ce04e	0.3063988
198	0x3e1d3906	0.15353784
199	0xbea052ff	-0.3131332
200	0x3d8302d8	0.06397027
201	0x3e912d53	0.28354892
202	0xb943ae5e	-0.00018661606
203	0x3ca6cce9	0.02036138
204	0xbe98f80a	-0.2987674
205	0x3e6c40b8	0.23071563
206	0x3eee8af6	0.46590394
207	0xbe1fe5ac	-0.15614957
208	0x3ebe40f8	0.37158942
209	0x3ea942ff	0.33058926
210	0xbe13bfa2	-0.14428571
211	0x3e7373c5	0.23774631
212	0x3d6805d0	0.05664617
213	0x3e3624a5	0.17787416
214	0x3dc98d3a	0.0984139
215	0x3c4de757	0.012567363
216	0x3cfed0bc	0.031105392
217	0x3eb82e20	0.3597269
218	0xbd20bc99	-0.03924236
219	0x3e629a7e	0.22129247
220	0x3b9b23b0	0.004734479
221	0x3d6d277f	0.057898995
222	0x3e101b57	0.1407293
223	0x3c1bbbcf	0.009505226
224	0x3e23194e	0.15927622
225	0xbdb409f1	-0.08790959
226	0x3d466f00	0.0484457
227	0x3ddfbb3f	0.10924386
228	0xbec213e1	-0.3790579
229	0xbde0d289	-0.109776564
230	0xbeeeb791	-0.46624425
231	0x3dadfdb3	0.08495655
232	0xbf439a00	-0.7640686
233	0x3dbdffe4	0.09277323
234	0xbe03041a	-0.12794533
235	0x3db284d8	0.08716744
236	0x3e60a425	0.21937616
237	0x3e348138	0.17627418
238	0xbb9d7f59	-0.004806441
239	0x3e48e1e0	0.19617414
240	0xbde9ec80	-0.11422062
241	0x3d00627a	0.031343915
242	0xbdc0b481	-0.094094284
243	0x3e3075cd	0.17232437
244	0xbdfa8aee	-0.1223353
245	0xbe54748f	-0.20747589
246	0xbd27cc69	-0.040966425
247	0xbcf9b8af	-0.030483572
248	0x3e506192	0.2034972
249	0xbe0e8ce0	-0.13920927
250	0x3e461837	0.19345175
251	0xbe50b460	-0.20381308
252	0xbe1c53f6	-0.15266404
253	0xbe1fb681	-0.15596963
254	0x3dcfd706	0.10148434
255	0xbe8927ce	-0.2678818

backbone.h.bias f4 [30]
0	0x3e141d3a	0.14464274
1	0xbd10a16d	-0.035310198
2	0xbe1c16ad	-0.15243025
3	0x3e23fb14	0.16013747
4	0x3c62630e	0.013817562
5	0xbdf3a31f	-0.11896347
6	0xbda20f31	-0.07913054
7	0xbe4403a5	-0.19142015
8	0xbdb09828	-0.086227715
9	0x3e58a34e	0.21156046
10	0xbe3164e5	-0.17323644
11	0xbdbd5baf	-0.09246003
12	0xbe9e7a01	-0.30952457
13	0xbd8f2035	-0.06988565
14	0x3e15c060	0.14624166
15	0x3e54bbff	0.2077484
16	0x3c73ca82	0.014879825
17	0x3d7d24bd	0.061802614
18	0xbca0d29b	-0.019631675
19	0x3b0a8b2b	0.002114008
20	0x3c1a0a15	0.009401818
21	0xbd3cb5c4	-0.046071783
22	0x3d7dd12a	0.061967053
23	0x3e41a415	0.18910249
24	0x3ccb061f	0.024783192
25	0xbe42ffe0	-0.19042921
26	0x3d5570e6	0.05210962
27	0x3d5fac6a	0.054607786
28	0x3d7ac972	0.06122727
29	0xbe5edc35	-0.2176369

backbone.out.weight f4 [5, 30]
0	0x3ebb03d9	0.36526373
1	0xbf1e3d19	-0.6181198
2	0x3ee8b758	0.4545238
3	0x3efe8f7d	0.49718848
4	0xbf3ac9ad	-0.7296398
5	0xbefadb9c	-0.48995674
6	0x3f05ef98	0.52318716
7	0xbe93ccac	-0.2886709
8	0x3f539a92	0.8265773
9	0xbd807828	-0.06272918
10	0x3f05b115	0.5222333
11	0xbe5e7363	-0.21723704
12	0xbf0454cf	-0.5169191
13	0xbef04952	-0.4693094
14	0x3dae3690	0.08506501
15	0xbe7441bd	-0.23853202
16	0xbe82eb16	-0.2556998
17	0xbe0f2116	-0.13977465
18	0xbf3fed76	-0.7497171
19	0xbe6a6b9f	-0.22892617
20	0x3d1d19c0	0.038354635
21	0x3efbc167	0.49170992
22	0x3efc44c2	0.49271208
23	0x3cd23a6f	0.025662629
24	0xbf0483ea	-0.51763785
25	0xbec4742c	-0.38369882
26	0xbce37a65	-0.027768323
27	0xbe3288c7	-0.17434989
28	0xbefc8102	-0.49317175
29	0x3e177e56	0.14794287
30	0x3e92c232	0.28663784
31	0x3d848e39	0.06472439
32	0x3dfd519c	0.123690814
33	0x3c547aee	0.012968762
34	0xbe8f985f	-0.28045937
35	0xbeb8b86e	-0.3607821
36	0x3e9ad128	0.302377
37	0xbe68a69e	-0.2271981
38	0x3e98d18e	0.29847378
39	0x3ed671d2	0.41883713
40	0xbe954251	-0.29152158
41	0xbe9b8bdb	-0.3038014
42	0x3e230f07	0.15923701
43	0xbebc1a14	-0.36738646
44	0xbe443434	-0.19160539
45	0x3e3f03f9	0.18653859
46	0xbc7b0796	-0.015321633
47	0xbd47618d	-0.048677016
48	0x3dd7ec8d	0.10543165
49	0x3db90def	0.09035861
50	0x3ea426f3	0.32060966
51	0x3e1c8bcb	0.15287702
52	0xbdd3a8a4	-0.103349
53	0x3caede60	0.021346271
54	0xbeb52c4f	-0.35385367
55	0x3eb69e70	0.35667753
56	0x3c172fb9	0.009227687
57	0x3d45c21e	0.048280828
58	0xbeab58d8	-0.3346622
59	0x3c577d07	0.013152367
60	0xbe265339	-0.16242684
61	0x3e70fc79	0.2353381
62	0xbe8b7ce2	-0.27243716
63	0xbe4f7d68	-0.20262682
64	0x3ed875ef	0.42277476
65	0x3ecc6ae8	0.39925313
66	0xbf004544	-0.5010569
67	0x3ec26bab	0.3797277
68	0xbeeb4035	-0.45947424
69	0xbe7503cf	-0.23927234
70	0xbe4dd310	-0.20100045
71	0x3e3b5555	0.1829427
72	0x3e08ba47	0.13352309
73	0x3ebd673c	0.36992824
74	0xbe12fd7e	-0.14354512
75	0xbd458c30	-0.048229396
76	0x3f05b1ca	0.5222441
77	0x3eba15ff	0.36344907
78	0x3f31138b	0.69170445
79	0x3f10f757	0.5662741
80	0xbe5f8312	-0.21827343
81	0xbeb90ba5	-0.36141697
82	0xbf1b745e	-0.6072444
83	0xbe1cfb21	-0.15330173
84	0x3f0e8579	0.55672413
85	0x3e4be459	0.19911326
86	0xbd321e48	-0.04348591
87	0x3e0d38b4	0.13791162
88	0x3ea9feb5	0.3320214
89	0xbc32c499	-0.01091113
90	0x3ec82e3c	0.39097774
91	0xbcd93041	-0.026512267
92	0x3e1b6a8c	0.15177363
93	0x3e315179	0.17316236
94	0xbe3a6e88	-0.18206227
95	0xbee4baa0	-0.44673634
96	0x3e4f04d8	0.20216691
97	0xbe4f7c5f	-0.20262288
98	0x3ea00062	0.31250292
99	0x3e92071a	0.28521043
100	0xbe252bfa	-0.16130057
101	0xbed1ad7c	-0.4095267
102	0x3d2e8442	0.0426066
103	0xbee99ef8	-0.45629096
104	0x3da5adb5	0.080897726
105	0x3e303829	0.17208923
106	0xbe9f9dbe	-0.31175035
107	0xbe0f74f5	-0.1400946
108	0x3d05b9b1	0.032647792
109	0x3ca18c0a	0.019720096
110	0x3ea4ae91	0.32164434
111	0x3e361e89	0.17785086
112	0x3c828c02	0.015935902
113	0xbccd28df	-0.025043903
114	0xbe509b3d	-0.20371719
115	0x3e89cf08	0.26915765
116	0x3d488b03	0.048960697
117	0xbcdedce0	-0.02720493
118	0xbef6378c	-0.48089254
119	0x3d607433	0.054798316
120	0xbe94fb33	-0.290979
121	0x3d030382	0.031985767
122	0xbe8169a8	-0.25275922
123	0xbec6b53d	-0.3881015
124	0x3f344680	0.70420074
125	0x3ec621b5	0.3869759
126	0xbed32697	-0.4124038
127	0x3ebe05d7	0.3711383
128	0xbf1c6b28	-0.6110101
129	0xbeeedce0	-0.4665289
130	0x3e3b0eb1	0.18267323
131	0x3ebae9d8	0.36506534
132	0x3e8523f9	0.26004007
133	0x3ec12384	0.3772241
134	0xbe63bba3	-0.22239546
135	0x3dea8523	0.11451175
136	0x3ebab529	0.3646634
137	0x3d8eedab	0.06978925
138	0x3e60a8b3	0.21939354
139	0x3e06fd3a	0.13182536
140	0xbf24be77	-0.64353126
141	0xbeb6d7f8	-0.35711646
142	0xbeacbfa7	-0.3373997
143	0xbe5f0978	-0.21780956
144	0x3e5476bd	0.2074842
145	0xbdfb6eb3	-0.122769736
146	0x3dd4d97f	0.103930466
147	0xbce9d351	-0.028543146
148	0x3eb3fc49	0.35153416
149	0xbe438087	-0.19091998

backbone.out.bias f4 [5]
0	0xbe11611a	-0.14197198
1	0xbc9ad540	-0.018900514
2	0x3e201f1a	0.15636864
3	0x3df7b183	0.120944045
4	0x3d9f7e23	0.077877305

weight f4 [30, 1]
0	0xbf6ee002	-0.9331056
1	0xbe012dec	-0.12615174
2	0xbf04deb8	-0.5190234
3	0x3f2afd8c	0.6679313
4	0xbf23078a	-0.6368338
5	0xbe95cf2d	-0.29259625
6	0xbf0a94a9	-0.5413309
7	0xbf1c4777	-0.61046547
8	0xbf3ea045	-0.744633
9	0xbe203e81	-0.15648843
10	0xbeaef730	-0.34172964
11	0xbeaeeb31	-0.34163812
12	0xbf8c9a45	-1.0984579
13	0xbdced38b	-0.10098942
14	0x3f0c1666	0.5472168
15	0x3ed33511	0.41251424
16	0x3db6bf48	0.08923203
17	0x3f20b617	0.6277785
18	0x3eccf1af	0.4002814
19	0x3f1c3c4b	0.610295
20	0x3f35937b	0.7092816
21	0xbf64c18e	-0.8935784
22	0x3f9e82e1	1.2383691
23	0x3e4d2ed0	0.20037389
24	0x3f7a3885	0.9774249
25	0xbf97a3e8	-1.1846895
26	0xbf4d3798	-0.80162954
27	0x3eabcaca	0.33553153
28	0x3e7170b6	0.23578152
29	0xbfa9d4ba	-1.3268044

bias f4 [30]
0	0xbf5e4f2a	-0.86839545
1	0xbf5cd9f4	-0.8627007
2	0xbee8992e	-0.45429367
3	0x3ceaae99	0.028647708
4	0x3cbb93de	0.022897657
5	0xbe3323d3	-0.17494135
6	0xbf026a4a	-0.50943434
7	0x3e907d48	0.28220582
8	0xbe4ce3b0	-0.20008731
9	0x3f0fdb9f	0.5619449
10	0xbf07240d	-0.52789384
11	0xbf26395f	-0.6493129
12	0x3e18092d	0.1484725
13	0x3e7fca45	0.24979503
14	0x3f4bfe70	0.79685116
15	0x3f6e88a2	0.93177235
16	0x3f49c5a8	0.78817225
17	0x3ec20042	0.37890822
18	0xbe26b9da	-0.16281834
19	0x3e5a2e90	0.21306825
20	0xbf50ef45	-0.81615096
21	0xbec5af1f	-0.3861017
22	0xbf264e5f	-0.64963335
23	0xbf382f32	-0.71947014
24	0x3ea5b037	0.32361004
25	0x3f1f9b9a	0.62346804
26	0xbd1eeff4	-0.038803056
27	0x3e4a8ab2	0.1977947
28	0xbede752c	-0.4344877
29	0x3e1f4441	0.1555338

weight f4 [30, 30]
0	0x3e8c238c	0.2737087
1	0xbdd33fa9	-0.103148766
2	0x3e59fdce	0.21288225
3	0xbdc308f3	-0.09523191
4	0xbd31748a	-0.04332403
5	0xbd638f31	-0.05555648
6	0x3e41d425	0.18928583
7	0x3dce2791	0.100661404
8	0xbdf2afad	-0.11849914
9	0x3e045e5f	0.12926625
10	0xbe836e3f	-0.2567005
11	0xbc1cd424	-0.009572063
12	0x3dfd71e9	0.12375242
13	0xbe9ce230	-0.30641317
14	0xbd039ef0	-0.032133996
15	0x3e133340	0.14375019
16	0xbe0fc659	-0.14040507
17	0x3e8c5903	0.2741166
18	0x3d6b2a4c	0.057413384
19	0xbe5046b0	-0.20339465
20	0x3c59f46c	0.013302904
21	0x3e4612a1	0.19343044
22	0x3d4ed102	0.050492294
23	0x3e60a4e8	0.21937907
24	0xbe81c1c5	-0.25343147
25	0x3e82a59c	0.25516975
26	0x3f0580db	0.5214974
27	0xbea9df1d	-0.33178034
28	0x3e8b57bd	0.27215376
29	0x3e9b117b	0.30286774
30	0xbe17035d	-0.14747377
31	0x3f3dc2e3	0.741255
32	0xbe25597c	-0.16147417
33	0x3e9255e1	0.28581145
34	0xbe462e76	-0.19353661
35	0xbdfccc1a	-0.12343617
36	0x3d87cc7e	0.06630801
37	0xbd7c7536	-0.06163522
38	0xbed47321	-0.41494086
39	0x3e1b4c2b	0.15165775
40	0xbd7f38ea	-0.062310137
41	0xbd996eef	-0.07491862
42	0xbecf239d	-0.40456858
43	0x3e793261	0.24335624
44	0x3ea35379	0.31899622
45	0x3ec836e4	0.39104378
46	0xbcb66659	-0.0222656
47	0x3ea3caa0	0.31990528
48	0xbd5254af	-0.05135029
49	0x3e2548e3	0.16141085
50	0xbe8f093e	-0.2793674
51	0x3d2a8968	0.041634947
52	0xbdae560a	-0.085125044
53	0xbb839481	-0.004015506
54	0x3e95506c	0.2916292
55	0xbee8e597	-0.45487663
56	0x3e69b3fb	0.22822563
57	0x3dc50515	0.0962011
58	0x3e2092b0	0.15680957
59	0xbe359b2e	-0.17734978
60	0x3eace66d	0.3376955
61	0xbcc203f0	-0.023683518
62	0x3e96c1e9	0.29444817
63	0xbeaee533	-0.3415924
64	0xbe2c8d82	-0.16850856
65	0xbdffc5f3	-0.12488928
66	0x3e716ce0	0.23576689
67	0xbe1a0221	-0.15039875
68	0xbd9b41e1	-0.07580925
69	0xbc45f4b2	-0.012082266
70	0xbe4b8445	-0.19874676
71	0xbc7581ab	-0.0149845285
72	0x3eb2564c	0.34831464
73	0xbe8c0de1	-0.2735434
74	0xbd8bda55	-0.06828753
75	0x3daccca4	0.084374696
76	0x3d34217f	0.043977257
77	0x3db9ee3c	0.09078643
78	0xbe17a800	-0.1481018
79	0xbe453c8d	-0.1926138
80	0xbd705154	-0.05867131
81	0x3ebbc8fb	0.36676773
82	0x3dd683cb	0.10474356
83	0x3e4ccb41	0.1999941
84	0xbeb1795f	-0.3466291
85	0x3de5b943	0.112169765
86	0x3e437858	0.19088876
87	0xbe6bc146	-0.23022947
88	0xbdfc2ded	-0.12313447
89	0x3e6b8866	0.2300125
90	0x3e0ef9bd	0.13962455
91	0xbcb59ded	-0.022170031
92	0x3d71b4fc	0.05901049
93	0x3ea3e1d3	0.32008228
94	0xbf263b53	-0.6493427
95	0xbe082b32	-0.13297728
96	0x3dd80c90	0.10549271
97	0x3db0b4e5	0.08628253
98	0xbeb6f9a7	-0.35737345
99	0x3e2f779d	0.17135473
100	0xbe95ed4c	-0.29282606
101	0xbe8fe924	-0.2810756
102	0xbe2e6311	-0.17029978
103	0xbe9cf54c	-0.30655897
104	0x3e5ef4b2	0.21773031
105	0x3e5efd04	0.21776205
106	0x3d3cf87f	0.04613542
107	0x3d009b2a	0.031397976
108	0xbe9df35e	-0.30849737
109	0x3e94f57e	0.29093546
110	0xbe579481	-0.21052743
111	0x3ead5160	0.33851147
112	0x3e4194a5	0.1890436
113	0x3e61f2ff	0.22065352
114	0xbda705f3	-0.081554316
115	0xbe3022c8	-0.17200768
116	0xbe8605b3	-0.26176223
117	0xbe481269	-0.19538273
118	0x3d7d0b52	0.061778374
119	0xbe38de33	-0.18053512
120	0xbe26165f	-0.16219471
121	0x3eddefe8	0.43347096
122	0xbe89a2ef	-0.2688212
123	0xbe224eb6	-0.15850338
124	0x3e846e3d	0.25865355
125	0x3e79f3b4	0.24409372
126	0xbe994713	-0.29937038
127	0x3d668410	0.05627829
128	0xbe3c2038	-0.18371665
129	0xbe518b4a	-0.20463291
130	0x3eb1fc1b	0.34762654
131	0x3db13e58	0.08654469
132	0x3e4922a8	0.19642127
133	0x3ecda6df	0.40166375
134	0xbe8b6b37	-0.27230236
135	0xbd6547e6	-0.05597677
136	0x3d0f7645	0.0350249
137	0x3e6571a8	0.22406638
138	0x3de01999	0.10942382
139	0xbcbbbadb	-0.022916248
140	0x3ba8cb34	0.005151177
141	0xbeeb98fa	-0.4601515
142	0xbe8e0fa1	-0.277463
143	0x3e396e3c	0.18108457
144	0x3eea8b51	0.45809415
145	0xbe9daa81	-0.30794147
146	0x3d3c0d53	0.045911144
147	0x3c5cd49f	0.013478427
148	0x3ecfafe7	0.4056389
149	0xbe17d930	-0.14828944
150	0xbd9fa8d7	-0.077958755
151	0x3e89c97c	0.26911533
152	0xbe3f779e	-0.18697974
153	0xbc7c2bee	-0.015391333
154	0x3f23e400	0.64019775
155	0x3e9e6134	0.30933535
156	0xbe03d967	-0.12875901
157	0x3ed4574c	0.41472852
158	0xbc095e10	-0.008384243
159	0xbe85365e	-0.2601804
160	0x3e026d31	0.12736966
161	0x3e4129f0	0.18863654
162	0xbbcfa7cd	-0.006337142
163	0x3f0a2f50	0.53978443
164	0xbd9861db	-0.074405394
165	0xbdb02a51	-0.08601821
166	0x3d829781	0.06376553
167	0x3db0df9d	0.08636401
168	0xbe0a4c29	-0.13505615
169	0x3e2f0a3b	0.17093746
170	0xbec5172f	-0.3849425
171	0xbf004c89	-0.50116783
172	0xbe7e604b	-0.2484142
173	0x3e121102	0.142643
174	0x3e654347	0.22388946
175	0xbe0eecf4	-0.13957578
176	0x3e70a31a	0.23499718
177	0x3ea11338	0.31459975
178	0x3ea3da1c	0.32002342
179	0x3d092c70	0.033489645
180	0x3e7ce029	0.24694885
181	0xbd65124f	-0.055925664
182	0xbdb775ac	-0.08957991
183	0xbec1a290	-0.37819338
184	0x3e65851c	0.22414058
185	0xbc095718	-0.008382581
186	0x3e15f4e0	0.14644194
187	0xbdc56d7a	-0.096400216
188	0xbe780a50	-0.24222684
189	0x3d896dcc	0.06710395
190	0xbe46e307	-0.19422542
191	0xbdc0a3bc	-0.0940623
192	0x3e87d8bc	0.26532543
193	0xbe606dff	-0.2191696
194	0x3e305e0f	0.1722338
195	0x3c3c5fba	0.011497432
196	0xbe40902c	-0.18804997
197	0x3e9ce04e	0.3063988
198	0x3e1d3906	0.15353784
199	0xbea052ff	-0.3131332
200	0x3d8302d8	0.06397027
201	0x3e912d53	0.28354892
202	0xb943ae5e	-0.00018661606
203	0x3ca6cce9	0.02036138
204	0xbe98f80a	-0.2987674
205	0x3e6c40b8	0.23071563
206	0x3eee8af6	0.46590394
207	0xbe1fe5ac	-0.15614957
208	0x3ebe40f8	0.37158942
209	0x3ea942ff	0.33058926
210	0xbe13bfa2	-0.14428571
211	0x3e7373c5	0.23774631
212	0x3d6805d0	0.05664617
213	0x3e3624a5	0.17787416
214	0x3dc98d3a	0.0984139
215	0x3c4de757	0.012567363
216	0x3cfed0bc	0.031105392
217	0x3eb82e20	0.3597269
218	0xbd20bc99	-0.03924236
219	0x3e629a7e	0.22129247
220	0x3b9b23b0	0.004734479
221	0x3d6d277f	0.057898995
222	0x3e101b57	0.1407293
223	0x3c1bbbcf	0.009505226
224	0x3e23194e	0.15927622
225	0xbdb409f1	-0.08790959
226	0x3d466f00	0.0484457
227	0x3ddfbb3f	0.10924386
228	0xbec213e1	-0.3790579
229	0xbde0d289	-0.109776564
230	0xbeeeb791	-0.46624425
231	0x3dadfdb3	0.08495655
232	0xbf439a00	-0.7640686
233	0x3dbdffe4	0.09277323
234	0xbe03041a	-0.12794533
235	0x3db284d8	0.08716744
236	0x3e60a425	0.21937616
237	0x3e348138	0.17627418
238	0xbb9d7f59	-0.004806441
239	0x3e48e1e0	0.19617414
240	0xbde9ec80	-0.11422062
241	0x3d00627a	0.031343915
242	0xbdc0b481	-0.094094284
243	0x3e3075cd	0.17232437
244	0xbdfa8aee	-0.1223353
245	0xbe54748f	-0.20747589
246	0xbd27cc69	-0.040966425
247	0xbcf9b8af	-0.030483572
248	0x3e506192	0.2034972
249	0xbe0e8ce0	-0.13920927
250	0x3e461837	0.19345175
251	0xbe50b460	-0.20381308
252	0xbe1c53f6	-0.15266404
253	0xbe1fb681	-0.15596963
254	0x3dcfd706	0.10148434
255	0xbe8927ce	-0.2678818

bias f4 [30]
0	0x3e141d3a	0.14464274
1	0xbd10a16d	-0.035310198
2	0xbe1c16ad	-0.15243025
3	0x3e23fb14	0.16013747
4	0x3c62630e	0.013817562
5	0xbdf3a31f	-0.11896347
6	0xbda20f31	-0.07913054
7	0xbe4403a5	-0.19142015
8	0xbdb09828	-0.086227715
9	0x3e58a34e	0.21156046
10	0xbe3164e5	-0.17323644
11	0xbdbd5baf	-0.09246003
12	0xbe9e7a01	-0.30952457
13	0xbd8f2035	-0.06988565
14	0x3e15c060	0.14624166
15	0x3e54bbff	0.2077484
16	0x3c73ca82	0.014879825
17	0x3d7d24bd	0.061802614
18	0xbca0d29b	-0.019631675
19	0x3b0a8b2b	0.002114008
20	0x3c1a0a15	0.009401818
21	0xbd3cb5c4	-0.046071783
22	0x3d7dd12a	0.061967053
23	0x3e41a415	0.18910249
24	0x3ccb061f	0.024783192
25	0xbe42ffe0	-0.19042921
26	0x3d5570e6	0.05210962
27	0x3d5fac6a	0.054607786
28	0x3d7ac972	0.06122727
29	0xbe5edc35	-0.2176369
